app/src/main/assets/model/rain_prediction_1hour.tflite (tflite, 508128 bytes, 11 tensors)

sequential_2/lstm_5/Read_2/ReadVariableOp f4 [256]
00000000: 1a14 a43c bae5 7a3d 4c10 763d 44ce 553d
00000010: 9b08 1c3d 24d5 1f3d add4 3e3d e3d5 233d
00000020: a5bd 353d 21e9 b63d a519 5c3d 9e78 433d
00000030: 6921 203d 2c0f 103d 25e8 2d3d 9846 e13c
00000040: f0c9 503d 5374 923d beed 41bc c3ad e43c
00000050: a73b 883d 10e7 893d 3b10 4d3d d9da 663b
00000060: f7d6 e63c 7eca fd3c d72d 413d 3106 1c3d
00000070: ed42 3d3d 3149 b3bb 75dd 673d 7a0d f93c
00000080: 12aa 833d 0d70 4e3d 2b6a 013d b361 783c
00000090: 46f4 b23d e185 8c3d 76ea 5e3c 8639 0e3d
000000a0: 2fb0 263d e873 39bc fcd0 3a3d 1b42 103d
000000b0: ebcd a23d 3cf7 833d 6d23 853d 6fbd 1f3d
000000c0: aede 483d 710b f33c af9c 3a3d 38ef 933d
000000d0: 3a26 7c3d 48fb 4f3d b878 9d3d fc3d 003d
000000e0: 6bda 823d b6e9 ca3d 20d5 673d 2fec 5f3d
000000f0: c887 173a 9cb6 aa3c 6389 213d f8e5 503d
00000100: 0000 803f 0000 803f 0000 803f 0000 803f
00000110: 0000 803f 0000 803f 0000 803f 0000 803f
00000120: 0000 803f 0000 803f 0000 803f 0000 803f
00000130: 0000 803f 0000 803f 0000 803f 0000 803f
00000140: 0000 803f 0000 803f 0000 803f 0000 803f
00000150: 0000 803f 0000 803f 0000 803f 0000 803f
00000160: 0000 803f 0000 803f 0000 803f 0000 803f
00000170: 0000 803f 0000 803f 0000 803f 0000 803f
00000180: 0000 803f 0000 803f 0000 803f 0000 803f
00000190: 0000 803f 0000 803f 0000 803f 0000 803f
000001a0: 0000 803f 0000 803f 0000 803f 0000 803f
000001b0: 0000 803f 0000 803f 0000 803f 0000 803f
000001c0: 0000 803f 0000 803f 0000 803f 0000 803f
000001d0: 0000 803f 0000 803f 0000 803f 0000 803f
000001e0: 0000 803f 0000 803f 0000 803f 0000 803f
000001f0: 0000 803f 0000 803f 0000 803f 0000 803f
00000200: 3971 5b3d 80b6 963d c7be 81bd 90cd a53d
00000210: c172 573d 4038 853d b7b5 73bd 9bfa 703d
00000220: f7bd 8c3d a221 7e3d 4fe0 bb3d 46da 913d
00000230: 30c8 9d3d f6ef 5bbd 43dc 95bd 63f3 8b3d
00000240: 10de 913d 19fd bebd c504 313d 00fe 5cbd
00000250: 211d ba3d 511a c0bd 5456 833d 1e52 ff3c
00000260: b480 9d3d 14ac 99bd 784e 893d 24f2 5bbd
00000270: 6ea6 813d e2a8 3bbd 6b64 6a3d dffa 66bd
00000280: 739c c8bd 1b15 81bd 2055 2e3d 08c8 7cbd
00000290: f40a c23d 26cc c2bd 9405 0bbd 3b82 933d
000002a0: 21a5 90bd 3ef1 07bd c17f 5a3d ba95 003d
000002b0: 6952 d53d 8953 98bd 078a a93d 34b3 7e3d
000002c0: 3c2d 8b3d fe23 62bd 0433 8dbd 86c8 c3bd
000002d0: f1f8 a53d c02f aebd 4ab6 c13d 1dda 7d3d
000002e0: db5a a8bd 7c3a a93d 699e 93bd 6158 9fbd
000002f0: 410c 123d 7513 64bd 845b 93bd cacd 973d
00000300: 6284 973c 8eb2 733d 070b 673d 1472 493d
00000310: bb02 143d 3ff8 203d e30a 363d e45f 2a3d
00000320: e8a7 263d 28dc bb3d 19d3 4b3d e431 3e3d
00000330: 8688 0f3d fb69 0a3d ed7c 373d 9f2a dd3c
00000340: 8843 363d da78 8b3d ebc3 57bc 823b c23c
00000350: 5137 803d 961c 7e3d 07d6 453d 343e 5d3b
00000360: ebdd e33c 925a ea3c fdef 3c3d 3324 213d
00000370: 2e09 413d 256d dfbb 991d 5e3d 3ed5 f33c
00000380: 2f5a 833d 46c6 433d acbd f63c 859c 623c
00000390: 9765 a93d d17d 8d3d f65e 793c 8955 093d
000003a0: ae83 253d 0085 3dbc 3b0d 303d eb9e 023d
000003b0: cae2 9e3d 21eb 803d cb0e 873d b473 1e3d
000003c0: 6795 443d 8ff8 cb3c b8f9 313d 2e7c 923d
000003d0: 4205 623d ec47 5c3d b536 913d 6da8 f03c
000003e0: d3e4 763d 70ed bc3d e158 593d 7fe1 523d
000003f0: badc ca3a aacd 9f3c 82c2 103d 656c 403d
0.020029116 0.06125424 0.060074136 0.052198663 0.038094144 0.039021626 0.046589542 0.0399989
0.044370312 0.089311846 0.053735394 0.04772245 0.039094362 0.03517072 0.04245772 0.027499482
0.050973833 0.07151093 -0.011836467 0.027914887 0.06652003 0.06733525 0.050064307 0.0035225658
0.028178675 0.030980345 0.047162857 0.038091842 0.046206404 -0.0054713716 0.056607682 0.030401934
0.06428923 0.05039983 0.03159539 0.015160012 0.08737998 0.06861473 0.0136057045 0.034722827
0.040695366 -0.011319138 0.04560946 0.035219293 0.07949432 0.064436406 0.065008976 0.038999017
0.04904049 0.029668542 0.04555958 0.07223362 0.061559893 0.05077675 0.07689041 0.031309113
0.06389316 0.09907858 0.056599736 0.0546686 0.0005780426 0.020839028 0.039437663 0.051000565
1.0 1.0 1.0 1.0 1.0 1.0 1.0 1.0
1.0 1.0 1.0 1.0 1.0 1.0 1.0 1.0
1.0 1.0 1.0 1.0 1.0 1.0 1.0 1.0
1.0 1.0 1.0 1.0 1.0 1.0 1.0 1.0
1.0 1.0 1.0 1.0 1.0 1.0 1.0 1.0
1.0 1.0 1.0 1.0 1.0 1.0 1.0 1.0
1.0 1.0 1.0 1.0 1.0 1.0 1.0 1.0
1.0 1.0 1.0 1.0 1.0 1.0 1.0 1.0
0.053574774 0.07359028 -0.06335216 0.080958486 0.052599672 0.065048695 -0.05949947 0.058832746
0.068721704 0.062043793 0.09173643 0.071217105 0.07704198 -0.05369564 -0.07317402 0.06833532
0.07122433 -0.09325618 0.04321744 -0.05395317 0.09087587 -0.093800195 0.0641295 0.031167086
0.07690564 -0.075035244 0.0670442 -0.05369772 0.06330572 -0.045815356 0.057224672 -0.056391593
-0.09795465 -0.06302854 0.04256165 -0.061714202 0.094747454 -0.095115945 -0.033940867 0.07202574
-0.07062746 -0.03318905 0.053344492 0.03139279 0.10416109 -0.07437808 0.0827828 0.06218262
0.06795737 -0.055210106 -0.06894496 -0.09559731 0.081041224 -0.08505201 0.09458597 0.061975587
-0.08220454 0.08263108 -0.07207949 -0.07780529 0.035656217 -0.05568262 -0.071951896 0.07412298
0.018495742 0.059496455 0.056407 0.04918106 0.036135416 0.039299246 0.044443976 0.041595355
0.04068747 0.09172851 0.049761865 0.0464343 0.03504231 0.033792477 0.044796873 0.026997862
0.044497997 0.0681016 -0.013169269 0.023710016 0.06260551 0.06203898 0.048299816 0.0033759
0.02781578 0.02860764 0.04612731 0.039341163 0.047127895 -0.006818431 0.054227445 0.029764768
0.064136855 0.04779651 0.03011974 0.0138312625 0.0827133 0.06908763 0.015220394 0.03352884
0.040408783 -0.011567354 0.042981368 0.031889837 0.077581 0.06294847 0.065946184 0.03868456
0.047994044 0.024898795 0.04345104 0.07152592 0.055180795 0.053779528 0.07090513 0.029377187
0.060276818 0.09224975 0.053063277 0.05148458 0.0015477159 0.019507248 0.035341747 0.046978373

sequential_2/lstm_4/Read_2/ReadVariableOp f4 [512]
00000000: 8bc3 eb3d ebc0 9d3c 7682 0f3d a402 5c3d
00000010: 36be 5e3c e5a4 173d b47a e13c 640a b03c
00000020: c760 da3c 68a2 293d 5880 4cbc 57a3 7c3b
00000030: 99eb 183d 60ef 183e 65ac 273d b51f 8ebc
00000040: 24cd 823e b14c af3d 0968 4b3d c1c2 403e
00000050: dc7d d33c af69 633d eebf 813c 167b 10bd
00000060: 0ee1 593d 9f0c f3bc 7872 9a3c 7a49 cebb
00000070: 692b 2f3d c88d 193d c52d 593d 3070 763c
00000080: 0006 233d 4aad a53c 8995 313c 468b 443d
00000090: ec12 ce3d a569 513c c1e4 053d d667 893b
000000a0: 2c1e c03c 2d53 d33d 21bb e03d b5a4 023d
000000b0: 405a 89bc 4705 a53d 2ed3 123e 3e2e 7c3d
000000c0: 63b1 d93d e61f 853d 8d01 713d 94a8 963d
000000d0: 760b b13c a653 a33d ded3 1a3d cecf 243d
000000e0: bfe4 953c 390f 533d b2f0 b2bc 4b85 403d
000000f0: 1fe8 cc3c 79bc 23bd dedd b73c a315 493d
00000100: f9a8 733c 0c36 7a3d 05be c93c 67f0 d23c
00000110: 2568 77bb 0d76 3c3e 8930 ba3d 1f7e 823d
00000120: 9158 863c a2bf bf3c 49d9 a23c 195d 833d
00000130: 9c13 3f3a a21b 9f3d ca2d ecbb 60d9 283e
00000140: dc0c 4abc dddd 693d 081c a33c 6a03 003d
00000150: a8c1 313d 01e1 febc 9c2f 133d 003a 0e3d
00000160: 2baf 8c3d 2d2d 48bb cb5c 4a3d ad2c ef3b
00000170: ffa1 583d 885a 433d 7512 793d 0ab9 8f3d
00000180: 4817 533d 5c2b 523d daa3 553d 98d8 003e
00000190: 00c4 b93b f46d 2e3d af00 393b ad44 ae3c
000001a0: 936c d1b9 859c 9a3b 2c22 debc 853d 403d
000001b0: cdc1 213d f0f7 cd3d 28a6 f93b 02b9 563d
000001c0: a317 0f3d a798 073e c483 a73c d7d3 c1bb
000001d0: 1fe2 8d3c 00c2 c8bb 2efe 883c 4b49 5b3c
000001e0: cc48 e13c d2d9 ed3c 7c21 9c3d e6da 4d3c
000001f0: 230b 013c 72ed 113d f3bd e23d 4b4c 8c3b
00000200: 0000 803f 0000 803f 0000 803f 0000 803f
00000210: 0000 803f 0000 803f 0000 803f 0000 803f
00000220: 0000 803f 0000 803f 0000 803f 0000 803f
00000230: 0000 803f 0000 803f 0000 803f 0000 803f
00000240: 0000 803f 0000 803f 0000 803f 0000 803f
00000250: 0000 803f 0000 803f 0000 803f 0000 803f
00000260: 0000 803f 0000 803f 0000 803f 0000 803f
00000270: 0000 803f 0000 803f 0000 803f 0000 803f
00000280: 0000 803f 0000 803f 0000 803f 0000 803f
00000290: 0000 803f 0000 803f 0000 803f 0000 803f
000002a0: 0000 803f 0000 803f 0000 803f 0000 803f
000002b0: 0000 803f 0000 803f 0000 803f 0000 803f
000002c0: 0000 803f 0000 803f 0000 803f 0000 803f
000002d0: 0000 803f 0000 803f 0000 803f 0000 803f
000002e0: 0000 803f 0000 803f 0000 803f 0000 803f
000002f0: 0000 803f 0000 803f 0000 803f 0000 803f
00000300: 0000 803f 0000 803f 0000 803f 0000 803f
00000310: 0000 803f 0000 803f 0000 803f 0000 803f
00000320: 0000 803f 0000 803f 0000 803f 0000 803f
00000330: 0000 803f 0000 803f 0000 803f 0000 803f
00000340: 0000 803f 0000 803f 0000 803f 0000 803f
00000350: 0000 803f 0000 803f 0000 803f 0000 803f
00000360: 0000 803f 0000 803f 0000 803f 0000 803f
00000370: 0000 803f 0000 803f 0000 803f 0000 803f
00000380: 0000 803f 0000 803f 0000 803f 0000 803f
00000390: 0000 803f 0000 803f 0000 803f 0000 803f
000003a0: 0000 803f 0000 803f 0000 803f 0000 803f
000003b0: 0000 803f 0000 803f 0000 803f 0000 803f
000003c0: 0000 803f 0000 803f 0000 803f 0000 803f
000003d0: 0000 803f 0000 803f 0000 803f 0000 803f
000003e0: 0000 803f 0000 803f 0000 803f 0000 803f
000003f0: 0000 803f 0000 803f 0000 803f 0000 803f
0.11511906 0.01925703 0.035036527 0.053713456 0.0135951545 0.03702249 0.02752433 0.02148933
0.026657475 0.04141465 -0.012481771 0.0038549507 0.03733406 0.14935064 0.040935893 -0.017349103
0.25547135 0.085595496 0.049659763 0.18824293 0.02581685 0.05552071 0.01583859 -0.035273634
0.053193145 -0.029669104 0.018853411 -0.00629538 0.04276601 0.03748873 0.053022165 0.015041396
0.039800644 0.020224232 0.010838875 0.047984384 0.10062203 0.012781535 0.03268886 0.0041932864
0.023451887 0.10318599 0.10973192 0.031895358 -0.016766667 0.08057647 0.14338371 0.061567537
0.10629537 0.06500225 0.05883937 0.073563725 0.02161191 0.07974939 0.03779971 0.04023724
0.018297551 0.05152819 -0.021843288 0.047002118 0.025013028 -0.039974663 0.022444662 0.0490929
0.014871829 0.0610867 0.024626741 0.025749398 -0.0037751284 0.18404408 0.090912886 0.06371712
0.016399654 0.023406807 0.019879 0.06414241 0.0007288994 0.077689424 -0.007207607 0.16489172
-0.0123321675 0.05709635 0.019910827 0.031253256 0.043397576 -0.03111315 0.035934076 0.03472328
0.06869348 -0.0030544505 0.0494049 0.007299027 0.052888867 0.04769376 0.060808618 0.07017715
0.051535875 0.051310882 0.052158214 0.12582624 0.005669117 0.04258533 0.0028229167 0.021272982
-0.0003994448 0.0047183656 -0.027115904 0.04693367 0.039491463 0.10057056 0.0076186843 0.05242253
0.03493465 0.13241826 0.020448573 -0.005915146 0.017319737 -0.006126642 0.016722765 0.013384174
0.027500533 0.029034529 0.07623574 0.0125643965 0.00787619 0.035626836 0.11071386 0.004281556
1.0 1.0 1.0 1.0 1.0 1.0 1.0 1.0
1.0 1.0 1.0 1.0 1.0 1.0 1.0 1.0
1.0 1.0 1.0 1.0 1.0 1.0 1.0 1.0
1.0 1.0 1.0 1.0 1.0 1.0 1.0 1.0
1.0 1.0 1.0 1.0 1.0 1.0 1.0 1.0
1.0 1.0 1.0 1.0 1.0 1.0 1.0 1.0
1.0 1.0 1.0 1.0 1.0 1.0 1.0 1.0
1.0 1.0 1.0 1.0 1.0 1.0 1.0 1.0
1.0 1.0 1.0 1.0 1.0 1.0 1.0 1.0
1.0 1.0 1.0 1.0 1.0 1.0 1.0 1.0
1.0 1.0 1.0 1.0 1.0 1.0 1.0 1.0
1.0 1.0 1.0 1.0 1.0 1.0 1.0 1.0
1.0 1.0 1.0 1.0 1.0 1.0 1.0 1.0
1.0 1.0 1.0 1.0 1.0 1.0 1.0 1.0
1.0 1.0 1.0 1.0 1.0 1.0 1.0 1.0
1.0 1.0 1.0 1.0 1.0 1.0 1.0 1.0

sequential_2/dense_4/BiasAdd/ReadVariableOp f4 [32]
00000000: 1007 ac3d 99c8 ae3d bff3 cfbc e83a ac3d
00000010: 2f26 ddbc d17e efbc 7308 b13d d6f9 c4bc
00000020: 4256 c13d f5b8 f5bc 0b59 35bd 88f0 73bc
00000030: a0b8 b33d 4e2b 14bd 9c6a ba3d ccc0 96bc
00000040: 7470 c03d e1a8 b33d 6b59 b53d 67b0 b83d
00000050: fdf3 b13d d8fe b23d 1b77 bb3d e016 c73d
00000060: fa75 8e3c 1a28 e8bc 2c44 9cbc 4581 bebc
00000070: 0ea3 ca3d e50f bb3d dad7 b73d 576f fdbc
0.083997846 0.08534355 -0.025384782 0.08409673 -0.026995746 -0.029235275 0.0864419 -0.024044912
0.094402805 -0.029995421 -0.04427437 -0.01488889 0.08775449 -0.03617411 0.091023654 -0.01840248
0.09396449 0.087724455 0.08854946 0.09018021 0.08689115 0.08740014 0.09153577 0.0972116
0.01739024 -0.028339434 -0.019075476 -0.023255 0.098943815 0.09133891 0.08976717 -0.03093688

sequential_2/dense_4/MatMul f4 [32, 64]
00000000: ed45 093d a957 933e a713 54be 0319 ef3d
00000010: c1ba db3d 1754 8e3e a869 07be ee9d c73d
00000020: c11b 603e eed8 973d 77dc 393e 659a f33d
00000030: 8b44 8d3e 58a2 80be 9719 b7bd 061d f8bd
00000040: 470d 793d 6439 24bd de3a 61be 65fc 833d
00000050: 49bc c03d 9b08 29be 86ca a43d 0c55 8dbd
00000060: 9f0c 19be 586b 6bbc ccd7 8d3e 05a4 4dbe
00000070: 76be 483e fd6c 0a3e a786 9c3e 54f1 9bb9
00000080: 73fd 0f3d c72f 80be 7398 1b3d 9bb6 8ebe
00000090: 9adb 873e 79bc e8bd e627 46bd 9b6a 6a3e
000000a0: b357 6cbd 470d 29be 822d a33d f529 7d3e
000000b0: 5b23 9a3e c833 8ebe 5e76 023e 1eea c9bd
000000c0: 17a3 9c3e 81c5 1f3e 2b09 863d c086 35be
000000d0: 9370 623d d8d2 93be 3c3f 8b3d c59c 38bd
000000e0: 9d89 5abe f6cc a23e ae46 453e e669 0fbe
000000f0: cd11 8ebd 9126 d1bb 1cf0 d73c 8b58 2d3e
00000100: 56cf 633e cdf0 dfbc 4bf3 94bd 9d8e 523e
00000110: c3eb 8bbc e9ab 993d 540d 193d 050a 683e
00000120: 9e74 e8ba 32a3 333e d8d9 423e 5cc3 b93d
00000130: 5374 20be e778 933c addf 463e d5dc 36be
00000140: ee90 79bd b9a3 d33d 7384 723e 064e 483c
00000150: df51 8b3d 993b 2a3e 9487 53be 3f9b ad3d
00000160: 307d 3fbe 01e7 64be 8709 933e 501d 583e
00000170: e3aa 2aba 0d25 943d ab4d a9bd d805 9bbd
00000180: d9f6 44be 547d 0c3e c4c1 803d d77d 03be
00000190: 2b31 393e 4e1e c33c 9a73 3fbd 093b a33d
000001a0: c293 14bb 3396 88be 7a1c 4ebe 9179 fb3c
000001b0: 034a d9bd 31f4 443e bf5c c8bd d9f4 123e
000001c0: 7558 8b3e e486 80be 703a 533b f75b 0d3e
000001d0: 5c6c 17be ce95 323d df47 8abc d07a 51be
000001e0: 2be3 47be 1104 c23d d2d8 403e 29bb 3dbe
000001f0: c756 493d 4120 3cbe 5a95 093d 88a1 1e3e
00000200: 13b0 1cbd 6f35 4bbd 7a8e febd 8dc0 0b3e
00000210: cb0e 9f3d 4b10 87be c119 04be b075 90bc
00000220: 58bb 13be 9933 933d 3187 2dbe 5c16 db3b
00000230: 9ed7 a93d 818e fabc 1cf4 6f3e 89a9 80be
00000240: cc56 4abe e7fb 343d a17f c03b c240 d4bd
00000250: b90e 063d c168 283e fd00 ff3d d1f2 89be
00000260: 5d73 153e 7e57 383c db1e d83a 94f8 263e
00000270: 0f29 8ebe df4a afba 819b 81be 8c7a 28be
00000280: f9a0 adbd de85 463d 9fa4 fc3d caa6 853e
00000290: 82b4 e0bd 8872 1cbe e323 05be 24f6 80be
000002a0: b31f f13d c83e 193e 871a ea3d d758 35bd
000002b0: c1be 403e 5595 883e ccef 50bd 28ee 8ebd
000002c0: 25b3 31be 2ed3 873d b5b1 3cbe 3994 3ebe
000002d0: 7843 18be ae9c 203e 4d31 87bd dd4d 84be
000002e0: a990 d43d 9a4e 273d 1e99 ddbd 2ecd 733e
000002f0: 3e08 673d eae1 e13d 4328 a03d 75fa 1dbe
00000300: 2884 03bd 6e8e 923e 4a4a 7fbe 063b a13e
00000310: ed50 0bbe dac0 b53d 6bcf 65be 3ecc 3c3e
00000320: faad 083e 745e 02bc 0e5c 2d3e a3da 363e
00000330: 90b2 40be 73cb f1bd bfaf 93bc eb7b d63d
00000340: 837b 983e be7e 43bd 4a4d 083d 8e43 e1bd
00000350: a5e2 1a3e 65f7 91be 6e78 013e 4484 27be
00000360: a78e f5bd 3dc4 90bc b0f4 3dbe 5281 8ebe
00000370: a5e8 be3d d0e6 87be 2c89 26be f40c f03d
00000380: 1fc5 f2bd 9d2a 22be 48ff 783e 149a 9d3b
00000390: c824 043e a5c0 d73d 9353 223e d009 63bd
000003a0: 2cae 71be 4d9e 213d 628c 5fbd 4fac 3c3e
000003b0: d6f4 8e3e 0080 12be fb8e 903e e7bf a03d
000003c0: bb5f 36bc 6b9f 70be 05e6 08be 9bff 9abe
000003d0: 6d25 6d3e b1e1 40be 1598 c73d 413c 823e
000003e0: 2f7a 28be a230 69bd f01e 90be 1f46 6dbe
000003f0: e84b 8a3d 77c8 1ebe 6fe9 82be d53c 903e
0.033513952 0.28777817 -0.20710622 0.116746925 0.1072898 0.2779853 -0.13223898 0.097469196
0.21885587 0.07414423 0.18150507 0.11894683 0.27591357 -0.25123858 -0.08940428 -0.12114911
0.060803678 -0.040093794 -0.21995112 0.06444625 0.094109125 -0.16507189 0.08046441 -0.06900987
-0.14946221 -0.014368854 0.27703702 -0.200821 0.19603905 0.13518138 0.30571482 -0.00029743707
0.035153817 -0.2503645 0.037987184 -0.27873692 0.2653473 -0.11364073 -0.048377894 0.2289223
-0.057700824 -0.16508971 0.07967664 0.24723037 0.301051 -0.2777388 0.12740466 -0.098591074
0.30593178 0.15602686 0.065447174 -0.17727184 0.05528314 -0.288718 0.067991704 -0.045071382
-0.21341558 0.31796998 0.19265243 -0.14005241 -0.06936989 -0.0063827713 0.02635961 0.16928308
0.22247061 -0.027336502 -0.07272967 0.20562215 -0.017080193 0.075034924 0.037366226 0.22660072
-0.001773495 0.17542723 0.19028413 0.09070465 -0.15669374 0.018001987 0.19421263 -0.17857678
-0.06092923 0.10333962 0.23683338 0.0122256335 0.06802725 0.16624297 -0.20657188 0.084768765
-0.18700099 -0.22353746 0.28718206 0.21104932 -0.00065104495 0.072336294 -0.08266767 -0.07569474
-0.1923479 0.13719684 0.06286958 -0.12840973 0.18085162 0.023818161 -0.046741106 0.079702444
-0.0022671078 -0.26677093 -0.2012805 0.030697616 -0.1060982 0.19233777 -0.09783315 0.14351214
0.27215925 -0.25102913 0.0032230876 0.13804613 -0.1478743 0.043599896 -0.016879974 -0.20457006
-0.19520251 0.09473432 0.1883271 -0.18528427 0.049155023 -0.18371679 0.0335897 0.15491307
-0.038253855 -0.049611505 -0.12429519 0.13647671 0.077664934 -0.26379618 -0.1290045 -0.017634243
-0.14426935 0.07187576 -0.16946103 0.006686015 0.08293079 -0.03058553 0.23432964 -0.25129345
-0.19759673 0.044185545 0.0058745896 -0.10363914 0.032728884 0.1644621 0.124513604 -0.26943067
0.14594789 0.0112513285 0.0016488688 0.16305763 -0.277657 -0.0013373754 -0.25313953 -0.16452998
-0.08477969 0.04846751 0.123360865 0.26103812 -0.10971929 -0.15278065 -0.13001971 -0.2518779
0.11773624 0.14965355 0.11430841 -0.044274177 0.18822767 0.2667643 -0.051009938 -0.069790184
-0.17353494 0.06632076 -0.18427165 -0.1861123 -0.14869487 0.15684769 -0.066012 -0.25840655
0.10379154 0.040846445 -0.108202204 0.23808739 0.056404345 0.11029418 0.07820179 -0.15427573
-0.032108456 0.2862429 -0.24930683 0.31490344 -0.1360509 0.08874674 -0.22442405 0.18437287
0.13347617 -0.00795709 0.16929647 0.17856841 -0.18818116 -0.11806383 -0.018028138 0.10472854
0.29781732 -0.047728293 0.033276834 -0.10999213 0.1512552 -0.2850906 0.12643597 -0.16359049
-0.119900994 -0.017671699 -0.18550372 -0.2783304 0.09321717 -0.26543283 -0.16263264 0.117212206
-0.11854004 -0.15836568 0.24316132 0.0048096273 0.12904656 0.10534791 0.15852194 -0.05542928
-0.23601598 0.039457608 -0.05457724 0.18425106 0.2792117 -0.1430664 0.28234085 0.078491025
-0.011131222 -0.23498313 -0.13368995 -0.30273136 0.23158808 -0.18836094 0.09745804 0.25436595
-0.1645286 -0.056931145 -0.28148603 -0.2317128 0.06752759 -0.15506159 -0.2556872 0.2817141

sequential_2/dense_5/MatMul f4 [1, 32]
00000000: a922 7fbe 9529 08be a7e1 133e 24b3 c8be
00000010: 5549 0d3e 8009 903e de9e 2dbe 5bd6 9b3e
00000020: 90b4 13be 236c 163d 56df 5b3e 2913 153e
00000030: 9112 85be e10a ca3e 081a ecbd 4ff6 c03d
00000040: 5609 00be 62bc 50be 17ad 25be 19c6 2abe
00000050: 3d3f 2abe b7e1 4bbe e807 87be 0c87 c4bd
00000060: 9b83 73be 7f43 893e 21d2 4d3e 2853 923e
00000070: 2dd9 95bd df6e eabd b9f0 a3be 5513 9c3e
-0.24915566 -0.13297112 0.14441548 -0.39199173 0.13797505 0.28132248 -0.16955134 0.30436978
-0.14424348 0.03672422 0.21471915 0.1455809 -0.25990728 0.39461425 -0.115284026 0.0942198
-0.12503561 -0.20384362 -0.1617931 -0.16677131 -0.16625686 -0.19910322 -0.2637322 -0.09596071
-0.23780672 0.26809308 0.20099689 0.28579068 -0.073168136 -0.11446928 -0.32019594 0.304835

sequential_2/lstm_4/Read_2/ReadVariableOp1 f4 [512]
00000000: 8bc3 eb3d ebc0 9d3c 7682 0f3d a402 5c3d
00000010: 36be 5e3c e5a4 173d b47a e13c 640a b03c
00000020: c760 da3c 68a2 293d 5880 4cbc 57a3 7c3b
00000030: 99eb 183d 60ef 183e 65ac 273d b51f 8ebc
00000040: 24cd 823e b14c af3d 0968 4b3d c1c2 403e
00000050: dc7d d33c af69 633d eebf 813c 167b 10bd
00000060: 0ee1 593d 9f0c f3bc 7872 9a3c 7a49 cebb
00000070: 692b 2f3d c88d 193d c52d 593d 3070 763c
00000080: 0006 233d 4aad a53c 8995 313c 468b 443d
00000090: ec12 ce3d a569 513c c1e4 053d d667 893b
000000a0: 2c1e c03c 2d53 d33d 21bb e03d b5a4 023d
000000b0: 405a 89bc 4705 a53d 2ed3 123e 3e2e 7c3d
000000c0: 63b1 d93d e61f 853d 8d01 713d 94a8 963d
000000d0: 760b b13c a653 a33d ded3 1a3d cecf 243d
000000e0: bfe4 953c 390f 533d b2f0 b2bc 4b85 403d
000000f0: 1fe8 cc3c 79bc 23bd dedd b73c a315 493d
00000100: f9a8 733c 0c36 7a3d 05be c93c 67f0 d23c
00000110: 2568 77bb 0d76 3c3e 8930 ba3d 1f7e 823d
00000120: 9158 863c a2bf bf3c 49d9 a23c 195d 833d
00000130: 9c13 3f3a a21b 9f3d ca2d ecbb 60d9 283e
00000140: dc0c 4abc dddd 693d 081c a33c 6a03 003d
00000150: a8c1 313d 01e1 febc 9c2f 133d 003a 0e3d
00000160: 2baf 8c3d 2d2d 48bb cb5c 4a3d ad2c ef3b
00000170: ffa1 583d 885a 433d 7512 793d 0ab9 8f3d
00000180: 4817 533d 5c2b 523d daa3 553d 98d8 003e
00000190: 00c4 b93b f46d 2e3d af00 393b ad44 ae3c
000001a0: 936c d1b9 859c 9a3b 2c22 debc 853d 403d
000001b0: cdc1 213d f0f7 cd3d 28a6 f93b 02b9 563d
000001c0: a317 0f3d a798 073e c483 a73c d7d3 c1bb
000001d0: 1fe2 8d3c 00c2 c8bb 2efe 883c 4b49 5b3c
000001e0: cc48 e13c d2d9 ed3c 7c21 9c3d e6da 4d3c
000001f0: 230b 013c 72ed 113d f3bd e23d 4b4c 8c3b
00000200: 0000 803f 0000 803f 0000 803f 0000 803f
00000210: 0000 803f 0000 803f 0000 803f 0000 803f
00000220: 0000 803f 0000 803f 0000 803f 0000 803f
00000230: 0000 803f 0000 803f 0000 803f 0000 803f
00000240: 0000 803f 0000 803f 0000 803f 0000 803f
00000250: 0000 803f 0000 803f 0000 803f 0000 803f
00000260: 0000 803f 0000 803f 0000 803f 0000 803f
00000270: 0000 803f 0000 803f 0000 803f 0000 803f
00000280: 0000 803f 0000 803f 0000 803f 0000 803f
00000290: 0000 803f 0000 803f 0000 803f 0000 803f
000002a0: 0000 803f 0000 803f 0000 803f 0000 803f
000002b0: 0000 803f 0000 803f 0000 803f 0000 803f
000002c0: 0000 803f 0000 803f 0000 803f 0000 803f
000002d0: 0000 803f 0000 803f 0000 803f 0000 803f
000002e0: 0000 803f 0000 803f 0000 803f 0000 803f
000002f0: 0000 803f 0000 803f 0000 803f 0000 803f
00000300: 0000 803f 0000 803f 0000 803f 0000 803f
00000310: 0000 803f 0000 803f 0000 803f 0000 803f
00000320: 0000 803f 0000 803f 0000 803f 0000 803f
00000330: 0000 803f 0000 803f 0000 803f 0000 803f
00000340: 0000 803f 0000 803f 0000 803f 0000 803f
00000350: 0000 803f 0000 803f 0000 803f 0000 803f
00000360: 0000 803f 0000 803f 0000 803f 0000 803f
00000370: 0000 803f 0000 803f 0000 803f 0000 803f
00000380: 0000 803f 0000 803f 0000 803f 0000 803f
00000390: 0000 803f 0000 803f 0000 803f 0000 803f
000003a0: 0000 803f 0000 803f 0000 803f 0000 803f
000003b0: 0000 803f 0000 803f 0000 803f 0000 803f
000003c0: 0000 803f 0000 803f 0000 803f 0000 803f
000003d0: 0000 803f 0000 803f 0000 803f 0000 803f
000003e0: 0000 803f 0000 803f 0000 803f 0000 803f
000003f0: 0000 803f 0000 803f 0000 803f 0000 803f
0.11511906 0.01925703 0.035036527 0.053713456 0.0135951545 0.03702249 0.02752433 0.02148933
0.026657475 0.04141465 -0.012481771 0.0038549507 0.03733406 0.14935064 0.040935893 -0.017349103
0.25547135 0.085595496 0.049659763 0.18824293 0.02581685 0.05552071 0.01583859 -0.035273634
0.053193145 -0.029669104 0.018853411 -0.00629538 0.04276601 0.03748873 0.053022165 0.015041396
0.039800644 0.020224232 0.010838875 0.047984384 0.10062203 0.012781535 0.03268886 0.0041932864
0.023451887 0.10318599 0.10973192 0.031895358 -0.016766667 0.08057647 0.14338371 0.061567537
0.10629537 0.06500225 0.05883937 0.073563725 0.02161191 0.07974939 0.03779971 0.04023724
0.018297551 0.05152819 -0.021843288 0.047002118 0.025013028 -0.039974663 0.022444662 0.0490929
0.014871829 0.0610867 0.024626741 0.025749398 -0.0037751284 0.18404408 0.090912886 0.06371712
0.016399654 0.023406807 0.019879 0.06414241 0.0007288994 0.077689424 -0.007207607 0.16489172
-0.0123321675 0.05709635 0.019910827 0.031253256 0.043397576 -0.03111315 0.035934076 0.03472328
0.06869348 -0.0030544505 0.0494049 0.007299027 0.052888867 0.04769376 0.060808618 0.07017715
0.051535875 0.051310882 0.052158214 0.12582624 0.005669117 0.04258533 0.0028229167 0.021272982
-0.0003994448 0.0047183656 -0.027115904 0.04693367 0.039491463 0.10057056 0.0076186843 0.05242253
0.03493465 0.13241826 0.020448573 -0.005915146 0.017319737 -0.006126642 0.016722765 0.013384174
0.027500533 0.029034529 0.07623574 0.0125643965 0.00787619 0.035626836 0.11071386 0.004281556
1.0 1.0 1.0 1.0 1.0 1.0 1.0 1.0
1.0 1.0 1.0 1.0 1.0 1.0 1.0 1.0
1.0 1.0 1.0 1.0 1.0 1.0 1.0 1.0
1.0 1.0 1.0 1.0 1.0 1.0 1.0 1.0
1.0 1.0 1.0 1.0 1.0 1.0 1.0 1.0
1.0 1.0 1.0 1.0 1.0 1.0 1.0 1.0
1.0 1.0 1.0 1.0 1.0 1.0 1.0 1.0
1.0 1.0 1.0 1.0 1.0 1.0 1.0 1.0
1.0 1.0 1.0 1.0 1.0 1.0 1.0 1.0
1.0 1.0 1.0 1.0 1.0 1.0 1.0 1.0
1.0 1.0 1.0 1.0 1.0 1.0 1.0 1.0
1.0 1.0 1.0 1.0 1.0 1.0 1.0 1.0
1.0 1.0 1.0 1.0 1.0 1.0 1.0 1.0
1.0 1.0 1.0 1.0 1.0 1.0 1.0 1.0
1.0 1.0 1.0 1.0 1.0 1.0 1.0 1.0
1.0 1.0 1.0 1.0 1.0 1.0 1.0 1.0

while/MatMul_11 f4 [512, 128]
00000000: 0032 0fbd e03a feba 0f26 a4bc 6e2f 683c
00000010: 00c0 87ba e042 943b 362f 2dbd 1aba babd
00000020: dc31 fd3b ced5 683d 9090 a23c ec6a e7bb
00000030: ce08 173d 4382 84bd de7d 0f3d 771d 09bd
00000040: 904b d93c 4ca2 d93d 20b0 05bc 1056 43bb
00000050: 0053 313c 9638 a83c c2e0 a5bb cac3 88bd
00000060: f8be 993c c03d bbbc 3c2b 213c 3443 6ebd
00000070: 900f 903d 64ba 5c3d bc0f ef3c 08b2 84bb
00000080: b823 e2bc f276 043d 805d ba3a ff88 57bd
00000090: 8c9d cfbd 0f7d 1bbd 663b 8dbd bc8c 6d3d
000000a0: 4668 a3bc bc85 0fbb 8b08 5bbd 12c8 273b
000000b0: fcd2 d7bc 1b70 8e3d 418a e53c c61f 8bbd
000000c0: 00c4 2dbd cef9 c53c 7c27 2f3c 4347 81bc
000000d0: 0276 473b 1755 5ebd ecae e53c 4fd8 923d
000000e0: aaf7 b3bc 788e 0dbc 9c50 d1ba b86f 353d
000000f0: 7eef 2ebc b3ad 09bd 64ab 09bd 886a 7dbb
00000100: 7b55 b9bc 44a9 cfbc d383 583d 6410 c03c
00000110: c0b2 eabc fb0f d63b 288c c33a d779 b8bc
00000120: 44b6 263d 036e 903b fab3 383d 2e58 afbd
00000130: 799a 8a3d 28a0 363d ead9 9dbd 0efd 933c
00000140: 6a40 133c 8dec 95bc b0ad a93c 48cd f93d
00000150: c62e 2ebc 9bf1 5c3d 4da5 04bd faeb 533d
00000160: fdd9 893c 4857 10bb c295 1a3d 60c4 603b
00000170: 2e0a 86bc b326 133d 9f4a 823d ee25 203c
00000180: 2955 00bc eac0 653d ecf2 083d 7e4d f3bc
00000190: 08ba b83d c766 52bd b02c 5b3b 1439 393c
000001a0: e885 c33c 9438 10bd 9cb8 f93c 1402 62bd
000001b0: 93a5 843b ef72 fa3c fc03 7fbc 6a80 b43b
000001c0: 7317 b9bd afed 163d fc7d abbc 403f 0039
000001d0: cf3d 553d a8c3 153d d230 9bbc 3684 db3d
000001e0: d0d3 a7bc fb7c 88bc eb7d 82bc 5105 33bc
000001f0: 698f 25bd d2af 61bd 0a23 a2bc 7a91 0f3d
00000200: d36d 2b3d c06d cebc da96 f93b c413 28bc
00000210: e146 203d 4da3 453d b2ba 563c 49df 853c
00000220: f138 13bc 7e66 9f3c ba3b e439 ef8e 40ba
00000230: c333 123d 9aa6 853b aa7d 5bbd 50e4 6dbd
00000240: ae18 c8bc be9f 9dbd 0622 5fba 87d5 16bd
00000250: a905 b6bc 6d19 023d 6902 093b 2ebe e33c
00000260: ff09 853c c501 eebc 8e60 d13d 921c 04bd
00000270: 5a30 523c 7274 6c3c 810c a0bc 769b c2bd
00000280: 63cb 263c fd7a f0bc 7067 b8bc b2cb c83b
00000290: 5e1f cbbc 7241 4fbd fbda 383d 102a 8c3d
000002a0: 9677 d3bc bdaf b1bd 05a5 893c 958f 55bd
000002b0: c481 e6bd ec5a 043c 52cf d13b 1f5e 863d
000002c0: 88e7 ff3c a661 2a3b 142f 8b3d a7ba 4f3a
000002d0: fde8 1d3d 674b 523c fb24 1cbd bad8 7f3c
000002e0: 3baf 00be 2fb7 7d3d 1a74 9e3d 6232 813c
000002f0: a616 44b9 c1bf 903c 1d39 0e3e 7a0c c0bb
00000300: 70ee 5e3d 82ae 543c b576 393c 3f33 4dbd
00000310: da3f 63bd eaf3 a23d 6d4e a13b 27b3 69bc
00000320: fbad 04bd 17f7 93bc a88e 193d c763 9f3c
00000330: 0156 863d feea 233d 8e22 443d d1c7 5ebd
00000340: ee88 0b3a 6a30 da3b a8ea 183c 0443 123d
00000350: e154 8e3d 2a0a ec3c b2d4 d9bc a964 82bc
00000360: 8d4b 05be b978 e03b fd84 363d 918b a3bd
00000370: f623 b5bc d958 0f3d 37bb 27bc d0f8 c939
00000380: 7b03 163d 41e7 d63c ed65 033d 0bb5 17bd
00000390: 52ae c03c 2a8f 613d 90a4 7d3d ee9d a7bd
000003a0: 4cdb dc3c f9c8 55bd 69be 3e3d 41d6 0d3d
000003b0: cb95 cabc 5024 533d 1851 2a3d c8db f53c
000003c0: 2327 a6bd 5ca1 84bc 4f77 36bd 17a6 b8bc
000003d0: 5a13 d1bc 4319 483c 8ed0 8c3c 727a b53c
000003e0: a0ac 81bd 4929 5bbb 6a6b 3c3b 3dbf a1bd
000003f0: 47f5 b93c 5cb2 6f3d 974b 10bd 9233 d03c
-0.034959793 -0.0019396208 -0.020037679 0.014171464 -0.0010356903 0.0045245737 -0.042281352 -0.09117527
0.007726891 0.056844525 0.019844323 -0.0070623066 0.03687363 -0.06470158 0.035032146 -0.033475365
0.026525289 0.10626659 -0.008159667 -0.0029805936 0.010823011 0.020534795 -0.0050621936 -0.06677969
0.018767819 -0.022856593 0.009836968 -0.05816956 0.07034218 0.053888693 0.029182307 -0.0040495433
-0.027604923 0.032339998 0.0014218539 -0.052620884 -0.101374716 -0.037961062 -0.06896095 0.057995543
-0.019947182 -0.002189978 -0.053474944 0.002560143 -0.026345722 0.06954976 0.028020026 -0.0679317
-0.04242325 0.024166968 0.010690566 -0.01578105 0.0030435328 -0.054280367 0.02803751 0.07170164
-0.021968681 -0.008639924 -0.0015969458 0.044295996 -0.010677217 -0.033612918 -0.033610716 -0.0038668234
-0.022623768 -0.025349267 0.052860092 0.023445316 -0.028649688 0.0065326667 0.0014919089 -0.022519035
0.040701166 0.0044076457 0.045093514 -0.08561741 0.067677446 0.04458633 -0.077075794 0.018065002
0.0089875255 -0.018301273 0.020712703 0.121973574 -0.010631269 0.05394135 -0.032384206 0.051738717
0.016827578 -0.002202468 0.037740476 0.0034296736 -0.016362276 0.03592558 0.06361889 0.009774668
-0.007832804 0.05609218 0.033434793 -0.029700037 0.09019858 -0.051367547 0.0033443384 0.011305112
0.023867562 -0.035210207 0.030483536 -0.055177763 0.0040480583 0.030572383 -0.015564915 0.005508472
-0.09037676 0.036847766 -0.020934097 0.00012230594 0.0520609 0.036563545 -0.018944178 0.107185766
-0.020486742 -0.016661158 -0.015929183 -0.0109265605 -0.04041997 -0.055099316 -0.019792099 0.035050847
0.041852783 -0.025198817 0.00761686 -0.010258619 0.039130095 0.04825144 0.013106035 0.016341822
-0.008985744 0.019458052 0.0004353205 -0.00073455175 0.035693895 0.0040786983 -0.05358664 -0.058079064
-0.02442583 -0.07696484 -0.0008511845 -0.03682473 -0.022219496 0.03176253 0.0020905978 0.027800646
0.016240118 -0.029053578 0.102234945 -0.03225381 0.012828911 0.01443206 -0.019537212 -0.09502308
0.010180327 -0.02935552 -0.02251026 0.006127798 -0.02479523 -0.050599523 0.04513071 0.0684396
-0.025813859 -0.086760975 0.01680232 -0.052138884 -0.112552196 0.008078318 0.0064028883 0.06560921
0.031238332 0.0025998144 0.06796089 0.00079242367 0.038552273 0.01283536 -0.038121205 0.0156156365
-0.12566845 0.061942276 0.07736988 0.015771095 -0.00018700454 0.01766956 0.13888974 -0.0058608623
0.05442661 0.012981059 0.011319806 -0.0500977 -0.055480815 0.07956679 0.004922679 -0.014263905
-0.032392483 -0.018062158 0.037489563 0.019456757 0.06559373 0.040019028 0.047884516 -0.05438978
0.00053228333 0.0066586034 0.00933329 0.035708442 0.06949783 0.02881344 -0.026590679 -0.01591714
-0.13017102 0.0068503288 0.04456042 -0.079856046 -0.022111874 0.03499684 -0.010237507 0.00038523087
0.036624413 0.026233317 0.032079626 -0.03703789 0.023520622 0.055068173 0.061924517 -0.081844196
0.026960038 -0.052193616 0.046568308 0.034628157 -0.02472963 0.051548302 0.041581243 0.030012026
-0.081129335 -0.016190223 -0.044547375 -0.022540135 -0.025521923 0.012213054 0.01718929 0.022153113
-0.06331754 -0.0033441356 0.0028750547 -0.07897804 0.022699965 0.058519706 -0.035228338 0.025415216

while/MatMul f4 [512, 9]
00000000: e02c 483e 7d8c da3d 14f7 583e 283d a9bc
00000010: c40e 3b3e 89bb 933e 5624 bd3d 3c3b 8fbc
00000020: 007c 41bc 7b8b bd3d 2372 a5bd b450 86bc
00000030: a57f b73d a804 61bc fd5b c0bd f3ad 3ebe
00000040: 0ff7 1bbe 9fb1 f3bd 9123 293d 59bb e53c
00000050: d1a0 bf3c c49a b53d 1486 d13d eb3a 24bd
00000060: 5faa f4bd 4c9c 20be 5136 b8bd 718f 96bc
00000070: f25b 50bd ee9b 043d 8f27 103e 3fa3 d6bb
00000080: 6efc d93c 675e c9bc 7f2b 02be 6374 793c
00000090: aa06 6bbd 1721 9dbc b1f0 c43c 840c 36bc
000000a0: 6144 e13b 3428 8a3c d72b 34be 3a55 b13c
000000b0: e82e 06be 7af2 1a3e de49 babd 843e d13d
000000c0: 9824 de3d e469 033d 30e7 3abd 6411 5fbd
000000d0: a769 33bc ae7c 223d 9000 463d 5935 d23d
000000e0: 74c1 b83d 7284 37bc d12b 9a3d 592d 2cbd
000000f0: 39f1 18be b587 febc 112d 5ebd 4ef3 043d
00000100: 41d3 67bd 1a45 fc3d f7bc a7bc f96a 163e
00000110: d50a 083e 34aa 19be 4032 e0bd 22e1 4ebd
00000120: c28d 1b3e f7e6 68bc ea31 623c e163 94bd
00000130: d6b1 4abd fe50 a6bd 30f6 25be 16b1 69bc
00000140: 7bfd c33c 37d7 353d 282b 0ebd 9367 e13d
00000150: 2657 613d aaff 433e 4002 063d 98fb 1fbe
00000160: 800e 953d f3bf 02be 480d 1b3d 2e28 c23d
00000170: e2c9 c4bc 8f47 1cbe 42e9 1b3c 1b44 cd3c
00000180: f295 97bd 5480 2fbd ca90 acbb 1863 483d
00000190: e30b 1abd 5c91 b3bc 7149 c23d 4830 f0bc
000001a0: 4fbb 4c3c a84b 0cbd bc63 3dbe fa2a 24ba
000001b0: 4455 d9bc df95 673d f2f6 1ebd af47 0b3d
000001c0: c89d 0e3e 37b0 86bc 44f4 05be 6481 43bc
000001d0: 9c28 673d 48d8 ed3a 1266 503e d28f e63c
000001e0: de0a 3f3e ec7d d6ba bb99 4b3e 1a32 8f3e
000001f0: 5e8f 123e 4064 623d e948 81bd 53f7 d2bc
00000200: bb20 7a3d 260d 06bd 5fca 063d 1047 a63d
00000210: 2696 bfbd 7d65 20bd f33d b53c c77d 603c
00000220: 753e f0bd abc6 c5bd 2927 42bc 18bf 57bd
00000230: 885c 323d 2634 f3bb ea61 2cbd 73ea d73a
00000240: 83ef d33d 0f46 333d 34bf e73d 0dfa 3b3e
00000250: 4349 fd3d 1fd6 2e3e b3da a43e 8135 c03d
00000260: f742 293d c282 1e3d 7ed7 79bc 5051 0abd
00000270: 734c c33d ca10 013d ccc3 c73d 9f81 85bd
00000280: 4f15 47bc 0ef7 123d 18c7 ee3d ba27 bfbd
00000290: 2dc5 b5bc 76de ec3b 64db 143e c254 fb3d
000002a0: 2a47 08be 4979 10bc 9e3e ad3d 78e6 003e
000002b0: 9288 3a3e 4d70 9a3d 77f5 4b3e b938 493e
000002c0: bab2 453e f8cb 803e 8aef 103e 8716 3f3e
000002d0: ba01 a33d 80a5 753d 9a64 19bd c812 b9bd
000002e0: 2552 dc3c 43eb c8bc 4c26 8bbd 6dde a9bd
000002f0: ec60 b8bd db3e 133d 915c d8bd 174b 103d
00000300: 50ff 463d 9356 4a3d 0944 853d c25f 44bd
00000310: 56e7 b7bd d84f b03d ae74 033d 4bcf a53c
00000320: 85cf 9fbb 8a0b 96bd 43f7 013d 7b55 4b3d
00000330: 67ad 33bd 2535 5dbd 9f4d e9bd 3462 833d
00000340: c7ff f7bd dd67 e4bd 5b90 043c 81de ef3d
00000350: 1d3a a83d da49 1abe 7f6b 24be 4639 d2bd
00000360: aebe c73d 01b9 043e 8b1a f93d 5b5d 61bc
00000370: cebb 433e d1fa 073e 03f4 403d 991b 77bd
00000380: b007 f8bd 0d8d 8fbc 117f 0bbe 9e11 93bd
00000390: 28ca f83b 35fd 6d3d 12b2 ab3a ff63 24be
000003a0: 5724 f6bc 350b cfbb 548f cf3d 4a96 51bd
000003b0: 1caa edbc a561 873d 5359 31bd 8c58 c8ba
000003c0: 223b 1bbe 1469 0ebe cd47 f8bd 9803 b9bd
000003d0: 9820 fcbd 12a3 a43c ae5b ccbd fe45 6fbd
000003e0: b648 50bd 4bf1 02bd 2faa f1bd e419 2abe
000003f0: 839d bfbc eabe b0bd 686b 2fbd 48a0 8bbd
0.19548368 0.10671327 0.21188003 -0.020659044 0.18267351 0.28854015 0.09235446 -0.0174843
-0.011809349 0.092551194 -0.080784105 -0.016395904 0.08959893 -0.01373402 -0.09392545 -0.18621044
-0.15230964 -0.11899113 0.041293684 0.028043436 0.023392113 0.0886741 0.102306515 -0.04009525
-0.11946558 -0.15684623 -0.08994735 -0.018378945 -0.050868936 0.03237527 0.1407759 -0.006550222
0.026609626 -0.024581147 -0.12711905 0.015225503 -0.057379402 -0.019180818 0.024040552 -0.011111382
0.0068746065 0.016864873 -0.17594849 0.021647085 -0.13103831 0.1513156 -0.0909612 0.10217002
0.108468235 0.032083407 -0.045630634 -0.054459944 -0.010950482 0.039669685 0.04834038 0.102640815
0.09021273 -0.011201011 0.075278886 -0.042035434 -0.14935769 -0.03107057 -0.054242197 0.032458596
-0.05659795 0.123178676 -0.020475848 0.14689244 0.13285382 -0.15006334 -0.109470844 -0.050507672
0.15190795 -0.014215223 0.013805846 -0.07245613 -0.049486004 -0.08120917 -0.16207194 -0.014263412
0.02392458 0.044394698 -0.034709126 0.11006083 0.05501475 0.19140497 0.03271699 -0.15623319
0.07278156 -0.12768535 0.037854463 0.0948032 -0.024022046 -0.15261672 0.009516062 0.02505689
-0.07401647 -0.042846993 -0.0052662836 0.04892263 -0.037608992 -0.021919899 0.09486664 -0.029319897
0.01249583 -0.03425184 -0.18495077 -0.00062625075 -0.026529916 0.056539413 -0.038809724 0.03400391
0.13927376 -0.016441448 -0.13081461 -0.011932705 0.056435212 0.0018146122 0.20351437 0.02814475
0.18656489 -0.0016364432 0.19882862 0.27967912 0.14312503 0.055271387 -0.06312735 -0.025752699
0.06106637 -0.032727383 0.03290784 0.08119023 -0.093548104 -0.039159287 0.022124266 0.013701863
-0.11730663 -0.096570335 -0.011850157 -0.052672476 0.043545276 -0.007421988 -0.042085566 0.001647307
0.103484176 0.043767985 0.11315766 0.18357106 0.12367489 0.17073868 0.32198104 0.09385205
0.04132363 0.03869892 -0.015249131 -0.033768952 0.09536066 0.031510152 0.09754142 -0.06518864
-0.012151076 0.03588014 0.11659068 -0.09333749 -0.022188747 0.007228668 0.14536816 0.12272026
-0.13308397 -0.008817979 0.08459209 0.12587917 0.1821616 0.07540951 0.19917856 0.19650544
0.1930646 0.25155616 0.14153877 0.18660937 0.07959314 0.059972286 -0.037449457 -0.09036785
0.026894638 -0.024526244 -0.06794414 -0.082943775 -0.090028614 0.035948616 -0.10564531 0.03522786
0.04858333 0.04939897 0.06507117 -0.047942884 -0.08979671 0.08608979 0.032093696 0.020240447
-0.004877033 -0.0732642 0.031729948 0.049642067 -0.04386654 -0.05400576 -0.11391758 0.06415215
-0.121093325 -0.11152623 0.008091058 0.11712361 0.08214209 -0.15067235 -0.16056632 -0.1026483
0.09753166 0.12961198 0.12163266 -0.013755168 0.1911461 0.13279273 0.047107708 -0.060329054
-0.12110841 -0.017523313 -0.1362269 -0.071810946 0.0075924583 0.058102805 0.0013099334 -0.1605377
-0.030046625 -0.0063184747 0.101347595 -0.051168717 -0.029011779 0.06610421 -0.043298077 -0.0015285178
-0.15159276 -0.13907272 -0.1212307 -0.090338886 -0.12310904 0.02009729 -0.09978424 -0.05841636
-0.050850593 -0.031968396 -0.11800038 -0.16611439 -0.023390537 -0.08630164 -0.04282704 -0.068176806

sequential_2/lstm_5/Read_2/ReadVariableOp1 f4 [256]
00000000: 1a14 a43c bae5 7a3d 4c10 763d 44ce 553d
00000010: 9b08 1c3d 24d5 1f3d add4 3e3d e3d5 233d
00000020: a5bd 353d 21e9 b63d a519 5c3d 9e78 433d
00000030: 6921 203d 2c0f 103d 25e8 2d3d 9846 e13c
00000040: f0c9 503d 5374 923d beed 41bc c3ad e43c
00000050: a73b 883d 10e7 893d 3b10 4d3d d9da 663b
00000060: f7d6 e63c 7eca fd3c d72d 413d 3106 1c3d
00000070: ed42 3d3d 3149 b3bb 75dd 673d 7a0d f93c
00000080: 12aa 833d 0d70 4e3d 2b6a 013d b361 783c
00000090: 46f4 b23d e185 8c3d 76ea 5e3c 8639 0e3d
000000a0: 2fb0 263d e873 39bc fcd0 3a3d 1b42 103d
000000b0: ebcd a23d 3cf7 833d 6d23 853d 6fbd 1f3d
000000c0: aede 483d 710b f33c af9c 3a3d 38ef 933d
000000d0: 3a26 7c3d 48fb 4f3d b878 9d3d fc3d 003d
000000e0: 6bda 823d b6e9 ca3d 20d5 673d 2fec 5f3d
000000f0: c887 173a 9cb6 aa3c 6389 213d f8e5 503d
00000100: 0000 803f 0000 803f 0000 803f 0000 803f
00000110: 0000 803f 0000 803f 0000 803f 0000 803f
00000120: 0000 803f 0000 803f 0000 803f 0000 803f
00000130: 0000 803f 0000 803f 0000 803f 0000 803f
00000140: 0000 803f 0000 803f 0000 803f 0000 803f
00000150: 0000 803f 0000 803f 0000 803f 0000 803f
00000160: 0000 803f 0000 803f 0000 803f 0000 803f
00000170: 0000 803f 0000 803f 0000 803f 0000 803f
00000180: 0000 803f 0000 803f 0000 803f 0000 803f
00000190: 0000 803f 0000 803f 0000 803f 0000 803f
000001a0: 0000 803f 0000 803f 0000 803f 0000 803f
000001b0: 0000 803f 0000 803f 0000 803f 0000 803f
000001c0: 0000 803f 0000 803f 0000 803f 0000 803f
000001d0: 0000 803f 0000 803f 0000 803f 0000 803f
000001e0: 0000 803f 0000 803f 0000 803f 0000 803f
000001f0: 0000 803f 0000 803f 0000 803f 0000 803f
00000200: 3971 5b3d 80b6 963d c7be 81bd 90cd a53d
00000210: c172 573d 4038 853d b7b5 73bd 9bfa 703d
00000220: f7bd 8c3d a221 7e3d 4fe0 bb3d 46da 913d
00000230: 30c8 9d3d f6ef 5bbd 43dc 95bd 63f3 8b3d
00000240: 10de 913d 19fd bebd c504 313d 00fe 5cbd
00000250: 211d ba3d 511a c0bd 5456 833d 1e52 ff3c
00000260: b480 9d3d 14ac 99bd 784e 893d 24f2 5bbd
00000270: 6ea6 813d e2a8 3bbd 6b64 6a3d dffa 66bd
00000280: 739c c8bd 1b15 81bd 2055 2e3d 08c8 7cbd
00000290: f40a c23d 26cc c2bd 9405 0bbd 3b82 933d
000002a0: 21a5 90bd 3ef1 07bd c17f 5a3d ba95 003d
000002b0: 6952 d53d 8953 98bd 078a a93d 34b3 7e3d
000002c0: 3c2d 8b3d fe23 62bd 0433 8dbd 86c8 c3bd
000002d0: f1f8 a53d c02f aebd 4ab6 c13d 1dda 7d3d
000002e0: db5a a8bd 7c3a a93d 699e 93bd 6158 9fbd
000002f0: 410c 123d 7513 64bd 845b 93bd cacd 973d
00000300: 6284 973c 8eb2 733d 070b 673d 1472 493d
00000310: bb02 143d 3ff8 203d e30a 363d e45f 2a3d
00000320: e8a7 263d 28dc bb3d 19d3 4b3d e431 3e3d
00000330: 8688 0f3d fb69 0a3d ed7c 373d 9f2a dd3c
00000340: 8843 363d da78 8b3d ebc3 57bc 823b c23c
00000350: 5137 803d 961c 7e3d 07d6 453d 343e 5d3b
00000360: ebdd e33c 925a ea3c fdef 3c3d 3324 213d
00000370: 2e09 413d 256d dfbb 991d 5e3d 3ed5 f33c
00000380: 2f5a 833d 46c6 433d acbd f63c 859c 623c
00000390: 9765 a93d d17d 8d3d f65e 793c 8955 093d
000003a0: ae83 253d 0085 3dbc 3b0d 303d eb9e 023d
000003b0: cae2 9e3d 21eb 803d cb0e 873d b473 1e3d
000003c0: 6795 443d 8ff8 cb3c b8f9 313d 2e7c 923d
000003d0: 4205 623d ec47 5c3d b536 913d 6da8 f03c
000003e0: d3e4 763d 70ed bc3d e158 593d 7fe1 523d
000003f0: badc ca3a aacd 9f3c 82c2 103d 656c 403d
0.020029116 0.06125424 0.060074136 0.052198663 0.038094144 0.039021626 0.046589542 0.0399989
0.044370312 0.089311846 0.053735394 0.04772245 0.039094362 0.03517072 0.04245772 0.027499482
0.050973833 0.07151093 -0.011836467 0.027914887 0.06652003 0.06733525 0.050064307 0.0035225658
0.028178675 0.030980345 0.047162857 0.038091842 0.046206404 -0.0054713716 0.056607682 0.030401934
0.06428923 0.05039983 0.03159539 0.015160012 0.08737998 0.06861473 0.0136057045 0.034722827
0.040695366 -0.011319138 0.04560946 0.035219293 0.07949432 0.064436406 0.065008976 0.038999017
0.04904049 0.029668542 0.04555958 0.07223362 0.061559893 0.05077675 0.07689041 0.031309113
0.06389316 0.09907858 0.056599736 0.0546686 0.0005780426 0.020839028 0.039437663 0.051000565
1.0 1.0 1.0 1.0 1.0 1.0 1.0 1.0
1.0 1.0 1.0 1.0 1.0 1.0 1.0 1.0
1.0 1.0 1.0 1.0 1.0 1.0 1.0 1.0
1.0 1.0 1.0 1.0 1.0 1.0 1.0 1.0
1.0 1.0 1.0 1.0 1.0 1.0 1.0 1.0
1.0 1.0 1.0 1.0 1.0 1.0 1.0 1.0
1.0 1.0 1.0 1.0 1.0 1.0 1.0 1.0
1.0 1.0 1.0 1.0 1.0 1.0 1.0 1.0
0.053574774 0.07359028 -0.06335216 0.080958486 0.052599672 0.065048695 -0.05949947 0.058832746
0.068721704 0.062043793 0.09173643 0.071217105 0.07704198 -0.05369564 -0.07317402 0.06833532
0.07122433 -0.09325618 0.04321744 -0.05395317 0.09087587 -0.093800195 0.0641295 0.031167086
0.07690564 -0.075035244 0.0670442 -0.05369772 0.06330572 -0.045815356 0.057224672 -0.056391593
-0.09795465 -0.06302854 0.04256165 -0.061714202 0.094747454 -0.095115945 -0.033940867 0.07202574
-0.07062746 -0.03318905 0.053344492 0.03139279 0.10416109 -0.07437808 0.0827828 0.06218262
0.06795737 -0.055210106 -0.06894496 -0.09559731 0.081041224 -0.08505201 0.09458597 0.061975587
-0.08220454 0.08263108 -0.07207949 -0.07780529 0.035656217 -0.05568262 -0.071951896 0.07412298
0.018495742 0.059496455 0.056407 0.04918106 0.036135416 0.039299246 0.044443976 0.041595355
0.04068747 0.09172851 0.049761865 0.0464343 0.03504231 0.033792477 0.044796873 0.026997862
0.044497997 0.0681016 -0.013169269 0.023710016 0.06260551 0.06203898 0.048299816 0.0033759
0.02781578 0.02860764 0.04612731 0.039341163 0.047127895 -0.006818431 0.054227445 0.029764768
0.064136855 0.04779651 0.03011974 0.0138312625 0.0827133 0.06908763 0.015220394 0.03352884
0.040408783 -0.011567354 0.042981368 0.031889837 0.077581 0.06294847 0.065946184 0.03868456
0.047994044 0.024898795 0.04345104 0.07152592 0.055180795 0.053779528 0.07090513 0.029377187
0.060276818 0.09224975 0.053063277 0.05148458 0.0015477159 0.019507248 0.035341747 0.046978373

while/MatMul_14 f4 [256, 64]
00000000: 50fd 9fbd fb36 ffbc c0aa 183c 14f4 2c3d
00000010: 02e2 6dbc 9aae ca3c f2f2 4a3d 63c6 01bd
00000020: 34ba e13c b352 5bbd 7cd5 79bd d2a6 303c
00000030: 67ad 9b3c 983c a33c d630 21be 2bbb 3a3d
00000040: 36e0 5abd a7cf abbd 3ca0 b43c 6e89 84bd
00000050: b270 d6bc fc12 d9bd 12bd c53d 80c2 b13d
00000060: b1fd 913d 6f3c b83d c076 163c 3ba9 633d
00000070: d8f3 7c3d a951 12bc e882 32bc 080b 6d3c
00000080: 5717 ef3d fcd6 e2bc 376b febc d2cf 413d
00000090: 9e0c 8b3d ecbe 0d3e e7b7 823d d837 ef3a
000000a0: ec2a 0a3c afa9 bc3c cbc4 e63d 69e6 e53c
000000b0: dced 1ebd ac42 b43c cc35 163d 4668 7dbd
000000c0: 7ae0 3f3d 60eb 293d adf1 93bd 76bd 32bd
000000d0: 904c c2bc c824 9f3c 266d 97bd a836 a03c
000000e0: 7825 3b3e 1d50 0bbe e26e 44bd c04e 563d
000000f0: 523d 86bc fd42 b1bc 9349 2f3d f2ea 2b3d
00000100: cdb2 813b e0ac 453d ed83 d63d 820d 033d
00000110: d683 963c acd0 bcbc ee5e 2b3d 60cf 853c
00000120: af67 7a3d 012f aa3d d055 ecbd 36ef 813d
00000130: 308b eb3c 9949 8fbd 16b6 34bd 59c6 103c
00000140: 3f98 eabd 48fd a93d 8171 28bd cbbd 1fbd
00000150: 6a1c 993d bab5 3abc dea2 e33b 45ef bebd
00000160: aacf b63c af9b 12bc 1b8a d03c 8359 1c3d
00000170: 4e1e 1d3d 3d57 2b3c 358f ffbc bad3 d13d
00000180: b300 02bd 4cf4 fabc b0c7 10be 24cd 373d
00000190: 8184 dc3d dade dd3c 1be5 a73d ff87 b3bc
000001a0: b9d3 303d aa74 a03c 8298 3c3d 04ec 0f3e
000001b0: 1494 1f3e c0ea a83b 7dc0 5f3d 3928 f63b
000001c0: d44f 213d 8f53 10bd 03d3 573d ea85 683d
000001d0: 321c 113e 0c47 afbd caff 97bb f5d8 3d3c
000001e0: cc16 bbbb 99ee 8e3d a94d b93c 1b52 83bd
000001f0: b381 583d 5650 f0bd 18ec 22bd 997a 8f3d
00000200: be31 823d 9bc8 0ebd 007c acbb 74ea 1bbb
00000210: 424f ae3d 49ba 71bd 99c4 1a3e e4ac f03b
00000220: e89f c0bd fbfa 01be c5c3 a0bc 21e9 94bd
00000230: de97 cb3c 2814 3c3d 884f 35bd 9ede 733d
00000240: 7782 923d 5a81 febd cc61 223d d800 8cbd
00000250: ca62 b9bc 38b9 f83c 1ed8 ad3c 650b b1bb
00000260: 79de 92bd 78f6 c43a 8429 2ebe 0c87 473d
00000270: 006b e1b9 d07e 713c c93f 8abd c8e8 423d
00000280: a607 29bc b552 92bd 7f68 933c db09 1abd
00000290: a837 413d 0dec 89bd f9a2 b2bd 7243 cc3d
000002a0: ea71 f7bc aded 8f3d 7056 10bd c681 a7bd
000002b0: d9ff 553d bd8f 373d 74f2 283c c7a9 133d
000002c0: 382c a4bd 2de3 743d 527b 2abd adf0 77bc
000002d0: 6637 31bb dbc7 923c 4f6f c83c 67fa 813c
000002e0: bca7 21bd e130 133d 96d6 21be 6bab d9bd
000002f0: db8d f93c 16e5 253d 497c e93c 1c34 9f3d
00000300: 2667 f13c a545 80bd e822 663c 007c a83b
00000310: 768b f73c a3bf 24bd 1549 fa3c cc45 083e
00000320: d039 5d3d 1090 78bd 0253 cabd 04d1 5bbd
00000330: 1eab 1b3e 6992 903c 16df 703d 90ec c23d
00000340: 02e6 9f3b d8d4 293e 8304 873d 0fb8 cebd
00000350: a436 73bd 905e 96bc f02a c8bb 4588 063d
00000360: 89ad 65bd ad29 0a3e 949e bebc cc15 183d
00000370: c63d 20bb 9844 39bd 7161 5bbd 43a0 c73d
00000380: 7a49 1f3d d753 2d3c 70a3 813d c20c 243c
00000390: 5e30 2cbd cd87 b23d f930 2e3c e6a6 01bd
000003a0: ab01 e63d f924 a1bd bde9 6a3c 49b7 983d
000003b0: bfc5 ea3d bd7a 793d 3e58 ea3b a2cb 8dbc
000003c0: 13df 33bd 4d0e 183e d83f 763d fd97 b23d
000003d0: f001 8dbd efc8 d3bd f1bf 003d da4e 99bd
000003e0: e002 663b 864d 17bd 90f6 e03c ed80 8b3b
000003f0: 0086 253d 9b10 46bd 31de 623d 484b 2ebd
-0.078119874 -0.031154146 0.009318054 0.04222496 -0.0145192165 0.02474146 0.049548097 -0.031683337
0.027554609 -0.053545665 -0.06099461 0.010781961 0.019003583 0.019926354 -0.15741286 0.045588654
-0.05343648 -0.08389216 0.022049062 -0.06471525 -0.026176784 -0.10599324 0.09655203 0.08679676
0.07128466 0.08995902 0.009183586 0.055581313 0.061755985 -0.008930602 -0.010895468 0.014467962
0.116743736 -0.027690403 -0.031056983 0.047317334 0.06789516 0.13842362 0.06382733 0.0018250896
0.008433085 0.02303013 0.11268004 0.02806397 -0.03880106 0.022004448 0.0366724 -0.06186702
0.046844937 0.041484237 -0.0722383 -0.043637715 -0.023718148 0.019426718 -0.07393865 0.019557312
0.18276012 -0.1360478 -0.04795731 0.052321196 -0.016386662 -0.021638388 0.042794775 0.04197211
0.0039580823 0.04826057 0.104743816 0.031995304 0.018373411 -0.023048721 0.04183858 0.016334236
0.061134037 0.083097465 -0.11539805 0.06344454 0.028752893 -0.069964595 -0.044118963 0.008836352
-0.1145482 0.08300263 -0.04112387 -0.03899936 0.07476123 -0.011395866 0.0069469055 -0.09322981
0.022315819 -0.008948251 0.025456479 0.038171303 0.03835898 0.010457811 -0.031196216 0.10245462
-0.031738948 -0.030634068 -0.14138675 0.04487337 0.107674606 0.027083803 0.08197995 -0.021915434
0.043170664 0.01958688 0.04604388 0.14054877 0.15583831 0.0051549375 0.05462693 0.007512119
0.03938277 -0.035235938 0.05269147 0.056768335 0.14170912 -0.08558473 -0.0046386467 0.011587371
-0.0057095047 0.06979103 0.022620039 -0.06412145 0.052858066 -0.11734073 -0.039775938 0.070058055
0.06357144 -0.03485928 -0.0052638054 -0.0023790868 0.08511211 -0.059015546 0.15114059 0.007344829
-0.094055 -0.12693398 -0.0196246 -0.07271028 0.02485269 0.04591766 -0.0442653 0.059538476
0.071537904 -0.124270156 0.039644048 -0.068360984 -0.022630114 0.030361757 0.021221217 -0.0054029697
-0.071713395 0.0015027067 -0.17008024 0.048712775 -0.00042995065 0.014739707 -0.06750447 0.04758528
-0.010316765 -0.07144681 0.017994164 -0.037607055 0.04717222 -0.06734476 -0.08722491 0.09973802
-0.030205686 0.07027755 -0.035238683 -0.08179049 0.05224595 0.044814814 0.010311712 0.036050584
-0.080162466 0.059786964 -0.041621514 -0.015133065 -0.0027041077 0.017917564 0.024467139 0.015866471
-0.039466605 0.035935286 -0.15804514 -0.106283985 0.03046315 0.040501676 0.028501647 0.07773611
0.02946813 -0.06263284 0.014046408 0.005141735 0.030217867 -0.04022182 0.030552426 0.13307875
0.054010212 -0.060684264 -0.09879114 -0.05366613 0.15201995 0.017647939 0.0588065 0.09517777
0.004879714 0.165851 0.065926574 -0.100937 -0.05937828 -0.018355638 -0.006108634 0.0328448
-0.0560737 0.1349246 -0.023268975 0.037130162 -0.0024450882 -0.04523143 -0.053559724 0.09747364
0.038888432 0.010579071 0.06330001 0.010012807 -0.042038314 0.08717308 0.010631793 -0.031653307
0.11230787 -0.0786838 0.014337954 0.07456834 0.11463498 0.060908068 0.0071516326 -0.017309014
-0.043913912 0.14849205 0.06011948 0.08720396 -0.06885135 -0.103410594 0.03143305 -0.07485743
0.0035096928 -0.036939166 0.02746132 0.0042573125 0.040410995 -0.04835568 0.05538768 -0.042552263
