app/src/main/assets/model/weather_description_7days.tflite (tflite, 510180 bytes, 12 tensors)

sequential/lstm/Read_2/ReadVariableOp f4 [512]
0	0x3c326fcd	0.010890913
1	0x3eb0399c	0.34418952
2	0x3c5a54ab	0.0133258505
3	0x3d10653c	0.035252795
4	0x3e878cc4	0.26474583
5	0xbcefb246	-0.029259812
6	0xbd44c33e	-0.04803776
7	0x3ddabd5c	0.10680649
8	0xbc8b51db	-0.017006805
9	0x3e20bcd7	0.15697037
10	0x3e308355	0.17237599
11	0xbd323bf2	-0.0435142
12	0xbdf7de2c	-0.12102923
13	0x3e1b374b	0.15157811
14	0xbd9821ec	-0.07428345
15	0x3c989a6a	0.018628318
16	0xbd316cc7	-0.04331663
17	0xbb4347b1	-0.002979737
18	0xbb6cfa91	-0.0036160091
19	0x3e834c04	0.25643933
20	0x3e431340	0.19050312
21	0xbd471976	-0.048608266
22	0xbc987717	-0.018611474
23	0xbd9f97af	-0.07792603
24	0xbc143087	-0.009044773
25	0xbcfc0951	-0.030766161
26	0xbcbb5d97	-0.022871776
27	0x3cdf5e7c	0.027266733
28	0x3d0b9283	0.03407527
29	0xbd12ef8d	-0.035872985
30	0x3b1c929e	0.0023891102
31	0x3df3497a	0.11879249
32	0xbd5bbbca	-0.053645886
33	0x3e847f02	0.2587815
34	0xbc0b69c7	-0.008509106
35	0xbd3539fe	-0.04424476
36	0x3e01c5bb	0.12673084
37	0xbd389c0c	-0.045070693
38	0xbc7c5220	-0.0154004395
39	0x3d0205f7	0.03174397
40	0x3d44925d	0.047991145
41	0xbd858836	-0.06520121
42	0xbd2f702d	-0.04283159
43	0xbd6d898b	-0.0579925
44	0xbc58ab34	-0.013224412
45	0xbda1c975	-0.07899753
46	0x3eaa8a58	0.33308673
47	0xbbacd576	-0.00527447
48	0xbd78e9a8	-0.060769707
49	0xbd618b0c	-0.055064246
50	0x3cbb296d	0.022846902
51	0xbde2db20	-0.11076951
52	0xbd34eaff	-0.044169422
53	0x3e007a90	0.12546754
54	0xbcce5be9	-0.02519031
55	0x3dae95a0	0.085246325
56	0xbd81ebfb	-0.06343838
57	0xbdb8f319	-0.09030742
58	0x3d234e7c	0.03986977
59	0xbc5d419f	-0.013504415
60	0x3d7af96b	0.06127302
61	0x3de650ab	0.11245855
62	0x3c7957f7	0.015218726
63	0xbdb02cae	-0.08602272
64	0xbd12b309	-0.035815272
65	0xbd817632	-0.06321372
66	0xbd48849f	-0.048954602
67	0xbdb9bf31	-0.0906967
68	0xbce81b73	-0.028333401
69	0xbc412432	-0.011788415
70	0xbd8bc486	-0.06824593
71	0xbd082641	-0.033239607
72	0x38c70668	9.490253e-05
73	0x3e62c759	0.22146358
74	0xbd494f12	-0.049147673
75	0x3b9f9e51	0.0048711677
76	0xbd73af67	-0.05949345
77	0xbdab843e	-0.083748326
78	0x3c8308b3	0.015995359
79	0xbd737aaa	-0.059443153
80	0x3e2af7f4	0.16696149
81	0x3e7fc9ce	0.24979326
82	0x3b8be2fc	0.004269002
83	0x3d3ca1be	0.046052687
84	0xbdc9822e	-0.09839283
85	0x3c940876	0.01807044
86	0x3e87baab	0.26509604
87	0xbd7d519e	-0.061845414
88	0x3d7f60b4	0.062348083
89	0xbda8116f	-0.0820645
90	0xbddc1a06	-0.10747151
91	0xbcc0d27b	-0.023537865
92	0xbd8fe3f2	-0.07025899
93	0xbc0ccfa5	-0.008594428
94	0xbdb420af	-0.087952964
95	0xbd689527	-0.056782868
96	0x3d256ac8	0.040385038
97	0xbdf4adf6	-0.11947243
98	0x3e75e2ed	0.24012347
99	0xbdbc512b	-0.09195169
100	0xbda5f060	-0.081024885
101	0xbc4b337e	-0.012402413
102	0xbd1ad958	-0.03780493
103	0xbc9443c4	-0.01809872
104	0xbca7dbbd	-0.020490522
105	0x3d6feeff	0.058577534
106	0xbc2bab99	-0.010477924
107	0x3de8a361	0.11359287
108	0x3daffa9d	0.085927226
109	0xbc17a94f	-0.009256675
110	0x3d80f372	0.062964335
111	0xbcd0108f	-0.02539852
112	0x3bd8912b	0.0066091022
113	0xbd3bd06e	-0.04585307
114	0xbda98a17	-0.08278292
115	0x3d7d862b	0.06189553
116	0x3cce6d70	0.025198668
117	0x3dae2267	0.085026555
118	0xbd3e3752	-0.046439476
119	0x3cc81c44	0.02442754
120	0x3c653dce	0.013991786
121	0x3ea956e3	0.33074102
122	0xbcb806cd	-0.02246418
123	0x3db78a88	0.089619696
124	0x3eaaf9d3	0.33393726
125	0xbde60622	-0.112316385
126	0xbd2618b2	-0.040550895
127	0xbc542269	-0.012947657
128	0x3f5a0049	0.85156685
129	0x3f44379d	0.7664736
130	0x3f7fd0ea	0.9992815
131	0x3f7b7439	0.98224217
132	0x3f365c28	0.7123437
133	0x3f663eaf	0.899394
134	0x3f737d62	0.95113194
135	0x3f4426d0	0.76621723
136	0x3f6c5ccb	0.9232909
137	0x3f41e3cf	0.75738233
138	0x3f6557f3	0.89587325
139	0x3f7b7f26	0.9824089
140	0x3f5e1b15	0.86760074
141	0x3f4e9c57	0.80707306
142	0x3f7645db	0.9620034
143	0x3f80c87e	1.0061185
144	0x3f6e50fa	0.9309231
145	0x3f77ee81	0.96848303
146	0x3f796d17	0.9743208
147	0x3f3420b3	0.70362395
148	0x3f312646	0.69199026
149	0x3f76c375	0.96391994
150	0x3f7ce99f	0.9879398
151	0x3f6d779e	0.92760646
152	0x3f66fc8a	0.90229094
153	0x3f67824c	0.9043319
154	0x3f7fff6f	0.99999136
155	0x3f59fa24	0.8514731
156	0x3f7d24ce	0.98884284
157	0x3f637ab1	0.8885909
158	0x3f59f19c	0.8513429
159	0x3f6400de	0.89063823
160	0x3f6f2138	0.9341006
161	0x3f482bb3	0.7819168
162	0x3f81f8a2	1.0154002
163	0x3f646446	0.89215505
164	0x3f49bd0f	0.78804106
165	0x3f790e30	0.97287273
166	0x3f694afd	0.9113005
167	0x3f56cce9	0.8390642
168	0x3f52e2ad	0.8237713
169	0x3f7b18b6	0.9808458
170	0x3f5be875	0.85901576
171	0x3f69e9bb	0.9137227
172	0x3f657772	0.89635384
173	0x3f63b3df	0.88946337
174	0x3f30a15d	0.6899622
175	0x3f70e798	0.94103384
176	0x3f6f19df	0.9339885
177	0x3f687664	0.9080565
178	0x3f7dfee2	0.99217045
179	0x3f68c1d7	0.90920776
180	0x3f54fdee	0.83199966
181	0x3f94f83d	1.1638256
182	0x3f667bc2	0.9003259
183	0x3f4fd32a	0.81181586
184	0x3f80af39	1.0053474
185	0x3f65bea8	0.89744043
186	0x3f534ff8	0.825439
187	0x3f5e20fe	0.8676909
188	0x3f597955	0.84950763
189	0x3f723b4e	0.9462174
190	0x3f7684f8	0.96296644
191	0x3f6c295b	0.92250603
192	0x3f7f8043	0.99805087
193	0x3f6d7493	0.92756003
194	0x3f714974	0.94252706
195	0x3f6c1709	0.9222265
196	0x3f822a0f	1.0169085
197	0x3f5c1267	0.8596558
198	0x3f7ce1bb	0.9878194
199	0x3f7c7bab	0.986262
200	0x3f5369c7	0.8258328
201	0x3f494d06	0.78633153
202	0x3f716cad	0.9430645
203	0x3f5970cb	0.84937733
204	0x3f818219	1.0117828
205	0x3f630446	0.88678396
206	0x3f805aa9	1.0027667
207	0x3f7181b1	0.9433852
208	0x3f67b740	0.9051399
209	0x3f3d4910	0.7393961
210	0x3f74e9bc	0.9566915
211	0x3f7e94cf	0.99445814
212	0x3f725925	0.94667274
213	0x3f7aa062	0.97900975
214	0x3f2dacdd	0.67841893
215	0x3f6a77d3	0.9158909
216	0x3f4999e7	0.7875046
217	0x3f6f17cf	0.93395704
218	0x3f5d4696	0.8643583
219	0x3f828616	1.019717
220	0x3f73c152	0.9521686
221	0x3f7a6432	0.97809136
222	0x3f705bd4	0.9389012
223	0x3f648978	0.8927226
224	0x3f62f45e	0.88654125
225	0x3f66dc94	0.90180326
226	0x3f3b805e	0.7324275
227	0x3f7162a8	0.9429116
228	0x3f704e94	0.938699
229	0x3f8275dd	1.0192219
230	0x3f6f9387	0.93584484
231	0x3f554692	0.83310807
232	0x3f6e4190	0.9306879
233	0x3f663eac	0.8993938
234	0x3f6c714b	0.9236037
235	0x3f414c02	0.75506604
236	0x3f4ed234	0.80789495
237	0x3f84c8b5	1.0373751
238	0x3f4fd3c4	0.81182504
239	0x3f675a0c	0.90371776
240	0x3f7de0f5	0.9917138
241	0x3f77727e	0.96659076
242	0x3f56e81c	0.8394792
243	0x3f803644	1.001656
244	0x3f630e09	0.8869329
245	0x3f600bd4	0.8751805
246	0x3f659c90	0.8969202
247	0x3f63fcda	0.89057696
248	0x3f7a21ab	0.97707623
249	0x3f304bef	0.68865865
250	0x3f6e32c9	0.9304624
251	0x3f49c783	0.78820056
252	0x3f3faf1a	0.7487656
253	0x3f6cb518	0.9246383
254	0x3f799b96	0.9750303
255	0x3f62fe9f	0.8866977

sequential/lstm_1/Read_2/ReadVariableOp f4 [256]
0	0x3dd184f9	0.10230441
1	0x3da25e2f	0.0792812
2	0x3d10496f	0.03522628
3	0x3d597c7a	0.053097226
4	0x3cf38052	0.029724274
5	0x3ca682e4	0.020326085
6	0x3d9f34d0	0.07773745
7	0x3d1e1e8a	0.038603343
8	0xbc31b0b7	-0.010845355
9	0x3deeb3ad	0.11655364
10	0xbd26b359	-0.040698383
11	0xbd322657	-0.043493595
12	0x3c6a2a57	0.014292321
13	0x3e35ff60	0.17773199
14	0x3d5a4a13	0.0532933
15	0x3daa6406	0.08319859
16	0xbd292f9b	-0.041305166
17	0x3e07e7ef	0.1327207
18	0x3d960c78	0.07326597
19	0xbd1a257d	-0.037633408
20	0x3d32b128	0.04362598
21	0x3d34b4ca	0.044117726
22	0xbcbccd5a	-0.023047138
23	0x3cd1ed8d	0.025625968
24	0xbc13bc78	-0.009017102
25	0xbcc42886	-0.023945104
26	0x3c699e95	0.014259
27	0x3d9a1133	0.07522812
28	0x3ddb5d3e	0.10711144
29	0x3c032cda	0.008006299
30	0xbc80d2e8	-0.015725568
31	0x3db12230	0.08649099
32	0x3c01af01	0.007915259
33	0xbc62b4a9	-0.013837018
34	0x3c3fa5c6	0.011697238
35	0x3d556e51	0.05210716
36	0x3d514cf0	0.051098764
37	0x3d398b8b	0.045299094
38	0x3e12619a	0.14295045
39	0xbc069e23	-0.008216414
40	0x3cf55f06	0.029952537
41	0x3d1e114f	0.038590726
42	0xbb560edc	-0.0032662665
43	0x3eb2afae	0.34899658
44	0x3cc58e27	0.024115635
45	0x3d81a28e	0.06329833
46	0x3d089f50	0.033355057
47	0x3ca14134	0.019684412
48	0x3dfcd869	0.123459645
49	0x3dc454e6	0.095865056
50	0x3e089bfa	0.1334075
51	0x3b5e5ebb	0.0033930975
52	0x3ca8989b	0.02058058
53	0x3d29da6a	0.04146806
54	0x3c62617b	0.0138171865
55	0x3c9daa25	0.01924617
56	0x3e002cf7	0.12517153
57	0x3c9d021f	0.01916605
58	0xbd5a9cfa	-0.05337236
59	0x3dd3fd88	0.103510916
60	0x3d70d537	0.058797088
61	0xbd0c05fc	-0.034185395
62	0x3d0728e2	0.032997973
63	0x3bc3abda	0.005971414
64	0x3f4d5a2e	0.8021573
65	0x3f4a99a1	0.7914067
66	0x3f7ceb37	0.9879641
67	0x3f82b647	1.0211877
68	0x3f805c98	1.0028257
69	0x3f66ae0c	0.90109324
70	0x3f83106d	1.0239388
71	0x3f77d536	0.9680971
72	0x3f734a66	0.950354
73	0x3f65697f	0.896141
74	0x3f7b6bc6	0.98211324
75	0x3f6ef22f	0.9333829
76	0x3f8a0eec	1.0785804
77	0x3f9a24a1	1.2042428
78	0x3f73b5e2	0.95199406
79	0x3f658fad	0.89672357
80	0x3f6d76f5	0.9275964
81	0x3f705631	0.9388152
82	0x3f859cc7	1.043847
83	0x3f66448c	0.89948344
84	0x3f514acc	0.81754756
85	0x3f78aed0	0.9714174
86	0x3f6c413d	0.92287046
87	0x3f828ee0	1.0199852
88	0x3f4c5765	0.79820853
89	0x3f74801f	0.95508
90	0x3f7e211d	0.99269277
91	0x3f6feba0	0.9371891
92	0x3f8c9dad	1.0985619
93	0x3f7b0c16	0.98065317
94	0x3f6c6d3d	0.92354184
95	0x3f68691f	0.907854
96	0x3f82d564	1.0221372
97	0x3f7bc516	0.98347604
98	0x3f70684e	0.93909156
99	0x3f642fe5	0.8913558
100	0x3f6f6b6b	0.9352328
101	0x3f5963b4	0.8491776
102	0x3f9196e9	1.1374179
103	0x3f821843	1.0163654
104	0x3f6e2200	0.9302063
105	0x3f847556	1.0348308
106	0x3f6fac9b	0.9362275
107	0x3f541b68	0.8285432
108	0x3f7be483	0.98395556
109	0x3f78e2c3	0.9722101
110	0x3f7b61ec	0.9819629
111	0x3f5c74d2	0.86115754
112	0x3f8fb83d	1.12281
113	0x3f8e321f	1.1109046
114	0x3f6f9b53	0.9359638
115	0x3f80284e	1.00123
116	0x3f850d4f	1.0394686
117	0x3f8226b7	1.0168065
118	0x3f761de4	0.9613936
119	0x3f6429eb	0.8912646
120	0x3f924501	1.1427308
121	0x3f5ed0b8	0.8703723
122	0x3f7c8f65	0.986563
123	0x3f7a34b9	0.977367
124	0x3f7007e4	0.9376204
125	0x3f78895e	0.97084606
126	0x3f7cc17f	0.9873275
127	0x3f830f26	1.0238998
128	0x3d74e362	0.05978716
129	0xbd877476	-0.0661401
130	0xbd8a22ba	-0.06744905
131	0x3d46ae4e	0.048506074
132	0xbb9d2bca	-0.00479648
133	0xbda29951	-0.07939399
134	0x3de1f7bc	0.1103358
135	0xbd19f406	-0.037586235
136	0x3d4ec3c9	0.050479684
137	0xbdcda0cd	-0.10040436
138	0xbc07892e	-0.008272452
139	0x3da917bb	0.08256479
140	0xbd4b5011	-0.049636904
141	0x3e0daaa8	0.13834631
142	0xbc5659c4	-0.013082925
143	0x3be44a7f	0.0069668884
144	0x3d499dc4	0.049222723
145	0xbdc8346e	-0.09775625
146	0xbd7ab14f	-0.06120425
147	0xbd6d335c	-0.05791031
148	0xbb9eaa31	-0.0048420657
149	0x3d2cbffd	0.04217528
150	0x3cc6c8fa	0.024265755
151	0x3d4251ae	0.047441177
152	0x3c8aa7eb	0.016925773
153	0x3d0aad19	0.033856485
154	0x3e15d662	0.14632562
155	0xbdcbc9e7	-0.09950619
156	0xbdbd9d59	-0.09258527
157	0x3c55eb8e	0.013056649
158	0x3cda58a7	0.0266536
159	0xbcb921fa	-0.02259921
160	0xbd61d2d2	-0.055132695
161	0xbdeaa772	-0.11457719
162	0xbd8274ea	-0.06369956
163	0x3d1672c3	0.03673054
164	0xbdd64ffe	-0.10464476
165	0xbd5c9cf9	-0.05386064
166	0xbde5e330	-0.11224973
167	0xb998e980	-0.0002916567
168	0xbda4030d	-0.080083944
169	0xbd471502	-0.04860402
170	0xbd0768ea	-0.03305904
171	0xbd6934eb	-0.056935232
172	0xbd9d4c19	-0.0768053
173	0x3dc2585a	0.09489508
174	0x3da28e73	0.07937326
175	0xbd1ededb	-0.03878675
176	0x3da10fe5	0.0786436
177	0x3d128ef5	0.035780866
178	0xbdf5e5b9	-0.12006707
179	0x3cec909c	0.028877549
180	0x3cda2fff	0.026634214
181	0xbe0394b5	-0.12849696
182	0x3ce0428a	0.027375478
183	0x3da0c2c0	0.078496456
184	0x3ddc7641	0.10764743
185	0xbda08acf	-0.07838976
186	0x3c9e977d	0.019359345
187	0xbd6d1872	-0.05788464
188	0x388476d8	6.316387e-05
189	0xbd1d130b	-0.03834824
190	0x3d40e95b	0.047097545
191	0xbd7628f9	-0.06009767
192	0x3e49e22e	0.19715187
193	0x3e2a35dd	0.1662211
194	0xbc996652	-0.018725548
195	0xbd53a2eb	-0.051669043
196	0x3de27d97	0.110591106
197	0x3db29e09	0.08721549
198	0xbd37de4e	-0.04488974
199	0xbc9da820	-0.019245207
200	0x3d72280b	0.05912022
201	0x3db6ac61	0.089195974
202	0xbd60923b	-0.054826956
203	0x3bc3a4da	0.0059705796
204	0x3c6dc7af	0.01451294
205	0x3c848110	0.016174823
206	0x3c63b033	0.01389699
207	0x3e4a34a5	0.19746645
208	0x3dba063f	0.090832226
209	0x3e331883	0.17489819
210	0x3b5bcbb1	0.0033538158
211	0x3bff8bec	0.0077986624
212	0x3e02ac23	0.12760977
213	0x3cb3c9d9	0.021946834
214	0xbce63745	-0.028102526
215	0xbbf0de6b	-0.007350733
216	0x3dc5a806	0.096511886
217	0xbc4f8e80	-0.012668252
218	0x3d1cebf8	0.038310975
219	0x3bc74aa9	0.006081898
220	0x3bf6dc03	0.0075335517
221	0xbc03aaa2	-0.0080362875
222	0x3d888cac	0.06667456
223	0x3d9670ee	0.073457584
224	0x3d8148f8	0.06312746
225	0xbb01e05b	-0.0019817564
226	0xbd0d1b26	-0.03444972
227	0x3ce57bf0	0.0280132
228	0x3cb20934	0.021732904
229	0x3e681879	0.22665586
230	0xbc30a066	-0.0107804295
231	0xbbbebe2a	-0.005821009
232	0x3c867f5c	0.016418152
233	0xbc20bd26	-0.0098107215
234	0x3c90aaad	0.01765951
235	0x3e9a497a	0.30134183
236	0x3ca20fe1	0.019782962
237	0xbcb40666	-0.021975707
238	0x3d08495a	0.03327308
239	0x3c1064d6	0.008813104
240	0xbc8bb08e	-0.017051961
241	0x3ad70124	0.0016403538
242	0x3d984c5c	0.074364394
243	0xbd1e22a5	-0.03860726
244	0xbcee41fa	-0.029084194
245	0xbcb24f60	-0.021766365
246	0xbc3e9e1a	-0.011634374
247	0x3e305000	0.17218018
248	0xbba6a746	-0.0050858585
249	0x3d610c5a	0.05494342
250	0xbd5a95aa	-0.053365387
251	0x3d677ef1	0.056517545
252	0x3c83b236	0.016076189
253	0xbd404000	-0.046936035
254	0x3d1461e0	0.036226153
255	0xbd52edeb	-0.051496428

sequential/dense/BiasAdd/ReadVariableOp f4 [32]
0	0x3e1afe04	0.15135962
1	0xbd6c87dc	-0.057746753
2	0x3c8264cd	0.015917206
3	0x3e506059	0.20349254
4	0x3df47487	0.11936288
5	0xbdd7ac0c	-0.10530862
6	0xbd2b0697	-0.04175433
7	0xbca0e2a1	-0.019639315
8	0x3e2ea9a0	0.17056894
9	0xbdc17ef7	-0.09448045
10	0x3d6358a1	0.055504445
11	0xbdee715e	-0.11642717
12	0x3e481dd6	0.19542632
13	0x3e1a5708	0.15072262
14	0x3bea2bbe	0.0071463278
15	0xbcb37610	-0.021906883
16	0xbd4cfb45	-0.050044317
17	0x3e02bfd2	0.12768486
18	0x3e123bf6	0.14280686
19	0xbdc818ca	-0.09770353
20	0x3d1ad43e	0.037800066
21	0xbd016c0f	-0.031597193
22	0x3e26cd75	0.16289313
23	0x3ded9b90	0.11601937
24	0xbd301b49	-0.04299477
25	0x3dcb97b9	0.09941048
26	0x3d977a4c	0.07396373
27	0xbdb10fc1	-0.08645583
28	0x3e069525	0.13142832
29	0x3b094405	0.0020945084
30	0xbd37ab66	-0.044841193
31	0x3e12b163	0.1432548

sequential/dense_1/BiasAdd/ReadVariableOp f4 [16]
0	0x3dc31b27	0.09526663
1	0xbe1b94c6	-0.15193471
2	0xbdb6a888	-0.089188635
3	0xbd785067	-0.060623553
4	0xbe0585c6	-0.13039312
5	0xbc3dac1b	-0.011576678
6	0xbe5cb037	-0.21551596
7	0xbc963c48	-0.018339291
8	0x3e191ff5	0.14953597
9	0xbdb28193	-0.087161206
10	0xbe288e57	-0.16460548
11	0xbd156495	-0.036472876
12	0xbe2c2f80	-0.16814995
13	0xbd5888ba	-0.052864768
14	0xbdbbd839	-0.091721006
15	0xbdaf4518	-0.085581005

sequential/dense/MatMul f4 [32, 64]
0	0x3d51dab7	0.051233973
1	0xbe43c47a	-0.19117919
2	0xbc59fed6	-0.0133053865
3	0x3c95f5ed	0.018305743
4	0x3e7436dd	0.23849054
5	0xbe989a00	-0.29804993
6	0x3d906094	0.07049671
7	0xbe1e69e1	-0.15470077
8	0xbad44f98	-0.0016198037
9	0xbe4ce50a	-0.20009246
10	0xbe0d7f04	-0.13817984
11	0x3ddd61cd	0.1080967
12	0xbdaacc27	-0.0833972
13	0x3e06f624	0.13179833
14	0x3c631cd1	0.013861851
15	0x3dd9afec	0.106292576
16	0x3e174042	0.14770606
17	0x3e871ca4	0.2638904
18	0xbe93948a	-0.28824264
19	0x3d424345	0.047427434
20	0x3d48c493	0.049015593
21	0x3e247fbe	0.16064355
22	0xbe2fedd7	-0.17180572
23	0xbe4af74f	-0.19820903
24	0x3e828820	0.2549448
25	0xbe5af24b	-0.2138149
26	0x3ea8f77c	0.33001316
27	0x3b46f258	0.003035685
28	0xbe933fff	-0.28759763
29	0x3dcc4b36	0.09975283
30	0x3e28ccd8	0.16484392
31	0x3e2ee6f0	0.17080283
32	0x3e3400ac	0.17578381
33	0xbe869c98	-0.26291347
34	0xbe866fc3	-0.26257142
35	0x3e428324	0.18995339
36	0xbdfb3030	-0.122650504
37	0xbe94170b	-0.2892383
38	0xbe2e7939	-0.1703843
39	0x3dfcff32	0.12353362
40	0xbd09479a	-0.03351555
41	0x3d968373	0.07349291
42	0x3def6545	0.116892375
43	0xbeb0b084	-0.3450967
44	0x3cf2b234	0.02962599
45	0x3e5c8f38	0.21539009
46	0x3c811c60	0.0157606
47	0x3e543fac	0.20727414
48	0x3e4d1a25	0.20029505
49	0x3d539616	0.051656805
50	0xbe97511a	-0.29554063
51	0x3e8d9448	0.27652192
52	0x3cc3da2e	0.023907747
53	0xbe6d17d7	-0.23153625
54	0xbe1b8359	-0.15186824
55	0x3ca189b9	0.019718992
56	0xbd3c6e4f	-0.046003636
57	0x3ded3950	0.11583197
58	0xbdd89251	-0.10574783
59	0xbe9f37f6	-0.31097382
60	0xbdf17f24	-0.11791828
61	0x3e0e2e82	0.13884929
62	0x3d0eea44	0.03489138
63	0xbdfe6683	-0.12421896
64	0x3e160a48	0.1465236
65	0xbe28b2de	-0.16474482
66	0x3e99dd79	0.30051783
67	0x3dcd5e96	0.100278065
68	0x3e3c99fb	0.18418114
69	0x3e4d4522	0.20045903
70	0x3de05906	0.1095448
71	0xbe169248	-0.1470424
72	0x3da30266	0.07959442
73	0xbd327206	-0.043565772
74	0x3da9de78	0.08294386
75	0xbe26504c	-0.16241568
76	0x3e82faca	0.25581962
77	0xbdd335b4	-0.103129774
78	0xbdaf0200	-0.08545303
79	0xbe0be56e	-0.13661739
80	0x3e163c79	0.14671506
81	0x3dfaeb8d	0.12251959
82	0x3e36c18c	0.1784727
83	0x3da8829a	0.08228035
84	0x3e52f8b0	0.20602679
85	0xbe88b5ba	-0.26701146
86	0xbdc7c44b	-0.09754237
87	0x3de551fd	0.11197279
88	0x3d55a45d	0.052158702
89	0xbe443fdf	-0.1916499
90	0xbd04c1f4	-0.03241153
91	0xbd29f651	-0.04149467
92	0x3e7254e7	0.236652
93	0x3d6c6747	0.05771568
94	0xbe3d6e20	-0.1849904
95	0xbdcd9233	-0.10037651
96	0x3dcfa418	0.1013872
97	0x3dd9bff0	0.10632312
98	0x3ddcb3d6	0.107764885
99	0x3e0af888	0.1357137
100	0x3e737fdc	0.23779243
101	0xbe897ba8	-0.26852155
102	0xbcb052ca	-0.021523852
103	0x3e131de6	0.14366874
104	0xbda3f694	-0.080060154
105	0x3e059ebb	0.13048832
106	0x3cd68fe1	0.026191654
107	0x3ca5dcdb	0.020246914
108	0x3d7e07d0	0.06201917
109	0xbe885504	-0.26627362
110	0xbdbe9ef7	-0.09307664
111	0xbc2311b3	-0.00995295
112	0x3e02d339	0.12775888
113	0xbd2370d5	-0.039902527
114	0x3e8b89bf	0.2725353
115	0xbd944060	-0.07238841
116	0x3d74f5c7	0.059804704
117	0xbc504f12	-0.012714164
118	0x3e09178c	0.13387889
119	0xbe48a2e4	-0.19593388
120	0xbe148109	-0.14502348
121	0x3ccce99d	0.02501374
122	0x3bffe48b	0.007809227
123	0x3d9057c9	0.07047994
124	0x3e121e98	0.14269483
125	0xbe4f77b3	-0.20260505
126	0x3e82497f	0.25446698
127	0x3e8adf95	0.27123705
128	0xbf288737	-0.6583132
129	0x3ec5b8fb	0.3861769
130	0x3decbe43	0.11559727
131	0x3e4cec37	0.20011984
132	0x3daf7894	0.0856792
133	0xbe3cd1df	-0.18439434
134	0x3d4758cd	0.04866867
135	0x3d8fa20d	0.070133306
136	0x3d122738	0.035681933
137	0xbeca8ad3	-0.3955904
138	0xbd4fcc49	-0.05073193
139	0x3dd61951	0.104540475
140	0xbde11805	-0.109909095
141	0x3e141807	0.1446229
142	0xbda2f184	-0.07956222
143	0xbf04e740	-0.5191536
144	0x3e8c4f69	0.27404335
145	0x3db2c7fc	0.0872955
146	0xbde87477	-0.11350339
147	0x3e77b214	0.24189025
148	0x3f19a994	0.6002438
149	0xbe27621c	-0.1634602
150	0xbe00c81e	-0.12576339
151	0xbd9d165c	-0.0767028
152	0x3ca2549a	0.019815732
153	0x3e205265	0.15656431
154	0xbcb985b4	-0.022646762
155	0x3e1fbc28	0.1559912
156	0xbde41918	-0.11137599
157	0xbea34609	-0.3188937
158	0xbd1f2f58	-0.03886351
159	0x3be92274	0.007114703
160	0x3dd8799a	0.10570069
161	0xbe09373c	-0.13399976
162	0x3dd26b10	0.10274327
163	0xbcef6d5b	-0.02922695
164	0x3e43ffb9	0.19140519
165	0xbde4bf46	-0.11169295
166	0xbdfd3bb7	-0.12364905
167	0xbd38cc2d	-0.045116592
168	0x3ed9f728	0.42571378
169	0x3e858fb1	0.2608619
170	0x3eb4bb2b	0.35299048
171	0xbe9b372e	-0.30315536
172	0x3dab2e8a	0.08358486
173	0x3c56cbdd	0.013110128
174	0xbde2c942	-0.11073543
175	0x3ec71421	0.38882545
176	0xbd25200e	-0.040313773
177	0x3e34fa87	0.17673694
178	0x3df6e36a	0.120550945
179	0xbe351aca	-0.17686
180	0x3d3af95a	0.045647956
181	0xbd738265	-0.059450526
182	0x3ecbbff9	0.397949
183	0x3e27b4c5	0.16377552
184	0x3e3532ee	0.1769521
185	0x3ed380fd	0.41309348
186	0xbbf2123f	-0.007387429
187	0x3d50414e	0.05084353
188	0xbdd38f60	-0.10330081
189	0x3e65871b	0.2241482
190	0xbd146114	-0.036225393
191	0x3e39d041	0.18145849
192	0x3d55ba5f	0.05217969
193	0x3aee729e	0.0018192118
194	0xbeb32d16	-0.34995335
195	0x3df377c1	0.118880756
196	0xbe91208a	-0.28345138
197	0x3da99728	0.08280784
198	0x3e309660	0.17244864
199	0xbe88766f	-0.26652858
200	0xbe3f839d	-0.1870255
201	0x3def64cd	0.11689148
202	0xbded78b5	-0.11595289
203	0xbe2b354a	-0.16719547
204	0xbd64befb	-0.055846196
205	0x3e687efa	0.22704688
206	0x3dd6ce98	0.104886234
207	0x3aae7fb0	0.00133132
208	0xbd21e940	-0.039529085
209	0x3e3c07b2	0.1836231
210	0x3dba5512	0.09098257
211	0xbdb6c107	-0.08923536
212	0x3c83ffc9	0.016113179
213	0xbdef5a42	-0.11687137
214	0x3e963cfd	0.29343405
215	0x3e78e0b7	0.24304472
216	0xbe678c85	-0.22612198
217	0xbe74c4a8	-0.23903143
218	0x3db07dca	0.08617742
219	0xbe6b35d7	-0.22969757
220	0xbd1e4e27	-0.03864875
221	0x3e9e26d5	0.30889
222	0xbe1ea394	-0.15492088
223	0xbdc439ef	-0.095813625
224	0x3e4c464e	0.19948694
225	0xbe289c98	-0.16465986
226	0x3e0102f4	0.12598783
227	0xbe32ff30	-0.17480159
228	0xbd011983	-0.03151847
229	0xbda19c2a	-0.07891114
230	0x3d33c6d0	0.043890774
231	0xbe4c0e5e	-0.19927356
232	0xbe75dbd4	-0.24009639
233	0x3b1085b5	0.0022052352
234	0xbe595b7f	-0.21226309
235	0xbc1bdea3	-0.00951353
236	0x3d715a5f	0.058924075
237	0x3b27c834	0.0025601508
238	0x3e7f365a	0.24923077
239	0x3e77cab2	0.24198416
240	0x3db5441c	0.088508815
241	0x3ce37e59	0.027770208
242	0xbe53d0df	-0.20685147
243	0x3d9d66f0	0.076856494
244	0x3e7eb790	0.24874711
245	0x3dc2e31a	0.095159724
246	0x3e11c364	0.14234692
247	0x3e39b9f5	0.18137343
248	0x3da42cec	0.08016381
249	0xbe832539	-0.25614336
250	0x3d97958c	0.07401571
251	0x3cb0fa76	0.021603804
252	0xbd17cc1d	-0.037059892
253	0xbd4865c4	-0.048925176
254	0x3e83c8e5	0.25739208
255	0x3dec9a4e	0.11552869

sequential/dense_1/MatMul f4 [16, 32]
0	0x3e8bbd45	0.2729284
1	0xbdb6fbda	-0.089347556
2	0xbf2d11d2	-0.67605317
3	0x3e62279e	0.22085425
4	0xbe908ff9	-0.28234842
5	0xbd9b84e0	-0.07593703
6	0xbeb97c6d	-0.36227742
7	0xbe5485a7	-0.2075411
8	0x3d8a7570	0.06760681
9	0x3e7cbf61	0.2468238
10	0xbe010438	-0.12599266
11	0xbe738ee4	-0.23784977
12	0x3e94b37d	0.2904319
13	0x3c3fad94	0.011699099
14	0x3e44f589	0.19234289
15	0xbeeb3465	-0.4593841
16	0xbdce0607	-0.100597434
17	0x3e35a668	0.1773926
18	0xbdc9bbbc	-0.098502606
19	0x3e5013e6	0.2032009
20	0x3d934347	0.071905665
21	0xbdfcd1d2	-0.123447075
22	0x3e74e088	0.23913777
23	0x3ebd3480	0.36954117
24	0xbe5abd1d	-0.21361203
25	0x3e9c221d	0.30494776
26	0x3de89713	0.1135694
27	0x3e5c0d1d	0.21489377
28	0x3edcfbcb	0.43160853
29	0x3cdf5fe0	0.027267396
30	0x3da36207	0.079776816
31	0x3ddf4019	0.109008975
32	0x3e7ae6f1	0.2450216
33	0x3dd1ec1c	0.102501124
34	0xbd2e9ff7	-0.042633023
35	0xbee47575	-0.44620863
36	0xbf2adb60	-0.6674099
37	0x3efae19a	0.49000245
38	0xbf24cf89	-0.64379174
39	0xbe653a8a	-0.22385612
40	0xbec40e89	-0.3829234
41	0xbde9fdb2	-0.11425342
42	0x3dfb819b	0.1228058
43	0x3ee9dfcc	0.45678556
44	0xbe0c95cb	-0.13729016
45	0x3deb44eb	0.114877544
46	0x3dc6b0aa	0.09701665
47	0x3d9bbfc1	0.076049335
48	0x3d72dee7	0.059294607
49	0xbe975ecf	-0.2956452
50	0xbe717224	-0.23578697
51	0xbe954ae9	-0.29158714
52	0x3eabe03a	0.3356951
53	0x3e7d30fe	0.2472572
54	0xbf04db80	-0.5189743
55	0xbe657da9	-0.22411217
56	0x3d9ac082	0.07556249
57	0xbef60872	-0.48053318
58	0xbc0b1eee	-0.008491261
59	0x3d684f7a	0.05671642
60	0x3d048ac3	0.032358896
61	0x3e48df3c	0.19616407
62	0x3e4427c8	0.191558
63	0x3e0ddc15	0.13853486
64	0xbd301b22	-0.042994626
65	0xbeb477c8	-0.35247636
66	0x3e5299c9	0.20566477
67	0x3e0ef59a	0.13960877
68	0xbe19eeed	-0.15032549
69	0x3e6b71a4	0.22992569
70	0x3dbb2f45	0.09139875
71	0x3ea689ca	0.32527
72	0xbe8abe21	-0.27098182
73	0x3d9cd645	0.07658056
74	0x3db449fc	0.08803174
75	0x3e18c4df	0.1491885
76	0xbe867069	-0.26257637
77	0x3d404f76	0.04695078
78	0x3e08135d	0.13288637
79	0x3e7f6bce	0.24943468
80	0x3ee420ef	0.44556376
81	0xbeb460df	-0.35230157
82	0xbdf88327	-0.1213439
83	0xbdd0c33f	-0.1019349
84	0x3eae3eb8	0.34032226
85	0xbe041645	-0.1289912
86	0x3de404ea	0.1113375
87	0x3e6773e2	0.226028
88	0xbe9988bd	-0.29987136
89	0xbe792cc7	-0.24333487
90	0x3e0911cd	0.13385697
91	0xbe9a18ff	-0.30097196
92	0x3e37e114	0.17956954
93	0x3e2ff207	0.1718217
94	0x3e962963	0.2932845
95	0x3db89f65	0.09014777
96	0xbe247306	-0.16059503
97	0x3be4b0be	0.006979077
98	0xbe88d181	-0.2672234
99	0xbeaec17d	-0.34131995
100	0xbd84bc03	-0.06481173
101	0xbe100d05	-0.14067467
102	0x3ea2de24	0.31810105
103	0xbe5517e1	-0.2080989
104	0x3d4e6d09	0.050396953
105	0x3dd14ea6	0.10220079
106	0xbe19bd74	-0.15013677
107	0xbe8fed51	-0.28110746
108	0x3e64a128	0.22327101
109	0xbe3b6fa9	-0.18304314
110	0xbe6259ae	-0.22104523
111	0x3e8fb600	0.28068542
112	0xbe8551ab	-0.2603887
113	0xbb63a607	-0.0034736411
114	0xbe87ff06	-0.26561755
115	0xbe542c05	-0.20719917
116	0xbe11fd22	-0.14256719
117	0xbe0432bb	-0.12909977
118	0xbc9938cd	-0.018703843
119	0xbedac7c1	-0.42730525
120	0xbe809bc6	-0.25118846
121	0x3dd3ec3e	0.10347794
122	0x3e500be5	0.20317037
123	0x3d7b5ef8	0.061369866
124	0x3c4c6507	0.012475259
125	0xbd44b653	-0.04802544
126	0x3d95a93a	0.07307668
127	0x3da4c6e6	0.08045749
128	0xbeceef8d	-0.40417138
129	0xbe2579cb	-0.16159742
130	0xbf9ad54e	-1.2096345
131	0xbeea3000	-0.45739746
132	0xbf068dee	-0.5256032
133	0xbeab940a	-0.33511382
134	0xbba9634f	-0.005169309
135	0xbca9212e	-0.020645704
136	0x3d2c5313	0.042071413
137	0xbe724c69	-0.2366196
138	0xbeb0cfe3	-0.34533605
139	0xbe3158f7	-0.17319094
140	0xbe8c0a0c	-0.27351415
141	0xbcf5a58c	-0.029986165
142	0xbf09db51	-0.53850275
143	0xbda3f020	-0.080047846
144	0xbedfc178	-0.43702292
145	0xbe1d215b	-0.15344755
146	0xbe0b3ee2	-0.13598207
147	0x3e1c881e	0.152863
148	0xbfa4ce38	-1.2875433
149	0xbf8caadb	-1.0989641
150	0xbecad057	-0.39612076
151	0x3d984fd0	0.07437098
152	0x3d3121e9	0.04324523
153	0xbf55c6ac	-0.83506274
154	0xbecaa08c	-0.39575613
155	0xbeb70d3a	-0.3575228
156	0xbd91816f	-0.071047656
157	0xbe560e69	-0.20903935
158	0x3e592233	0.21204452
159	0xbe226bec	-0.15861481
160	0xbdb153cd	-0.08658562
161	0x3e221642	0.15828803
162	0x3d7b7ff1	0.06140131
163	0xbdf33f1b	-0.11877271
164	0x3cd0bf87	0.025481952
165	0xbdc18821	-0.09449793
166	0x3daf0674	0.08546153
167	0x3cc96676	0.02458499
168	0xbe84b790	-0.25921297
169	0xbe860999	-0.26179197
170	0xbd9e7709	-0.07737548
171	0x3e614340	0.2199831
172	0xbda6499a	-0.08119507
173	0x3e90bad3	0.28267536
174	0xbe966a04	-0.29377759
175	0x3ded3617	0.115825824
176	0xbe4ec21a	-0.20191231
177	0x3e9fdd1f	0.3122339
178	0xbe038568	-0.12843859
179	0x3e3816c2	0.17977431
180	0x3d1ddd61	0.0385412
181	0x3e5f566d	0.21810313
182	0x3e8f188b	0.27948412
183	0xbe2764e8	-0.16347086
184	0x3e0dadf1	0.13835885
185	0x3e3e90dd	0.18609948
186	0x3d27d7c7	0.040977266
187	0x3e7c28d0	0.24624944
188	0x3d051794	0.03249319
189	0xbe4229d1	-0.18961264
190	0x3ddef700	0.10886955
191	0x3eae7dbb	0.340803
192	0xbe603773	-0.21896152
193	0x3e04f2cf	0.12983249
194	0xbfb9ee0c	-1.4525771
195	0x3e40b64b	0.18819539
196	0xbe9d341c	-0.3070382
197	0x3db1bbde	0.08678411
198	0xbef81daf	-0.48460147
199	0xbd33acb6	-0.04386588
200	0xbe916241	-0.28395274
201	0xbe988d72	-0.29795414
202	0xbf205600	-0.62631226
203	0xbf04f349	-0.51933724
204	0xbdb3d14a	-0.08780153
205	0xbe979fa2	-0.29613978
206	0xbe2e72f2	-0.17036036
207	0x3e5daf9f	0.21649025
208	0xbf2d7ab7	-0.67765373
209	0x3e8c51a9	0.27406052
210	0x3d4fb2a6	0.05070748
211	0x3d801156	0.062533066
212	0xbfaee90e	-1.3664873
213	0xbfc5bed5	-1.5448862
214	0xbdeb6671	-0.114941485
215	0x3df14f6f	0.11782729
216	0xbe4ca168	-0.19983447
217	0xbfa129ef	-1.2590922
218	0x3db9c732	0.090711966
219	0x3d37e416	0.044895254
220	0xbe897317	-0.2684562
221	0xbeb8c80f	-0.36090133
222	0x3caa2d15	0.02077345
223	0xbeb91d25	-0.36155048
224	0x3e743918	0.23849905
225	0xbe47df70	-0.19518828
226	0x3e357286	0.17719468
227	0x3c6ed2f6	0.014576664
228	0x3da90a9e	0.08253978
229	0x3dc025bd	0.09382198
230	0x3deb9413	0.11502852
231	0x3d01c111	0.031678263
232	0x3dbc96a3	0.09208419
233	0x3e289360	0.16462469
234	0xbc384a7a	-0.011248225
235	0xbede82d6	-0.43459195
236	0xbd26ad26	-0.04069247
237	0x3de40743	0.111341976
238	0xbf509470	-0.814765
239	0x3dbc6c0e	0.09200297
240	0xbea3f528	-0.32022977
241	0x3eab755e	0.33487982
242	0xbe5bebc0	-0.2147665
243	0x3e88bef6	0.26708192
244	0x3d976d53	0.07393899
245	0xbd0b045a	-0.033939697
246	0xbe88ac29	-0.26693848
247	0xbee6f3d3	-0.45107898
248	0xbe7d8147	-0.24756347
249	0x3ccabfcc	0.024749659
250	0xbe1f606d	-0.15564127
251	0x3e715d87	0.23570834
252	0xbc57d29d	-0.013172773
253	0xbe377832	-0.17916945
254	0xbeee7745	-0.4657537
255	0x3ec184e0	0.37796688

sequential/lstm/Read_2/ReadVariableOp1 f4 [512]
0	0x3c326fcd	0.010890913
1	0x3eb0399c	0.34418952
2	0x3c5a54ab	0.0133258505
3	0x3d10653c	0.035252795
4	0x3e878cc4	0.26474583
5	0xbcefb246	-0.029259812
6	0xbd44c33e	-0.04803776
7	0x3ddabd5c	0.10680649
8	0xbc8b51db	-0.017006805
9	0x3e20bcd7	0.15697037
10	0x3e308355	0.17237599
11	0xbd323bf2	-0.0435142
12	0xbdf7de2c	-0.12102923
13	0x3e1b374b	0.15157811
14	0xbd9821ec	-0.07428345
15	0x3c989a6a	0.018628318
16	0xbd316cc7	-0.04331663
17	0xbb4347b1	-0.002979737
18	0xbb6cfa91	-0.0036160091
19	0x3e834c04	0.25643933
20	0x3e431340	0.19050312
21	0xbd471976	-0.048608266
22	0xbc987717	-0.018611474
23	0xbd9f97af	-0.07792603
24	0xbc143087	-0.009044773
25	0xbcfc0951	-0.030766161
26	0xbcbb5d97	-0.022871776
27	0x3cdf5e7c	0.027266733
28	0x3d0b9283	0.03407527
29	0xbd12ef8d	-0.035872985
30	0x3b1c929e	0.0023891102
31	0x3df3497a	0.11879249
32	0xbd5bbbca	-0.053645886
33	0x3e847f02	0.2587815
34	0xbc0b69c7	-0.008509106
35	0xbd3539fe	-0.04424476
36	0x3e01c5bb	0.12673084
37	0xbd389c0c	-0.045070693
38	0xbc7c5220	-0.0154004395
39	0x3d0205f7	0.03174397
40	0x3d44925d	0.047991145
41	0xbd858836	-0.06520121
42	0xbd2f702d	-0.04283159
43	0xbd6d898b	-0.0579925
44	0xbc58ab34	-0.013224412
45	0xbda1c975	-0.07899753
46	0x3eaa8a58	0.33308673
47	0xbbacd576	-0.00527447
48	0xbd78e9a8	-0.060769707
49	0xbd618b0c	-0.055064246
50	0x3cbb296d	0.022846902
51	0xbde2db20	-0.11076951
52	0xbd34eaff	-0.044169422
53	0x3e007a90	0.12546754
54	0xbcce5be9	-0.02519031
55	0x3dae95a0	0.085246325
56	0xbd81ebfb	-0.06343838
57	0xbdb8f319	-0.09030742
58	0x3d234e7c	0.03986977
59	0xbc5d419f	-0.013504415
60	0x3d7af96b	0.06127302
61	0x3de650ab	0.11245855
62	0x3c7957f7	0.015218726
63	0xbdb02cae	-0.08602272
64	0xbd12b309	-0.035815272
65	0xbd817632	-0.06321372
66	0xbd48849f	-0.048954602
67	0xbdb9bf31	-0.0906967
68	0xbce81b73	-0.028333401
69	0xbc412432	-0.011788415
70	0xbd8bc486	-0.06824593
71	0xbd082641	-0.033239607
72	0x38c70668	9.490253e-05
73	0x3e62c759	0.22146358
74	0xbd494f12	-0.049147673
75	0x3b9f9e51	0.0048711677
76	0xbd73af67	-0.05949345
77	0xbdab843e	-0.083748326
78	0x3c8308b3	0.015995359
79	0xbd737aaa	-0.059443153
80	0x3e2af7f4	0.16696149
81	0x3e7fc9ce	0.24979326
82	0x3b8be2fc	0.004269002
83	0x3d3ca1be	0.046052687
84	0xbdc9822e	-0.09839283
85	0x3c940876	0.01807044
86	0x3e87baab	0.26509604
87	0xbd7d519e	-0.061845414
88	0x3d7f60b4	0.062348083
89	0xbda8116f	-0.0820645
90	0xbddc1a06	-0.10747151
91	0xbcc0d27b	-0.023537865
92	0xbd8fe3f2	-0.07025899
93	0xbc0ccfa5	-0.008594428
94	0xbdb420af	-0.087952964
95	0xbd689527	-0.056782868
96	0x3d256ac8	0.040385038
97	0xbdf4adf6	-0.11947243
98	0x3e75e2ed	0.24012347
99	0xbdbc512b	-0.09195169
100	0xbda5f060	-0.081024885
101	0xbc4b337e	-0.012402413
102	0xbd1ad958	-0.03780493
103	0xbc9443c4	-0.01809872
104	0xbca7dbbd	-0.020490522
105	0x3d6feeff	0.058577534
106	0xbc2bab99	-0.010477924
107	0x3de8a361	0.11359287
108	0x3daffa9d	0.085927226
109	0xbc17a94f	-0.009256675
110	0x3d80f372	0.062964335
111	0xbcd0108f	-0.02539852
112	0x3bd8912b	0.0066091022
113	0xbd3bd06e	-0.04585307
114	0xbda98a17	-0.08278292
115	0x3d7d862b	0.06189553
116	0x3cce6d70	0.025198668
117	0x3dae2267	0.085026555
118	0xbd3e3752	-0.046439476
119	0x3cc81c44	0.02442754
120	0x3c653dce	0.013991786
121	0x3ea956e3	0.33074102
122	0xbcb806cd	-0.02246418
123	0x3db78a88	0.089619696
124	0x3eaaf9d3	0.33393726
125	0xbde60622	-0.112316385
126	0xbd2618b2	-0.040550895
127	0xbc542269	-0.012947657
128	0x3f5a0049	0.85156685
129	0x3f44379d	0.7664736
130	0x3f7fd0ea	0.9992815
131	0x3f7b7439	0.98224217
132	0x3f365c28	0.7123437
133	0x3f663eaf	0.899394
134	0x3f737d62	0.95113194
135	0x3f4426d0	0.76621723
136	0x3f6c5ccb	0.9232909
137	0x3f41e3cf	0.75738233
138	0x3f6557f3	0.89587325
139	0x3f7b7f26	0.9824089
140	0x3f5e1b15	0.86760074
141	0x3f4e9c57	0.80707306
142	0x3f7645db	0.9620034
143	0x3f80c87e	1.0061185
144	0x3f6e50fa	0.9309231
145	0x3f77ee81	0.96848303
146	0x3f796d17	0.9743208
147	0x3f3420b3	0.70362395
148	0x3f312646	0.69199026
149	0x3f76c375	0.96391994
150	0x3f7ce99f	0.9879398
151	0x3f6d779e	0.92760646
152	0x3f66fc8a	0.90229094
153	0x3f67824c	0.9043319
154	0x3f7fff6f	0.99999136
155	0x3f59fa24	0.8514731
156	0x3f7d24ce	0.98884284
157	0x3f637ab1	0.8885909
158	0x3f59f19c	0.8513429
159	0x3f6400de	0.89063823
160	0x3f6f2138	0.9341006
161	0x3f482bb3	0.7819168
162	0x3f81f8a2	1.0154002
163	0x3f646446	0.89215505
164	0x3f49bd0f	0.78804106
165	0x3f790e30	0.97287273
166	0x3f694afd	0.9113005
167	0x3f56cce9	0.8390642
168	0x3f52e2ad	0.8237713
169	0x3f7b18b6	0.9808458
170	0x3f5be875	0.85901576
171	0x3f69e9bb	0.9137227
172	0x3f657772	0.89635384
173	0x3f63b3df	0.88946337
174	0x3f30a15d	0.6899622
175	0x3f70e798	0.94103384
176	0x3f6f19df	0.9339885
177	0x3f687664	0.9080565
178	0x3f7dfee2	0.99217045
179	0x3f68c1d7	0.90920776
180	0x3f54fdee	0.83199966
181	0x3f94f83d	1.1638256
182	0x3f667bc2	0.9003259
183	0x3f4fd32a	0.81181586
184	0x3f80af39	1.0053474
185	0x3f65bea8	0.89744043
186	0x3f534ff8	0.825439
187	0x3f5e20fe	0.8676909
188	0x3f597955	0.84950763
189	0x3f723b4e	0.9462174
190	0x3f7684f8	0.96296644
191	0x3f6c295b	0.92250603
192	0x3f7f8043	0.99805087
193	0x3f6d7493	0.92756003
194	0x3f714974	0.94252706
195	0x3f6c1709	0.9222265
196	0x3f822a0f	1.0169085
197	0x3f5c1267	0.8596558
198	0x3f7ce1bb	0.9878194
199	0x3f7c7bab	0.986262
200	0x3f5369c7	0.8258328
201	0x3f494d06	0.78633153
202	0x3f716cad	0.9430645
203	0x3f5970cb	0.84937733
204	0x3f818219	1.0117828
205	0x3f630446	0.88678396
206	0x3f805aa9	1.0027667
207	0x3f7181b1	0.9433852
208	0x3f67b740	0.9051399
209	0x3f3d4910	0.7393961
210	0x3f74e9bc	0.9566915
211	0x3f7e94cf	0.99445814
212	0x3f725925	0.94667274
213	0x3f7aa062	0.97900975
214	0x3f2dacdd	0.67841893
215	0x3f6a77d3	0.9158909
216	0x3f4999e7	0.7875046
217	0x3f6f17cf	0.93395704
218	0x3f5d4696	0.8643583
219	0x3f828616	1.019717
220	0x3f73c152	0.9521686
221	0x3f7a6432	0.97809136
222	0x3f705bd4	0.9389012
223	0x3f648978	0.8927226
224	0x3f62f45e	0.88654125
225	0x3f66dc94	0.90180326
226	0x3f3b805e	0.7324275
227	0x3f7162a8	0.9429116
228	0x3f704e94	0.938699
229	0x3f8275dd	1.0192219
230	0x3f6f9387	0.93584484
231	0x3f554692	0.83310807
232	0x3f6e4190	0.9306879
233	0x3f663eac	0.8993938
234	0x3f6c714b	0.9236037
235	0x3f414c02	0.75506604
236	0x3f4ed234	0.80789495
237	0x3f84c8b5	1.0373751
238	0x3f4fd3c4	0.81182504
239	0x3f675a0c	0.90371776
240	0x3f7de0f5	0.9917138
241	0x3f77727e	0.96659076
242	0x3f56e81c	0.8394792
243	0x3f803644	1.001656
244	0x3f630e09	0.8869329
245	0x3f600bd4	0.8751805
246	0x3f659c90	0.8969202
247	0x3f63fcda	0.89057696
248	0x3f7a21ab	0.97707623
249	0x3f304bef	0.68865865
250	0x3f6e32c9	0.9304624
251	0x3f49c783	0.78820056
252	0x3f3faf1a	0.7487656
253	0x3f6cb518	0.9246383
254	0x3f799b96	0.9750303
255	0x3f62fe9f	0.8866977

while/MatMul_11 f4 [512, 128]
0	0x3d4f43b4	0.050601676
1	0xbdf246f5	-0.1182994
2	0x3e455aa0	0.19272852
3	0x3e73165e	0.23739001
4	0xbe1fefd5	-0.15618832
5	0x3b7732b7	0.0037719437
6	0xbcc7b94f	-0.024380354
7	0xbc3f973d	-0.011693773
8	0x3dcb778e	0.099349126
9	0x3d934e4d	0.07192669
10	0xbe7b1ac2	-0.24521926
11	0x3e17aa40	0.14811039
12	0xbe30f325	-0.17280252
13	0xbccb3293	-0.02480439
14	0x3e3e005f	0.18554829
15	0x3de02ffc	0.10946652
16	0xbe0e608e	-0.1390402
17	0xbdd59500	-0.1042881
18	0xbe194d9a	-0.14971009
19	0x3da2c26c	0.07947239
20	0x3d76101a	0.06007395
21	0xbdff364e	-0.1246153
22	0xbdae835b	-0.08521148
23	0xbdc84fee	-0.097808704
24	0xbd0ee813	-0.034889292
25	0xbe6c1b2d	-0.23057242
26	0x3d11f87f	0.035637375
27	0xbbbb658c	-0.0057188924
28	0x3e334ce4	0.175098
29	0xbe0f80cd	-0.14013977
30	0x3d73d661	0.05953062
31	0xbe98b87c	-0.2982825
32	0xbe653cbb	-0.22386448
33	0x3e030130	0.12793422
34	0x3e3cb8fe	0.18429944
35	0x3c049c7b	0.0080939485
36	0xbe57632b	-0.21033923
37	0x3d780804	0.06055452
38	0x3e001921	0.12509586
39	0xbe188626	-0.14894924
40	0xbb8b317f	-0.0042478438
41	0xbd703657	-0.058645573
42	0x3c686bb3	0.014185834
43	0x3dde1d78	0.108454645
44	0xbd092a2e	-0.03348749
45	0x3d79533d	0.060870398
46	0xbd9eccc8	-0.07753903
47	0xbe58f1c9	-0.21185984
48	0x3df30fe9	0.11868269
49	0x3df4e60d	0.11957941
50	0x3e16aee9	0.1471516
51	0x3d79f464	0.061024085
52	0x3dcb86fd	0.09937856
53	0x3e54dba2	0.20786908
54	0x3da2b66b	0.0794495
55	0xbd3c625a	-0.045992233
56	0xbe157cee	-0.14598438
57	0xbe22c888	-0.15896809
58	0x3dc109c6	0.09425692
59	0xbe32c89d	-0.1745934
60	0x3c8097cd	0.015697384
61	0x3f154c36	0.58319414
62	0x3e55c156	0.20874533
63	0xbd2d038a	-0.042239703
64	0xbc83da11	-0.016095193
65	0xbe9ec47f	-0.3100929
66	0x3e477115	0.19476731
67	0xbd10caca	-0.035349645
68	0xbdc26454	-0.09491792
69	0x3e30f453	0.17280702
70	0x3e954f39	0.29162005
71	0x3dc3a36d	0.09552655
72	0x3dd7eff7	0.105438165
73	0xbdf8577f	-0.121260636
74	0x3df0b12c	0.11752543
75	0x3d57b607	0.05266383
76	0x3e5b3331	0.21406247
77	0x3d79fc50	0.06103164
78	0x3e31ea30	0.17374492
79	0x3e0d1e6e	0.13781139
80	0xbd55f3e0	-0.05223453
81	0x3e099441	0.1343546
82	0x3d786358	0.060641617
83	0xbe6c2186	-0.23059663
84	0xbe05289e	-0.13003775
85	0x3e37064f	0.178735
86	0x3db17c03	0.086662315
87	0xbda019db	-0.078174315
88	0xbdc7b121	-0.097505815
89	0xbded13e1	-0.11576057
90	0x3cf48d19	0.029852437
91	0xbe9902e0	-0.29885006
92	0xbddd111c	-0.10794279
93	0x3e0c5f96	0.13708338
94	0xbdd0e8bd	-0.10200641
95	0xbe543840	-0.20724583
96	0x3accccf1	0.0015625042
97	0x3dd99a86	0.10625176
98	0xbe0c68b1	-0.13711812
99	0x3d0e3fb1	0.03472871
100	0x3e23c5e8	0.15993464
101	0xbd70f6de	-0.05882918
102	0xbdb1f38a	-0.086890295
103	0xbe00ed5e	-0.12590548
104	0x3d8c0a79	0.06837935
105	0x3e139639	0.14412774
106	0xbea5cdcd	-0.32383576
107	0x3dd59fa1	0.104308374
108	0xbe0cc94e	-0.13748667
109	0xbdf47841	-0.11936999
110	0xbd97014f	-0.073732965
111	0xbd72cd6b	-0.059277933
112	0x3dd62468	0.10456163
113	0xbe24bb95	-0.16087182
114	0xbe557f0b	-0.20849244
115	0xbedacb9b	-0.42733464
116	0x3d31478c	0.043281123
117	0xbdb91c1b	-0.09038564
118	0x3e7f16e6	0.24911079
119	0xbdf0c21b	-0.11755773
120	0xbd5e535f	-0.054278728
121	0xbd0c7a73	-0.034296464
122	0x3de79e31	0.113094695
123	0x3dff3da2	0.124629274
124	0xbd9bf976	-0.0761594
125	0xbd10f60f	-0.03539091
126	0xbc72cc9f	-0.014819293
127	0x3dc8c4c4	0.09803155
128	0x3e6dde14	0.23229247
129	0xbd50f515	-0.05101498
130	0x3eb271ff	0.34852597
131	0x3e9b450a	0.3032611
132	0xbda28333	-0.079351805
133	0xbe0a919e	-0.13532111
134	0x3dea1639	0.1143002
135	0xbe7606f2	-0.24026087
136	0x3dabde9f	0.08392071
137	0x3bd84586	0.0066000847
138	0xbe9ffcc6	-0.31247538
139	0x3e9cc9a0	0.30622578
140	0xbdface86	-0.122464225
141	0x3d115e82	0.03549052
142	0x3e691f24	0.22765785
143	0x3ea254d0	0.31705332
144	0xbe63de5e	-0.22252795
145	0xbe595396	-0.21223292
146	0xbea9bccf	-0.33151862
147	0x3d852268	0.06500703
148	0x3d457ec1	0.048216585
149	0xbe927135	-0.28601995
150	0xbe73b80c	-0.23800677
151	0xbe8f656a	-0.2800706
152	0xbdfc52be	-0.12320469
153	0xbe58b49d	-0.21162648
154	0x3ecea751	0.40362027
155	0xbd6b9485	-0.057514686
156	0x3e75325e	0.23944995
157	0xbebd304b	-0.36950907
158	0x3e513706	0.20431146
159	0xbf001736	-0.5003542
160	0xbea68f33	-0.32531127
161	0x3ebe99e3	0.3722678
162	0x3ee50b93	0.44735393
163	0x3e68ff60	0.22753668
164	0xbdd0de71	-0.10198677
165	0x3eb469d4	0.3523699
166	0x3e9ecb47	0.31014463
167	0xbe12bc3f	-0.14329623
168	0xbd52d3ed	-0.05147164
169	0xbe9ffcd3	-0.31247577
170	0xbd97a26e	-0.07404028
171	0x3e42622e	0.18982765
172	0x3d7c664e	0.061621003
173	0x3da372ad	0.07980857
174	0xbd2352dd	-0.039873946
175	0xbeab1b68	-0.33419347
176	0xbd8b2ae8	-0.06795293
177	0x3e9d0cc3	0.306738
178	0x3ef39dbc	0.4758128
179	0x3e449bc2	0.19200042
180	0x3e82859d	0.25492564
181	0x3f051983	0.5199205
182	0x3e5980e6	0.21240577
183	0x3d139b87	0.036036994
184	0xbed88e49	-0.42296055
185	0xbec16fa1	-0.3778048
186	0x3dbcc56d	0.092173435
187	0xbe631f28	-0.22179854
188	0x3e2c0dba	0.16802111
189	0x3f036f15	0.5134137
190	0x3e64693a	0.22305766
191	0xbe5f9389	-0.21833624
192	0xbea63c5c	-0.32467926
193	0xbe8b9fc0	-0.27270317
194	0x3ea85854	0.3287989
195	0x3e3ce22f	0.18445657
196	0xbe4b12d2	-0.19831398
197	0x3e9a26a4	0.30107605
198	0x3e870c19	0.26376417
199	0x3eb02453	0.34402713
200	0x3e941fcc	0.2893051
201	0xbe5a853a	-0.21339884
202	0x3eea6601	0.45780948
203	0x3e28ce82	0.16485026
204	0x3e9471bc	0.28993022
205	0x3db1a768	0.08674508
206	0x3e5dbc18	0.21653783
207	0x3ea34015	0.31884828
208	0xbc8416c9	-0.016124146
209	0x3deebb2f	0.11656796
210	0x3e673506	0.2257882
211	0xbecfc4f8	-0.40579963
212	0xbe518f56	-0.20464835
213	0x3dbe4e91	0.09292329
214	0x3daff399	0.085913844
215	0xbe6406d1	-0.22268225
216	0xbda114a1	-0.07865263
217	0xbe623594	-0.22090751
218	0x3e485c64	0.19566494
219	0xbed282df	-0.41115472
220	0xbec44f9c	-0.38341987
221	0x3ec51589	0.38492993
222	0xbe63e3cc	-0.22254866
223	0xbe65c3c3	-0.22437958
224	0xbe1368d8	-0.14395463
225	0x3e4cfba3	0.20017867
226	0xbe36c7a7	-0.17849599
227	0x3d80389c	0.062607974
228	0x3ea021ea	0.31275874
229	0xbeafece6	-0.34360427
230	0xbc961b43	-0.018323546
231	0xbe89c921	-0.26911262
232	0x3e962596	0.2932555
233	0x3e3f1d1b	0.18663447
234	0xbeeb239d	-0.45925608
235	0xbd3e8d46	-0.046521448
236	0xbd00b2ea	-0.031420626
237	0xbe0d3ab7	-0.13791929
238	0xbe2a86f2	-0.1665304
239	0xbd7f1644	-0.062277094
240	0x3d5c266e	0.053747587
241	0xbed7d506	-0.4215471
242	0xbeb4852f	-0.3525786
243	0xbf0d6d4b	-0.5524489
244	0x3df37f3f	0.11889505
245	0xbdd1a56d	-0.102366306
246	0x3ebe7a24	0.3720256
247	0xbdd0f8ce	-0.10203706
248	0xbe823908	-0.25434136
249	0xbb59abf9	-0.0033214076
250	0x3e820842	0.25396925
251	0x3e2f2bc6	0.17106542
252	0xbe63be61	-0.22240593
253	0xbe8c86ec	-0.27446687
254	0x3e338d13	0.17534284
255	0x3e9dfc18	0.30856395

while/MatMul f4 [512, 9]
0	0x3e0e2a55	0.13883336
1	0x3d832e13	0.06405272
2	0x3dacc676	0.08436291
3	0xbd2c98d8	-0.04213795
4	0x3de4e5be	0.11176632
5	0x3e0d16c3	0.13778214
6	0x3d76a6db	0.06021772
7	0x3b9ad68b	0.0047252825
8	0x3e6f3dc2	0.23363402
9	0x3e6d8e8e	0.23198912
10	0x3e8e9dad	0.27854672
11	0x3e317d61	0.17332985
12	0x3ecad521	0.3961573
13	0x3e61aae8	0.22037852
14	0x3ece7048	0.4032004
15	0x3ea08761	0.31353286
16	0x3eb3e6c2	0.35136992
17	0x3e496ae3	0.1966968
18	0xbdfbc4ba	-0.12293382
19	0xbd1bb4bc	-0.03801416
20	0xbcb74167	-0.022370053
21	0xbda62a20	-0.081135035
22	0xbbdc4eae	-0.0067232465
23	0xbe09760e	-0.1342394
24	0xbe941d59	-0.2892864
25	0xbe080108	-0.13281643
26	0xbd85684d	-0.065140344
27	0xbe151666	-0.14559326
28	0xbd54062a	-0.05176369
29	0x3c9fdf4e	0.01951566
30	0xbd8fb999	-0.07017822
31	0xbdac9117	-0.08426111
32	0xbe0efee4	-0.1396442
33	0xbe90da8e	-0.28291744
34	0xbce2d748	-0.027690545
35	0xbe3d6d16	-0.18498644
36	0x3e139055	0.14410527
37	0x3e95ba69	0.29243782
38	0x3e9c9954	0.3058573
39	0x3eb80d5f	0.359477
40	0x3e6e97cf	0.23300098
41	0x3dfa6c34	0.12227669
42	0x3d99e7e0	0.0751493
43	0x3e33999c	0.17539066
44	0x3ec9864a	0.39360267
45	0xbd95a533	-0.073069
46	0xbdbdd902	-0.092699066
47	0x3dfa4be2	0.12221505
48	0xbd9fa5f3	-0.07795324
49	0xbd60442e	-0.05475252
50	0x3cb91ae4	0.02259583
51	0x3df3b410	0.118995786
52	0x3e37827c	0.1792087
53	0xbce6b288	-0.028161302
54	0xbe10ba10	-0.14133477
55	0xbe077ad1	-0.13230444
56	0xbe30a1eb	-0.17249267
57	0x3da018dc	0.078172415
58	0xbe830995	-0.25593248
59	0xbe2157e4	-0.15756184
60	0xbe9270a2	-0.28601557
61	0x3dd469a3	0.10371711
62	0xbd5c047b	-0.05371521
63	0xbc734fa3	-0.01485053
64	0x3e256424	0.16151482
65	0x3e094d8e	0.13408491
66	0x3d8d9b9f	0.06914448
67	0x3e2d9f8a	0.1695539
68	0x3e3134cd	0.17305298
69	0x3da0bc93	0.07848468
70	0x3d87d7ca	0.06632955
71	0x3eabe35c	0.335719
72	0xbdedfe07	-0.116207175
73	0xbd5245b7	-0.051336017
74	0xbcb943b1	-0.022615286
75	0x3dd3a4e9	0.103341885
76	0xbd3c94ee	-0.046040468
77	0xbc4c4350	-0.01246722
78	0x3dba8acf	0.09108507
79	0x3d19f5a2	0.03758777
80	0x3d200044	0.039062753
81	0x3ea6fa39	0.3261278
82	0x3ed4bc16	0.41549748
83	0x3d60f623	0.054922234
84	0x3dbfcc04	0.09365085
85	0x3ea118bc	0.31464183
86	0x3e6c8010	0.23095727
87	0x3e45fab4	0.19333917
88	0x3e910988	0.28327584
89	0x3ea03ca0	0.31296253
90	0x3e8a053d	0.26957121
91	0x3ec1b26b	0.37831435
92	0x3e881906	0.2658159
93	0x3de320e7	0.1109026
94	0x3ea20cd5	0.31650415
95	0x3ebb0cf1	0.3653331
96	0x3eca8742	0.3955632
97	0x3e24a851	0.16079833
98	0x3e2b5ff2	0.16735819
99	0xbcbe36dd	-0.02321952
100	0xbd1c6922	-0.0381862
101	0xbd317d82	-0.043332584
102	0xbcc4aeb8	-0.024009094
103	0x3cf06afe	0.029347893
104	0xbcc13759	-0.023585962
105	0xbe718e32	-0.235894
106	0xbe06e356	-0.1317266
107	0xbe42296a	-0.1896111
108	0xbd7fc9b3	-0.062448215
109	0xbc5e3eab	-0.013564746
110	0xbd0b09f7	-0.03394505
111	0xbe08e2b8	-0.13367736
112	0xbd2b64fa	-0.041844346
113	0xbc718de7	-0.014743305
114	0xbd02ed01	-0.031964306
115	0x3c230874	0.009950746
116	0xbd917225	-0.071018495
117	0x3e2c0f15	0.16802628
118	0x3e4086c1	0.18801405
119	0x3e546330	0.20740962
120	0x3e83f8e8	0.25775838
121	0x3e664671	0.22487809
122	0x3e1b99b5	0.15195353
123	0xbd0426d8	-0.032263607
124	0x3e61d9cb	0.22055738
125	0x3ebe573a	0.37175924
126	0xbd835120	-0.06411958
127	0xbd4f3b4d	-0.050593663
128	0xbd676b0a	-0.056498565
129	0xbe4c1b13	-0.19932203
130	0xbe0ab6dc	-0.13546318
131	0xbdef6bea	-0.11690505
132	0xbdba92a4	-0.09110001
133	0xbe58899e	-0.21146247
134	0xbc0525c5	-0.008126681
135	0x3d84b63d	0.06480072
136	0x3e38fba6	0.18064746
137	0xbca5bf72	-0.02023289
138	0x3de5ad1f	0.11214661
139	0x3b7f1983	0.0038925118
140	0xbb8e7ebc	-0.004348604
141	0x3ef770fc	0.48328388
142	0x3e79de4b	0.24401204
143	0xbd88d564	-0.06681326
144	0xbe224e8a	-0.15850273
145	0xbd82a721	-0.063795336
146	0x3e081a48	0.13291276
147	0x3e119d74	0.1422022
148	0x3d19586d	0.037437845
149	0xbd7634ea	-0.060109057
150	0x3cd64cee	0.02615973
151	0xbcc698c4	-0.024242766
152	0x3e42e61e	0.19033095
153	0xbdcc6c97	-0.09981649
154	0x3d5c5ba4	0.053798333
155	0xbc95b3fb	-0.018274298
156	0x3c2bdcf0	0.010489687
157	0x3dc7678f	0.09736549
158	0xbdce0460	-0.10059428
159	0xbd5e6521	-0.054295663
160	0xbdd29f4c	-0.1028429
161	0xbcee99fe	-0.029126164
162	0x3baf98d4	0.0053587947
163	0xbd86a296	-0.065739796
164	0xbd533f31	-0.051573936
165	0x3d2a6baa	0.041606583
166	0x3dee66e8	0.116407216
167	0x3dac2d81	0.08407117
168	0xbe403b75	-0.18772681
169	0xbdd3311f	-0.103121035
170	0xbe574d3e	-0.2102556
171	0x3ea1a081	0.31567767
172	0x3eb6993e	0.3566379
173	0x3e1de7c9	0.1542045
174	0x3e8404c1	0.25784877
175	0x3e34b7d4	0.1764825
176	0x3e24002f	0.16015695
177	0x3e6e8782	0.2329388
178	0x3eac83d9	0.33694342
179	0x3dc2a16c	0.09503445
180	0x3e8b9d85	0.27268615
181	0x3ea22ce0	0.31674862
182	0x3e025fe9	0.127319
183	0x3e93ae34	0.28843844
184	0x3dfbad1b	0.122888766
185	0x3e0b576c	0.13607568
186	0x3d6fb608	0.058523208
187	0x3e9127b0	0.28350592
188	0x3ec4a6ad	0.38408414
189	0xbd05ecb0	-0.032696426
190	0x3d0bda0b	0.03414349
191	0x3d9c645f	0.07636332
192	0xbe1901cc	-0.14942092
193	0xbd76c287	-0.06024411
194	0x3c46db55	0.012137254
195	0x3c64e139	0.013969713
196	0xbdcd3659	-0.100201316
197	0x3d51002a	0.051025547
198	0xbe6282a1	-0.22120143
199	0xbd37898c	-0.04480891
200	0x3d8e2e36	0.06942408
201	0x3cfc5b34	0.030805208
202	0xbe2e6c20	-0.17033434
203	0xbe37554c	-0.17903632
204	0xbebc3a90	-0.3676343
205	0xbce09140	-0.02741301
206	0x3d532f75	0.05155893
207	0xbd937af2	-0.07201184
208	0xbdf45781	-0.119307525
209	0xbe534dcc	-0.20635146
210	0xbced8c1e	-0.028997477
211	0xbe07d223	-0.13263755
212	0xbdfde427	-0.12397032
213	0xbdf73ce7	-0.12072163
214	0xbdf0ce49	-0.11758096
215	0xbdbfec52	-0.093712464
216	0x3dd7938c	0.10526189
217	0x3b55f332	0.0032646176
218	0x3ce134ab	0.027490934
219	0x3d2b343c	0.04179786
220	0x3d8e35a3	0.06943824
221	0x3dd905b0	0.10596788
222	0xbd267b07	-0.04064467
223	0xbc242822	-0.010019334
224	0x3e6afe23	0.22948508
225	0x3d80ca9e	0.06288646
226	0x3de2dc93	0.110772274
227	0xbb827e73	-0.003982359
228	0x3c69660c	0.014245521
229	0xbd005504	-0.031331077
230	0x3dd0fa8f	0.1020404
231	0xbe35ba49	-0.17746843
232	0x3d5cdfd2	0.05392439
233	0xbc878053	-0.016540682
234	0xbdec7550	-0.11545813
235	0xbe7365b6	-0.23769268
236	0xbddfe1ab	-0.109317146
237	0xbdd1dd7f	-0.10247325
238	0xbdd0122b	-0.10159715
239	0xbe64833f	-0.22315691
240	0xbe3d273c	-0.18471998
241	0xbe2f6727	-0.17129193
242	0xbe2ade6d	-0.16686411
243	0x3e10378f	0.14083694
244	0x3d70c8a3	0.058785092
245	0xbd3124ef	-0.043248113
246	0x3d48eac0	0.049052
247	0x3d5c9e98	0.053862184
248	0x3b3fe480	0.0029280484
249	0x3e0356dc	0.12826103
250	0xbc4a7518	-0.012357019
251	0x3da6c8f2	0.08143796
252	0xbddaa147	-0.106752925
253	0xbe3cb2a1	-0.18427517
254	0xbda082e6	-0.07837467
255	0x3da05f9e	0.078307375
