app/src/main/assets/model/weather_forecast_model.tflite (tflite, 152680 bytes, 10 tensors)

sequential_1/dense_3/BiasAdd/ReadVariableOp f4 [5]
0	0xbe55fc42	-0.2089701
1	0x3d9675f7	0.07346719
2	0xbe98e4f7	-0.29862186
3	0x3d948fef	0.07254016
4	0xbdad88bb	-0.08473345

sequential_1/dense_2/BiasAdd/ReadVariableOp f4 [25]
0	0x3e536f89	0.20648016
1	0xbd6af8b1	-0.057366077
2	0x3e016a29	0.12638153
3	0x3d839b6d	0.064261295
4	0x3d27d70b	0.040976565
5	0x3c02830f	0.007965817
6	0xb99db536	-0.00030080386
7	0x3ca547d0	0.020175844
8	0xbd486a51	-0.048929516
9	0x3ca49b96	0.02009372
10	0x3da0e682	0.07856466
11	0xbda4bf2a	-0.08044274
12	0xbcc88ea2	-0.024482075
13	0xbe0d1c52	-0.13780335
14	0x3e1a8d34	0.15092927
15	0x3dac4a81	0.08412648
16	0x3dd09d12	0.10186209
17	0xbd4c270b	-0.04984192
18	0xbd75d51b	-0.060017686
19	0xbc779faf	-0.015113755
20	0xbd038635	-0.03211041
21	0xbcfdcf47	-0.030982627
22	0xbd2e570f	-0.042563494
23	0xbd32a3a5	-0.043613095
24	0xbdb09b83	-0.086234115

sequential_1/dense_2/MatMul f4 [25, 50]
0	0xbe2ec17e	-0.17065999
1	0xbe3a37f3	-0.18185405
2	0xbc898fd4	-0.016792215
3	0xbd32db0c	-0.04366593
4	0xbd890018	-0.06689471
5	0x3e8aa415	0.2707831
6	0x3e12c21a	0.14331856
7	0xbece42ea	-0.40285426
8	0x3d160f3f	0.036635634
9	0xbcf1aa8e	-0.029500272
10	0xbe2e06e6	-0.16994819
11	0x3f17eb66	0.59343565
12	0x3c21897f	0.009859442
13	0x3e8ab612	0.27092034
14	0x3e900b82	0.2813378
15	0x3dab4ee5	0.08364657
16	0x3e021bee	0.12705967
17	0x3e8a9e36	0.2707383
18	0xbe22b45a	-0.15889111
19	0x3d51ad2d	0.051190544
20	0x3d86ab35	0.06575624
21	0xbe0dae5a	-0.13836041
22	0x3ed634a2	0.4183703
23	0x3e2aa2e1	0.16663696
24	0xbe08f0d4	-0.13373119
25	0x3ed991c1	0.42494014
26	0xbdade6fb	-0.08491322
27	0xbde32f51	-0.11093009
28	0xbd1aabed	-0.037761617
29	0x3ee7a733	0.4524475
30	0xbcdccce3	-0.026953166
31	0x3e107878	0.14108455
32	0x3e15cb3b	0.14628308
33	0x3bdbb0ba	0.006704417
34	0x3e8477fd	0.25872794
35	0xbdfa6938	-0.122271
36	0x3c7f2e92	0.015575068
37	0xbe064b1f	-0.13114594
38	0xbe38bd0d	-0.18040867
39	0x3eb077ba	0.34466344
40	0x3e2ae241	0.16687872
41	0x3e8094ed	0.2511362
42	0x3ef49155	0.4776713
43	0xbe368d66	-0.17827377
44	0x3e90fbe9	0.28317192
45	0x3e810af8	0.2520368
46	0xbe31da65	-0.17368467
47	0x3e3d7211	0.18500544
48	0x3e58c27d	0.21167941
49	0x3e91445c	0.28372467
50	0xbdd14d80	-0.1021986
51	0x3d8e9620	0.06962228
52	0x3dc765f0	0.0973624
53	0x3d648500	0.0557909
54	0xbde11935	-0.10991136
55	0x3d76e241	0.060274366
56	0xbe13aa51	-0.1442044
57	0xbe34a68d	-0.17641659
58	0xbe5ca1ac	-0.21546048
59	0xbe717e8f	-0.23583435
60	0xbd630497	-0.0554243
61	0xbda10b6f	-0.07863509
62	0xbe392814	-0.18081695
63	0xbe3ee66e	-0.1864259
64	0xbe243e3c	-0.16039366
65	0x3e720e36	0.23638234
66	0xbe81444f	-0.25247428
67	0x3e22d70e	0.1590235
68	0xbe2c4391	-0.1682265
69	0x3cc15474	0.02359984
70	0xbe682c10	-0.22673059
71	0xbda3acda	-0.07991953
72	0xbe9765a6	-0.2956974
73	0xbd6225c5	-0.0552118
74	0xbacc320a	-0.0015578878
75	0x3b358564	0.0027697915
76	0x3e6917a9	0.22762932
77	0xbe84e3d2	-0.25955063
78	0x3dedbf64	0.116087705
79	0xbd14d9e7	-0.03634062
80	0xbddef6f8	-0.10886949
81	0xbd95d2e4	-0.07315615
82	0xbd3cbc8d	-0.046078254
83	0x3d335237	0.043779578
84	0xbd461c62	-0.04836691
85	0x3d87b18e	0.06625663
86	0x3b3cbd60	0.00287994
87	0x3c5d62db	0.0135123385
88	0x3dae560c	0.08512506
89	0xbdba33a4	-0.09091881
90	0xbe198ee4	-0.14995915
91	0xbe5fa32d	-0.2183959
92	0xbe27fa18	-0.16403997
93	0xbe1975bf	-0.14986323
94	0x3db2c72c	0.08729395
95	0x3c2e6f40	0.010646641
96	0x3e3fb62a	0.18721834
97	0x3dfaa063	0.122376226
98	0x3e7e93e5	0.24861105
99	0xbe6a2621	-0.22866108
100	0xbdc67446	-0.09690146
101	0xbd8495b7	-0.06473868
102	0x3e4cd323	0.20002417
103	0x3e56dfae	0.20983765
104	0x3ce54ea1	0.027991595
105	0xbdc8867a	-0.09791274
106	0xbe012a7d	-0.12613864
107	0xbe950cc5	-0.29111305
108	0x3ea1df62	0.3161574
109	0xbdcca49b	-0.099923335
110	0xbe20eeca	-0.15716091
111	0xbe400952	-0.18753555
112	0xbe63afe6	-0.22235069
113	0x3ea50a9f	0.32234666
114	0xbdf59cfe	-0.119928345
115	0xbe63519b	-0.22199099
116	0xbe5ed9cb	-0.21762769
117	0x3dc43745	0.09580854
118	0xbd142b89	-0.03617433
119	0x3ddcad28	0.107752144
120	0x3ebd39fd	0.36958304
121	0x3e7f06ea	0.24904981
122	0xbe9c7366	-0.30556792
123	0x3e4a3706	0.19747552
124	0x3dcc6596	0.099803135
125	0xbe980aa6	-0.29695624
126	0xbe1870d0	-0.14886785
127	0xbe6bfb27	-0.23045026
128	0x3e9c7199	0.30555418
129	0x3dad2d47	0.084559016
130	0xbdf9bd35	-0.121942915
131	0x3ddcb779	0.10777182
132	0x3cad0ee9	0.021125274
133	0x3e3dbe93	0.1852973
134	0x3e8a2d19	0.26987532
135	0x3e5eeadf	0.21769284
136	0xbe9284c9	-0.28616932
137	0x3e57ecdb	0.21086447
138	0xbe9d8801	-0.30767825
139	0x3eab0baa	0.33407336
140	0x3e3eb3ef	0.18623327
141	0x3e465c6a	0.1937119
142	0x3ebeda36	0.37275857
143	0x3c77ff12	0.015136497
144	0xbe9a27d4	-0.3010851
145	0x3e9cc18e	0.3061642
146	0xbd94a0c3	-0.07257225
147	0xbdf7277e	-0.120680794
148	0x3dcf3aed	0.10118661
149	0xbd259929	-0.040429268
150	0xbdbf3ac0	-0.093373775
151	0x3e2cf593	0.16890554
152	0x3d9dad6a	0.07699092
153	0xbdbe85c2	-0.09302856
154	0x3dc70d45	0.09719328
155	0x3e0f114d	0.13971443
156	0x3e9e1f72	0.30883366
157	0x3e028076	0.12744316
158	0x3f116a99	0.5680328
159	0x3e06370e	0.13106939
160	0x3d5db6e1	0.054129485
161	0xbe8c845f	-0.2744474
162	0xbdc3059f	-0.095225565
163	0xbd138cb3	-0.036022853
164	0x3dab0195	0.08349911
165	0x3da86143	0.08221676
166	0xbe130613	-0.14357786
167	0x3e918a78	0.28425956
168	0xbe522ee4	-0.205257
169	0xbc61e928	-0.013788499
170	0xbe06979b	-0.1314377
171	0xbd801223	-0.06253459
172	0xbe648163	-0.22314982
173	0x3e44f846	0.19235334
174	0x3e7cca68	0.24686587
175	0xbdd852a7	-0.1056264
176	0x3e8ec3de	0.2788381
177	0x3dd635c5	0.104594745
178	0x3e8e388a	0.2777751
179	0xbcfec3bd	-0.031099195
180	0xbe803531	-0.25040582
181	0x3edefceb	0.43552336
182	0x3e045a68	0.12925112
183	0x3e515a1f	0.20444535
184	0x3d58e2cd	0.05295067
185	0x3e98b722	0.2982722
186	0xbe893b99	-0.26803282
187	0x3e83ae12	0.25718743
188	0xbe7113c9	-0.23542704
189	0x3dd91908	0.106004775
190	0xbe94c89c	-0.29059303
191	0xbd371def	-0.04470628
192	0x3d6caabd	0.057780016
193	0x3e8b5080	0.27209854
194	0x3e3973b8	0.1811055
195	0x3dc58f19	0.09646434
196	0x3e788f69	0.24273457
197	0x3d5fda51	0.054651562
198	0x3e1835b6	0.14864239
199	0xbe01dd50	-0.1268208
200	0xbca0db89	-0.019635933
201	0xbd8777b1	-0.06614626
202	0xbe3e93f8	-0.18611133
203	0xbe671076	-0.22564873
204	0x3d0ae70a	0.033911742
205	0x3df54f1a	0.11977978
206	0x3d724ccf	0.05915528
207	0xbe1d86ab	-0.15383403
208	0x3e408688	0.1880132
209	0xbe720620	-0.23635149
210	0xbe50f705	-0.2040673
211	0xbdb25d90	-0.08709252
212	0xbda038a2	-0.07823302
213	0x3ec3581c	0.3815316
214	0xbe1412a1	-0.14460231
215	0xbe4d6617	-0.20058475
216	0xbc8f291f	-0.017475663
217	0x3e455e1f	0.19274186
218	0x3e18736c	0.1488778
219	0xbd667825	-0.056266923
220	0xbe74dd87	-0.23912631
221	0xbbbf31d5	-0.005834798
222	0xbd5e83a1	-0.05432475
223	0xbe2e034a	-0.16993442
224	0x3e39f49b	0.18159716
225	0x3db1b8f1	0.08677853
226	0xbdbe8f28	-0.09304649
227	0x3dcd81da	0.10034533
228	0x3ebf3b56	0.37349957
229	0x3e959a58	0.29219317
230	0xbcb13390	-0.021631032
231	0xbe5836e7	-0.21114694
232	0xbe5a93bb	-0.21345417
233	0x3e760804	0.24026495
234	0x3e197cd0	0.14989018
235	0x3dc55750	0.09635794
236	0x3e9da2b0	0.30788183
237	0xbde1d3c0	-0.11026716
238	0x3e5314f5	0.20613463
239	0xbe72b9c3	-0.23703675
240	0x3d0fb9fd	0.03508948
241	0xbc84de4d	-0.016219283
242	0x3e0af1e7	0.13568841
243	0xbce24ef5	-0.02762554
244	0xbdf74c14	-0.120750576
245	0x3bffdc88	0.007808272
246	0xbe26ed84	-0.16301543
247	0xbea5e345	-0.32399955
248	0xbd789904	-0.060692802
249	0x3dec853f	0.11548852
250	0xbed3fc21	-0.41403297
251	0x3e155804	0.14584357
252	0x3cfd1de8	0.03089805
253	0x3e86eec8	0.2635405
254	0x3e24a738	0.16079414
255	0x3e855c29	0.26046875

sequential_1/dense_3/MatMul f4 [5, 25]
0	0xbef9bf9f	-0.48779008
1	0x3e0e930e	0.13923284
2	0x3d7d9cfd	0.061917294
3	0x3e19423b	0.14966671
4	0xbe2cea7c	-0.16886324
5	0x3ec8ab83	0.39193353
6	0xbec07ad5	-0.37593713
7	0x3e3630d7	0.17792068
8	0x3e046e98	0.12932813
9	0x3eb922bf	0.36159322
10	0xbea8ad19	-0.32944563
11	0x3e06fa16	0.13181338
12	0x3d5f7abc	0.054560408
13	0xbe015d4e	-0.12633249
14	0xbf579147	-0.8420605
15	0xbd9f1d80	-0.077692986
16	0x3e3eb4eb	0.18623702
17	0xbec1c64e	-0.37846607
18	0xbeb78fdd	-0.35851946
19	0xbfda6da6	-1.7064712
20	0xbd69e480	-0.05710268
21	0x3dd87aeb	0.1057032
22	0x3dc32dc2	0.09530212
23	0x3cb1b326	0.02169187
24	0xbea56589	-0.32304028
25	0xb9cbdeb3	-0.000388851
26	0xbd979924	-0.07402256
27	0x3efc7c88	0.4931376
28	0x3e861f5c	0.261958
29	0x3f022ad8	0.50846624
30	0xbe52ac31	-0.20573498
31	0xbc1a2d0d	-0.009410155
32	0xbd7f4228	-0.06231895
33	0xbd1c2de6	-0.03812971
34	0x3dcde34b	0.10053118
35	0x3ed4205c	0.41430938
36	0xbe9df5fc	-0.30851734
37	0x3e61d611	0.22054316
38	0xbe90087d	-0.28131476
39	0xbd97ce12	-0.07412352
40	0x3e0addb6	0.13561139
41	0x3d9d8813	0.0769197
42	0xbea7ad92	-0.3274961
43	0xbe593712	-0.21212414
44	0xbe5222e1	-0.20521118
45	0xbaeba206	-0.0017977364
46	0xbe9a842d	-0.30178967
47	0xbe89d1ca	-0.2691787
48	0xbea5a738	-0.3235414
49	0x3df456d2	0.11930622
50	0xbeec8cbc	-0.46201122
51	0xbf6134e8	-0.87971354
52	0x3dd85aac	0.10564169
53	0xbf41c6c0	-0.75693893
54	0x3e930371	0.28713563
55	0x3ddd4356	0.10803859
56	0xbefdbef2	-0.49559742
57	0xbe40ea02	-0.18839267
58	0xbe16ffb1	-0.14745976
59	0xbd4a018a	-0.049317874
60	0xbecf0cbc	-0.40439403
61	0xbedcd937	-0.43134472
62	0x3e37426f	0.17896436
63	0xbf3617ab	-0.71129864
64	0x3c93398c	0.017971776
65	0xbfd82704	-1.6886907
66	0xbf5b87e2	-0.85754216
67	0x3e71d910	0.23617959
68	0xbe96389e	-0.2934007
69	0xbfd6db5f	-1.6785697
70	0xbe16f687	-0.1474248
71	0x3ea36302	0.31911474
72	0xbcb9987f	-0.022655724
73	0x3ec69de6	0.38792342
74	0xbf6292f4	-0.8850548
75	0x3dab58f3	0.08366575
76	0xbec9ff0c	-0.39452398
77	0x3eb968b1	0.36212686
78	0x3d25b60b	0.040456813
79	0xbd4c79b2	-0.049920745
80	0x3d717604	0.05895044
81	0xbee1cb2b	-0.44100317
82	0xbeaf323e	-0.3421802
83	0x3e8bc149	0.27295902
84	0xbedefafe	-0.43550867
85	0xbcb6c5d3	-0.022311127
86	0x3ed34777	0.4126546
87	0x3e774708	0.2414819
88	0x3e12dd82	0.14342311
89	0x3ed43c82	0.41452414
90	0xbbe6d76f	-0.0070447247
91	0xbe9bc547	-0.30423948
92	0x3c8dccd3	0.017309582
93	0xbe9c2fa1	-0.30505088
94	0xbe318f71	-0.17339875
95	0x3dec25ff	0.11530685
96	0xbe9d1fd6	-0.3068835
97	0xbea10d79	-0.3145559
98	0xbeba7392	-0.36416298
99	0x3e7cb550	0.2467854
100	0xbdc66d0b	-0.09688767
101	0xbded586b	-0.1158913
102	0x3e7c3947	0.24631225
103	0xbd243745	-0.04009177
104	0x3dcd50e3	0.100251935
105	0xbf10dea5	-0.5658973
106	0x3d40049d	0.0468794
107	0x3e52dbce	0.20591661
108	0xbf0d950b	-0.55305547
109	0x3d235720	0.03987801
110	0x3e39b4ac	0.18135327
111	0xbe4cee2e	-0.20012733
112	0x3ded68a0	0.11592221
113	0xbe0de73e	-0.13857743
114	0xbe9df10c	-0.30847967
115	0x3ef15a53	0.47139224
116	0xbeb41b7b	-0.35177216
117	0x3e2ba104	0.16760641
118	0xbe128a88	-0.14310658
119	0x3b72f4b8	0.0037072133
120	0x3e884997	0.26618645
121	0x3e18a5c3	0.14906983
122	0xbe48d4ed	-0.19612475
123	0x3dea3c55	0.11437289
124	0x3d392d8d	0.045209456

sequential_1/lstm_2/while/lstm_cell_8/BiasAdd/ReadVariableOp f4 [200]
0	0xbdc9992e	-0.0984367
1	0x3eadb7bd	0.33929244
2	0xbd1e9e49	-0.03872517
3	0xbd3cbd84	-0.046079174
4	0x3e7d6616	0.24745974
5	0x3dbcceae	0.092191085
6	0xbc9ca2d4	-0.019120611
7	0x3dcc3112	0.09970297
8	0x3d1464c4	0.03622891
9	0xbd3e833f	-0.046511885
10	0x3e1fb1bf	0.15595149
11	0xbcaf1c25	-0.021375725
12	0x3c1bc191	0.009506599
13	0x3d18d7a6	0.037315033
14	0x3d9ce4ca	0.076608256
15	0x3e02b9fd	0.12766261
16	0x3d3abeda	0.045592166
17	0xbcf2faa7	-0.029660536
18	0x3df47828	0.119369805
19	0x3e70472e	0.23464653
20	0x3d0af984	0.033929363
21	0x3e1ac1f9	0.15113057
22	0x3dcb26c7	0.099195056
23	0x3eab2d71	0.33433107
24	0xbcb45e6c	-0.02201768
25	0xbd3f5ee0	-0.04672134
26	0x3da1d2bd	0.07901523
27	0xbd406862	-0.046974547
28	0x3e0e3ef6	0.13891205
29	0x00000000	0.0
30	0xbd39be24	-0.045347348
31	0xbc8f549e	-0.017496403
32	0x3e1032db	0.140819
33	0x3ce0fed4	0.027465262
34	0x3e2948b3	0.16531639
35	0xbdbba3d8	-0.0916211
36	0x3c92a39f	0.017900286
37	0x3d1b7a85	0.03795864
38	0x3ecd7c3e	0.40133852
39	0xba7fd4f9	-0.00097592134
40	0x3bf5fa90	0.007506676
41	0x3de439d6	0.11143844
42	0x3ad7196e	0.0016410777
43	0xbb64c47f	-0.003490716
44	0xbb9bbb17	-0.0047525275
45	0xbd0969ee	-0.033548288
46	0x3e145596	0.14485773
47	0x3d862eea	0.06551917
48	0xbcdffc80	-0.027342081
49	0xbd4d5f20	-0.050139546
50	0x3f6993fa	0.9124142
51	0x3f9257ef	1.1433085
52	0x3f82b3d5	1.021113
53	0x3f719caa	0.94379675
54	0x3f8dd2cd	1.1079956
55	0x3f76a406	0.9634403
56	0x3f7fae51	0.9987536
57	0x3f88cd42	1.068764
58	0x3f89cc9e	1.0765569
59	0x3f78adda	0.97140276
60	0x3f9098e1	1.1296655
61	0x3f874859	1.0568954
62	0x3f888744	1.066628
63	0x3f87f128	1.062047
64	0x3f8091d4	1.0044503
65	0x3f859eaa	1.0439045
66	0x3f7a2ae8	0.9772172
67	0x3f7b78d8	0.9823127
68	0x3f831766	1.0241516
69	0x3f8f1692	1.1178763
70	0x3f8201d6	1.015681
71	0x3f94de0a	1.1630261
72	0x3f818710	1.0119343
73	0x3f9eb656	1.2399395
74	0x3f82e054	1.022471
75	0x3f70c0af	0.9404401
76	0x3f8d22cc	1.1026244
77	0x3f75132a	0.9573237
78	0x3f87b7ed	1.0603005
79	0x3f800000	1.0
80	0x3f812f47	1.0092553
81	0x3f7c11e9	0.9846483
82	0x3f805bc7	1.0028008
83	0x3f82e678	1.0226583
84	0x3f8cd95e	1.1003835
85	0x3f720eb4	0.94553685
86	0x3f7948f3	0.97376937
87	0x3f8640cf	1.0488528
88	0x3f837d33	1.0272583
89	0x3f860fb3	1.0473541
90	0x3f86a016	1.0517604
91	0x3f9598e7	1.1687287
92	0x3f9270b1	1.1440641
93	0x3f8a8c25	1.0824019
94	0x3f805317	1.0025357
95	0x3f7951d5	0.9739049
96	0x3f7fa603	0.9986269
97	0x3f87774f	1.0583285
98	0x3f7ab92f	0.9793882
99	0x3f740a1c	0.95327926
100	0xbcd31be0	-0.025770128
101	0xb9dddafc	-0.0004231556
102	0xbdaa6c0c	-0.083213896
103	0xbca6bd2e	-0.02035388
104	0x3d8b61ce	0.06805764
105	0xbce0f23e	-0.02745926
106	0xbd2bb5c5	-0.041921396
107	0x3be6e02d	0.007045767
108	0xbb12997f	-0.0022369323
109	0xbd89aa19	-0.06721897
110	0x3cbcdd4f	0.023054747
111	0xbcc6e4e6	-0.02427907
112	0xbbf101ae	-0.0073549366
113	0xbc75cb25	-0.015002047
114	0xbc61cb20	-0.013781339
115	0xbbb6e68f	-0.005581684
116	0xbcaea84b	-0.021320483
117	0xbd796e70	-0.060896337
118	0xbd76afdc	-0.060226306
119	0x3d8751f3	0.066074274
120	0xbccf22d8	-0.02528517
121	0x3d7e10c4	0.062027708
122	0x3cfb0cf5	0.030645827
123	0x3d8e04df	0.06934523
124	0xbcb9323e	-0.022606965
125	0xbd5c874c	-0.053839967
126	0x3c6fd599	0.014638328
127	0xbd0e9e7b	-0.034819108
128	0xbcaaa89c	-0.020832352
129	0x00000000	0.0
130	0x3c465c2d	0.012106937
131	0xbcd0afb5	-0.025474409
132	0xbc2e4109	-0.010635623
133	0xbbd02590	-0.006352134
134	0x3c42b6c0	0.011884391
135	0xbd2deeee	-0.04246419
136	0xbd94bb27	-0.07262259
137	0xbd168d15	-0.03675564
138	0x3dab6f92	0.0837089
139	0xbccb0521	-0.02478272
140	0xbc2c9e59	-0.0105358
141	0x3cf41220	0.029793799
142	0xbcbb55bd	-0.022868032
143	0x3c5ba996	0.013407132
144	0xbd6a521c	-0.05720721
145	0xbd4122ca	-0.047152318
146	0x3d58a16e	0.052888326
147	0xbd1c7f05	-0.038207073
148	0xbd01452f	-0.03156012
149	0xbd6db673	-0.058035325
150	0xbdae319e	-0.085055575
151	0x3dfd90aa	0.12381108
152	0xbd55ad91	-0.05216748
153	0xbd376759	-0.044776294
154	0x3e60940d	0.21931477
155	0x3d330b7c	0.043712124
156	0xbca5cc1d	-0.02023893
157	0x3de9254c	0.11384067
158	0x3d29b6c3	0.04143406
159	0xbd3cee02	-0.04612542
160	0x3d327c2c	0.04357545
161	0xb5583760	-8.054685e-07
162	0x3cab6b35	0.020925144
163	0x3d93e057	0.07220524
164	0x3c4f1ffb	0.012641902
165	0x3dcba37d	0.09943292
166	0x3d81147e	0.06302737
167	0xbcc6e9db	-0.024281433
168	0x3dddec38	0.10836071
169	0x3d8dd1c4	0.06924775
170	0x3cf73a1b	0.030179074
171	0x3e127e8a	0.14306083
172	0xbc44f0e5	-0.012020324
173	0x3e0b0c3e	0.13578889
174	0xbcb6a314	-0.022294559
175	0xbd5333ac	-0.05156295
176	0x3dbc99b3	0.09209003
177	0xbd28e413	-0.041233134
178	0x3e27f9fb	0.16403954
179	0x00000000	0.0
180	0xbd69766d	-0.056997705
181	0xbc9645d0	-0.018343836
182	0x3dac9c96	0.08428304
183	0x3d261168	0.040543944
184	0x3d53f82c	0.051750347
185	0xbdc30994	-0.09523311
186	0x3ccfcb5e	0.025365528
187	0x3c8bc2c3	0.017060643
188	0x3e7ea277	0.24866663
189	0xbc1c870b	-0.009553681
190	0xbc4290fe	-0.011875389
191	0x3d813545	0.063089885
192	0xbc4b1532	-0.01239519
193	0xbc567fd4	-0.013092
194	0xbcd7962c	-0.026316725
195	0xbce69766	-0.028148364
196	0x3de19113	0.11013999
197	0x3dbe2828	0.09285003
198	0xbcdd2ecf	-0.02699986
199	0xbd5fae3c	-0.054609522

sequential_1/lstm_2/while/lstm_cell_8/MatMul_11 f4 [200, 50]
0	0xbdfc2527	-0.12311774
1	0xbdcb0ad0	-0.09914172
2	0xbc227595	-0.009915729
3	0x3e1ff3b3	0.15620308
4	0x3dc36aad	0.09541831
5	0x3d01dbe6	0.031703852
6	0xbe047318	-0.1293453
7	0xbc8f5a37	-0.017499072
8	0xbbda2539	-0.0066572693
9	0xbc8b670e	-0.017016914
10	0xbd05d4e8	-0.032673746
11	0xbceab190	-0.028649122
12	0xbc12dcf2	-0.00896381
13	0xbcc612bf	-0.02417886
14	0x3d8662b8	0.06561798
15	0xbdc9c180	-0.0985136
16	0x3d7a8a4f	0.061167058
17	0xbd9074d7	-0.070535354
18	0x3dae6838	0.08515972
19	0xbd2d723c	-0.04234527
20	0x3df51280	0.11966419
21	0xb9cd33da	-0.0003913928
22	0xbdb876bf	-0.09007024
23	0x3e1da128	0.15393507
24	0xbd724519	-0.059147928
25	0xbaa957ce	-0.0012919845
26	0xbd5e5f74	-0.05429025
27	0xbd187858	-0.037224144
28	0xbd1f5d55	-0.038907368
29	0xbe2e816e	-0.17041561
30	0xbd434c3f	-0.047680136
31	0x3db3a321	0.08771349
32	0xbcf42b13	-0.029805696
33	0x3db4a238	0.08820003
34	0xbdecbffc	-0.115600556
35	0xbc698bbb	-0.014254506
36	0xbde593eb	-0.11209854
37	0xbdb4fa2e	-0.088367805
38	0x3c6aeb43	0.014338317
39	0xbdca0d14	-0.09865776
40	0x3d7dda8d	0.061976004
41	0x3d6f858e	0.058476977
42	0xbda876b6	-0.08225767
43	0xbe821ce2	-0.2541266
44	0x3dbe2c18	0.09285754
45	0x3db7fc55	0.089836754
46	0x3d86a070	0.0657357
47	0xbe21037e	-0.15723988
48	0xbd495106	-0.049149536
49	0xbd22300c	-0.039596602
50	0x3cb57e33	0.022154903
51	0x3e112638	0.14174736
52	0x3e34a1c8	0.1763984
53	0x3daad5ec	0.083415836
54	0x3ead3dce	0.33836216
55	0x3e756f22	0.23968175
56	0x3d45a512	0.048253126
57	0x3eb36086	0.3503458
58	0x3e92263c	0.28544796
59	0xbd0fa26b	-0.035067003
60	0x3d09bc2c	0.03362672
61	0x3e91fff7	0.28515598
62	0x3dd3441d	0.10315726
63	0x3ea697a7	0.32537577
64	0x3e66cbfc	0.22538751
65	0x3eb70cad	0.35751858
66	0x3e3ad7e2	0.18246415
67	0x3e110ee1	0.14165832
68	0x3de9c00a	0.11413582
69	0x3ee4ad8a	0.4466365
70	0xbdcd6e7b	-0.10030838
71	0x3f002345	0.5005382
72	0x3e18f44f	0.14936946
73	0x3eaf3b60	0.34224987
74	0x3de9eaca	0.114217356
75	0xbddcfc35	-0.10790292
76	0x3e17ead7	0.14835678
77	0x3dc506a7	0.096204095
78	0x3ea5cd29	0.32383087
79	0xbd6efa50	-0.058344185
80	0x3d8cc6aa	0.0687383
81	0x3d89e3f3	0.06732931
82	0x3e2b0fc8	0.16705239
83	0x3e877afe	0.26461023
84	0x3e4546f5	0.19265349
85	0xbe27d10c	-0.16388339
86	0x3ee9db49	0.45675114
87	0xbc957dc2	-0.018248443
88	0x3ed09853	0.40741214
89	0x3e3b84a9	0.18312325
90	0x3cdcb3da	0.026941229
91	0x3e4bc036	0.19897541
92	0x3e988abf	0.29793355
93	0x3e8490b8	0.25891662
94	0x3eb3a96a	0.3509019
95	0xbd3b094d	-0.045663167
96	0x3e8c5015	0.27404848
97	0x3e8314e8	0.25601888
98	0xbd41c485	-0.047306556
99	0x3dd70048	0.104981005
100	0x3e18833b	0.1489381
101	0xbddee41f	-0.108833544
102	0x3dbbe6c4	0.091748744
103	0x3dbe395d	0.09288285
104	0xbe07a465	-0.13246305
105	0xbd223b5c	-0.03960739
106	0x3c9b162e	0.018931475
107	0xbcc35936	-0.02384625
108	0x3de08ca6	0.109643266
109	0x3d708b09	0.058726344
110	0xbe287dde	-0.16454265
111	0xbdaa7aaf	-0.08324181
112	0xbdc8801f	-0.09790062
113	0x3d42799d	0.04747926
114	0xbce6afb9	-0.028159963
115	0xbe49f2a0	-0.1972146
116	0x3de90eaa	0.1137975
117	0xbc733cf5	-0.014846076
118	0x3e0a705f	0.13519429
119	0x3d9c1ee8	0.076230824
120	0xbd63601f	-0.05551159
121	0xbd47a253	-0.04873879
122	0x3a042e48	0.0005042297
123	0x3de18f1e	0.110136256
124	0x3d56707e	0.052353375
125	0x3bdd096b	0.0067455075
126	0xbd9ab914	-0.07554832
127	0x3d94bc19	0.07262439
128	0x3c0b98ae	0.008520288
129	0x3e038386	0.12843141
130	0xbd8969d8	-0.06709641
131	0xba5e53a0	-0.0008481089
132	0xbdeeabe9	-0.11653883
133	0xbc9c9599	-0.019114302
134	0x3e171e8e	0.1475775
135	0xbda855eb	-0.082195126
136	0xbcaf855b	-0.021425894
137	0xbdd3e5d2	-0.10346569
138	0xbd931ffc	-0.07183835
139	0x3dd4d1d2	0.103915825
140	0x3d6a4c0b	0.057201426
141	0xbdf69809	-0.12040717
142	0x3d215a9a	0.039393045
143	0xbd1c2c80	-0.038128376
144	0x3d74dbdb	0.059779983
145	0x3ddd2ab0	0.107991576
146	0x3d664af3	0.05622382
147	0xbd918ca9	-0.07106907
148	0xbd5f37c8	-0.054496557
149	0xbd44a591	-0.04800946
150	0x3d469c07	0.048488643
151	0xbdc8f615	-0.098125614
152	0x3b7bcc66	0.0038421392
153	0xbdb7c912	-0.08973898
154	0xbddc4c1c	-0.10756704
155	0x3b9ed119	0.0048467037
156	0xbd153da7	-0.03643575
157	0x3e1877e2	0.14889482
158	0x3c98b152	0.01863924
159	0xbbd63e4b	-0.0065381876
160	0xbe06f179	-0.13178052
161	0xbe7082ef	-0.23487447
162	0xbdb34fba	-0.08755441
163	0xbe090b97	-0.13383327
164	0x3c3bad29	0.011454859
165	0x3e0b3e5a	0.13598004
166	0xbd4c9a38	-0.049951762
167	0xbde43e49	-0.111446925
168	0xbd31347f	-0.043262955
169	0xbd634368	-0.055484205
170	0xbdae4585	-0.085093535
171	0x3d3b36f0	0.04570669
172	0xbdb851a9	-0.089999504
173	0x3dd35e5a	0.103207305
174	0x3d2b5374	0.041827634
175	0x3b8449db	0.0040371246
176	0xbdaf7631	-0.08567465
177	0x3db96743	0.09052899
178	0x3e15b216	0.14618716
179	0x3dceafb0	0.100921035
180	0xbde94197	-0.113894634
181	0x3c95c405	0.018281946
182	0xbe218bb1	-0.15775944
183	0xbe06c83c	-0.13162321
184	0xbdf2293e	-0.118242726
185	0x3c0db9ad	0.008650226
186	0x3d64fb6a	0.05590383
187	0xbd8c4d31	-0.068506606
188	0x3dd98371	0.106207736
189	0x3d632d27	0.055462983
190	0xbd870d35	-0.06594316
191	0x3ddf5042	0.1090398
192	0x3be2a1a9	0.006916244
193	0xbd83866b	-0.064221226
194	0x3c0a3a18	0.008436702
195	0x3d9ffec9	0.07812268
196	0xbda9c074	-0.08288661
197	0x3ba7bd66	0.0051190136
198	0x3d656932	0.056008525
199	0x3d8e0f7d	0.06936548
200	0x3e644743	0.22292809
201	0x3ebac338	0.36477065
202	0x3d82387f	0.06358432
203	0x3d3133f1	0.043262426
204	0x3ca41f6a	0.02003451
205	0x3eab44e3	0.33450994
206	0x3d6bccd8	0.0575684
207	0x3d8e3735	0.06944124
208	0x3e1a3851	0.15060546
209	0x3e1340ec	0.14380234
210	0x3e2a8e3c	0.1665582
211	0x3e9e1c65	0.30881038
212	0x3cbb274c	0.022845887
213	0x3c1b969b	0.009496356
214	0x3e7cb37e	0.24677846
215	0x3d15506c	0.03645365
216	0x3c9b89d8	0.018986627
217	0x3dd843c9	0.10559804
218	0x3ee4bb0b	0.44673952
219	0x3e13e90d	0.1444437
220	0xbcb524ad	-0.022112215
221	0x3eb2cac8	0.34920335
222	0x3d944da3	0.072413705
223	0x3eb181e9	0.34669426
224	0x3e0509c8	0.12992013
225	0x3d40c911	0.047066752
226	0x3d9e827a	0.0773973
227	0x3db3022b	0.08740648
228	0x3d2e7ad9	0.042597625
229	0x3d274612	0.04083831
230	0xbe02bf8a	-0.12768379
231	0xbd058605	-0.032598514
232	0xbe239c7b	-0.15977661
233	0xbd37980a	-0.04482273
234	0x3de591bb	0.112094365
235	0x3a9bca4d	0.0011885852
236	0x3d2cb956	0.042168938
237	0xbc103e75	-0.008803953
238	0x3c8f45eb	0.017489394
239	0x3db6db57	0.089285545
240	0x3e061f9d	0.13097997
241	0x3def33c9	0.11679799
242	0x3e0a0285	0.13477524
243	0xbcfa5c22	-0.03056151
244	0x3d2bbe2f	0.04192942
245	0x3ccecd74	0.025244452
246	0xbd6ec1fd	-0.05829047
247	0x3e474a5f	0.19461964
248	0x3cbf0e17	0.023322148
249	0x3d71c53b	0.059025984
250	0x3e1acb7d	0.15116687
251	0x3e21d8b9	0.1580533
252	0x3d1016c8	0.035177976
253	0x3c1e243b	0.009652193
254	0xbd828bb1	-0.063743
255	0x3da53a9c	0.080678195

sequential_1/lstm_2/while/lstm_cell_8/MatMul f4 [200, 9]
0	0x3bc3dcbd	0.005977242
1	0xbdf0ed34	-0.11763993
2	0xbdf67cd4	-0.12035528
3	0xbd7889c9	-0.060678277
4	0xbe2457b9	-0.16049089
5	0x3d8669c3	0.06563141
6	0xbe0f4182	-0.13989833
7	0x3dcd64de	0.100290045
8	0x3df814fd	0.12113378
9	0x3f0cddf6	0.55026186
10	0x3f0efc88	0.5585408
11	0x3e044ecc	0.12920684
12	0x3ea45bce	0.3210129
13	0x3e83eca3	0.25766477
14	0x3ef1f134	0.47254336
15	0x3e4212d1	0.1895249
16	0x3e4ef5bf	0.20210932
17	0x3ecb9010	0.39758348
18	0x3de1ddd3	0.11028638
19	0xbd187493	-0.03722055
20	0xbc5c63ad	-0.013451499
21	0x3db3c7cb	0.08778342
22	0x3e035333	0.12824707
23	0xbe0a5647	-0.13509475
24	0x3dff06ef	0.12452494
25	0x3d17f98a	0.037103213
26	0x3d610de5	0.05494489
27	0xbbbc4d4f	-0.0057465206
28	0xbdc93c2c	-0.0982593
29	0xbe228147	-0.15869628
30	0xbbe3ccb8	-0.0069518946
31	0x3ced5ac4	0.028973944
32	0xbe03be99	-0.12865676
33	0xbe2d4c16	-0.16923556
34	0xbe033aae	-0.12815353
35	0xbcee993f	-0.029125808
36	0x3d9f03d8	0.07764405
37	0x3e4b44e1	0.19850494
38	0x3e8ef5d0	0.27921915
39	0x3ddc034c	0.10742816
40	0x3d815609	0.06315238
41	0x3e9a1b06	0.30098742
42	0x3ea762e1	0.32692626
43	0xbddeab0a	-0.10872467
44	0x3e4bf021	0.1991582
45	0x3dfa9176	0.12234776
46	0x3d62f5a3	0.05541004
47	0xbe815529	-0.25260285
48	0xbcfef1d2	-0.031121168
49	0x3e342049	0.17590441
50	0x3df00cc1	0.117211826
51	0x3eb5451e	0.35404295
52	0xbe924871	-0.28570893
53	0x3f4176b1	0.75571734
54	0x3e220383	0.15821652
55	0xbdd27dfd	-0.102779366
56	0x3e14120e	0.14460012
57	0xbd824be0	-0.06362128
58	0x3ca94440	0.020662427
59	0xbe047aa5	-0.1293741
60	0x3c92ebc9	0.017934697
61	0xbdac92d5	-0.084264435
62	0x3de838ca	0.11338957
63	0x3e347c49	0.17625536
64	0x3c965966	0.018353175
65	0x3e92c8da	0.28668863
66	0x3da47ffc	0.080322236
67	0x3e3ba3cb	0.18324201
68	0x3e91626c	0.28395402
69	0x3e90f528	0.2831204
70	0x3cde8313	0.02716211
71	0x3e33ee4c	0.17571372
72	0x3df47869	0.11937029
73	0x3da53145	0.08066038
74	0xbe1a4b8d	-0.15067883
75	0x3dcb825b	0.09936973
76	0x3e2f400c	0.17114276
77	0xbdd549e4	-0.10414484
78	0xbda56645	-0.08076147
79	0x3e069896	0.13144144
80	0x3cf180c1	0.02948034
81	0xbe2732cc	-0.16327971
82	0xbe3e5908	-0.1858865
83	0x3da79720	0.08183122
84	0xbd95612d	-0.072939254
85	0xbd8b618b	-0.06805714
86	0x3d03aeca	0.032149114
87	0xbe47f752	-0.19527939
88	0xbe520cb1	-0.20512654
89	0xbe0cb2ab	-0.13740031
90	0x3e539a2f	0.20664285
91	0x3dda8a47	0.106709056
92	0x3e63af48	0.22234833
93	0x3cdd6f60	0.027030647
94	0x3ec680f3	0.38770255
95	0x3e6d5417	0.23176609
96	0x3cc928b3	0.02455554
97	0xbe7dcc21	-0.247849
98	0x3e82f31f	0.25576112
99	0x3e0ad845	0.13559063
100	0xbd839c5a	-0.06426306
101	0x3dc47766	0.09593086
102	0xbe328d3c	-0.17436689
103	0xbe0f6644	-0.14003855
104	0xbe13bb60	-0.14426947
105	0xbf03cc8c	-0.5148399
106	0xbe55a9db	-0.20865576
107	0xbdbc23b4	-0.09186497
108	0x3cf6b2da	0.03011458
109	0x3dc0fecf	0.09423601
110	0xbdbd2fb7	-0.092376165
111	0xbdba517a	-0.09097572
112	0x3c64d9d0	0.013967946
113	0xbdcd2f69	-0.100188084
114	0x3e845652	0.25847107
115	0x3d2ee5b2	0.042699523
116	0xbcc98953	-0.024601614
117	0x3d071388	0.03297761
118	0xbd1f409b	-0.038879972
119	0x3e5d39cc	0.21604079
120	0xbdd842c1	-0.10559607
121	0xbe5f5f94	-0.21813804
122	0x3c9095ce	0.017649557
123	0xbd8c8e6b	-0.068631016
124	0x3d965f9c	0.07342455
125	0x3dbb7b86	0.091544196
126	0x3e33b0e2	0.17547944
127	0x3dfdbe88	0.123898566
128	0xbda6c1b3	-0.08142414
129	0xbdaef283	-0.08542349
130	0x3e796e88	0.2435857
131	0x3e7a954f	0.24471019
132	0xbe4e9ab1	-0.20176198
133	0x3e30ac9d	0.17253347
134	0xbd0f8c43	-0.035045873
135	0x3e675903	0.22592549
136	0x3bcc808e	0.006240911
137	0x3ebcbc69	0.36862496
138	0x3cfd2157	0.030899687
139	0x3e8e7daf	0.27830264
140	0xba84d67e	-0.0010134724
141	0x3f289679	0.65854603
142	0xbdb71eb5	-0.08941404
143	0x3e058de4	0.13042408
144	0x3d89cda2	0.067286745
145	0xbd3d4e20	-0.046217084
146	0x3e366a68	0.17814028
147	0xbe93ee0e	-0.2889256
148	0xbcbc55f0	-0.022990197
149	0x3d15506c	0.03645365
150	0xbdb0c843	-0.08631947
151	0xbd91ffdf	-0.07128882
152	0x3d544941	0.051827673
153	0xbd0f659a	-0.035009004
154	0x3e1d2086	0.15344438
155	0xbd35b2c2	-0.04435993
156	0x3d8f7fa4	0.070067674
157	0xbe30b417	-0.17256199
158	0x3b93ff8a	0.0045165466
159	0x3db2234c	0.086981386
160	0xbe64080b	-0.22268693
161	0x3e79daf1	0.24399926
162	0x3e2b7424	0.16743523
163	0x3e36ecd7	0.17863785
164	0x3e34ed65	0.17668684
165	0x3e2ef9d4	0.1708749
166	0x3e8182d3	0.25295123
167	0x3e412d15	0.18864854
168	0xbe081239	-0.13288201
169	0xbd058247	-0.032594945
170	0x3e9310e9	0.2872384
171	0x3e7e843c	0.24855131
172	0x3e961422	0.29312235
173	0xbdac5468	-0.08414537
174	0x3dd5e2ad	0.104436256
175	0x3e341483	0.1758595
176	0x3d82a5dc	0.063792914
177	0x3db04221	0.08606363
178	0x3dc329e6	0.09529476
179	0xbe090408	-0.13380444
180	0x3d6278aa	0.055290855
181	0x3e36fc2b	0.17869632
182	0xbc7caf14	-0.015422601
183	0x3d9055e1	0.0704763
184	0x3dd81045	0.10549978
185	0x3e172009	0.14758314
186	0xbddfcd20	-0.10927796
187	0xbd46169c	-0.048361406
188	0x3dd6392b	0.10460123
189	0x3e54ac67	0.20768891
190	0x3d05449c	0.032536134
191	0x3e35dd9d	0.1776032
192	0x3e288ef3	0.16460781
193	0xbe0e38f7	-0.13888918
194	0x3e6d02cc	0.23145598
195	0x3ecb5df7	0.39720127
196	0x3e224e05	0.15850075
197	0xbd64c336	-0.05585023
198	0x3d971b47	0.073782496
199	0x3da3a71e	0.079908594
200	0xbdcc5ec6	-0.09979014
201	0x3df17472	0.11789788
202	0xbdd47a65	-0.103749074
203	0x3cf7a06f	0.030227868
204	0x3f6561ba	0.89602244
205	0xbc5c1245	-0.01343209
206	0xbe3148fe	-0.17313
207	0xbdea85a3	-0.114512704
208	0x3cf72eb1	0.030173631
209	0x3ed14df6	0.40879792
210	0x3e820873	0.2539707
211	0xbc920142	-0.017822865
212	0x3e6cb12d	0.23114462
213	0x3f50afbf	0.8151817
214	0x3df3f141	0.1191125
215	0x3e1d0dc3	0.15337281
216	0x3b8bd589	0.0042673987
217	0xbd4d96f1	-0.050192777
218	0xbe38a16c	-0.18030328
219	0x3ddd5986	0.10808091
220	0xbddc9bd9	-0.10771913
221	0x3d6d5619	0.057943437
222	0xbe3792c0	-0.17927074
223	0xbdc6a41b	-0.096992694
224	0x3df6c251	0.12048782
225	0xbe211987	-0.15732394
226	0x3ce77dbe	0.0282582
227	0xbd8209d9	-0.063495345
228	0x3de662c3	0.11249306
229	0xbe5edcbe	-0.21763894
230	0xbc3d6957	-0.0115607595
231	0xbe08cefe	-0.13360211
232	0xbdf696ec	-0.12040505
233	0xbe410985	-0.18851288
234	0xbd6a0816	-0.057136618
235	0x3e2b55ab	0.16731898
236	0x3dfce838	0.1234898
237	0x3d8350af	0.064118735
238	0x3d8d780a	0.06907661
239	0x3c13f10f	0.009029641
240	0xbcd216b2	-0.025645588
241	0xbde6d2ee	-0.112707004
242	0xbd665a15	-0.056238253
243	0x3d933a2e	0.07188831
244	0xbcbc5a7c	-0.022992365
245	0xbe207957	-0.15671287
246	0xbdcd5a64	-0.10027006
247	0xbc10c9e6	-0.008837199
248	0xbe454375	-0.19264014
249	0xbe380893	-0.17972021
250	0xbd61c496	-0.05511912
251	0xbe1b4e9c	-0.15166706
252	0xbda60768	-0.081068814
253	0xbcef2f20	-0.029197276
254	0x3cf69c9a	0.03010397
255	0x3e6d4e69	0.23174442

sequential_1/lstm_3/while/lstm_cell_9/BiasAdd/ReadVariableOp f4 [200]
0	0x3dcc8aba	0.099873975
1	0xbd027e5e	-0.031858794
2	0xbd71ab86	-0.059001468
3	0xbc53ae69	-0.012920001
4	0xbca54b14	-0.020177402
5	0x3db1293f	0.08650445
6	0x3a60ce72	0.00085756846
7	0xbcd5b574	-0.0260875
8	0x3dc9d9f6	0.09856026
9	0xbd327509	-0.043568645
10	0xbd562fab	-0.052291553
11	0x3ddff833	0.10936012
12	0xbc8de841	-0.017322661
13	0x3e237e2a	0.15966097
14	0xbc53c7c3	-0.012926045
15	0xbd3894cf	-0.04506379
16	0x3d996a35	0.074909605
17	0x3d40db7e	0.047084324
18	0x3d277c2f	0.040889915
19	0x3cd9a5a0	0.026568234
20	0x3ddceecb	0.10787734
21	0x3ca74a55	0.020421186
22	0x3dcd2302	0.10016443
23	0xbd9f5b3d	-0.07781074
24	0x3c5c06b2	0.013429331
25	0x3d64ea87	0.055887725
26	0xbd03a0c4	-0.03213574
27	0xbb9f92be	-0.004869788
28	0x3a14617c	0.0005660278
29	0x3e01ce39	0.12676324
30	0xbcc10f15	-0.023566762
31	0xbd133809	-0.03594211
32	0x3c857543	0.016291266
33	0xbc261269	-0.010136225
34	0x3d628da5	0.055310864
35	0xbb6957ed	-0.0035605386
36	0xbd89f35e	-0.06735872
37	0xbccb1bfd	-0.02479362
38	0xbd14ede2	-0.036359675
39	0x3d87ba10	0.066272855
40	0xbd7d373c	-0.061820254
41	0x3c6e790a	0.014555225
42	0x3d659ab4	0.05605574
43	0xbd4acf0a	-0.049513854
44	0xbd6c8b4e	-0.05775004
45	0xbd0cbde7	-0.034360792
46	0xb98467ee	-0.00025254436
47	0x3e4374d0	0.19087529
48	0x3dad27eb	0.084548794
49	0xbd994483	-0.07483771
50	0x3f8ec654	1.1154275
51	0x3f7aa48c	0.9790733
52	0x3f767c8d	0.962838
53	0x3f7c5c2a	0.9857813
54	0x3f76433f	0.9619636
55	0x3f947a5f	1.1599845
56	0x3f646e1a	0.892305
57	0x3f7f238c	0.99663615
58	0x3f807f5a	1.0038865
59	0x3f7851c0	0.9699974
60	0x3f757241	0.9587746
61	0x3f8c91be	1.0981977
62	0x3f73a328	0.9517083
63	0x3f8febc8	1.124383
64	0x3f7cb7f7	0.9871821
65	0x3f7f0f37	0.9963259
66	0x3f8b8130	1.08988
67	0x3f8a1115	1.0786463
68	0x3f8a31ae	1.0796411
69	0x3f86962d	1.051458
70	0x3f876fe2	1.0581019
71	0x3f750a91	0.9571925
72	0x3f83c7af	1.0295314
73	0x3f74b961	0.95595366
74	0x3f7c4695	0.985452
75	0x3f87c3ba	1.0606606
76	0x3f77bae0	0.96769524
77	0x3f7e0afa	0.992355
78	0x3f7bb042	0.98315823
79	0x3f854766	1.0412414
80	0x3f7c0049	0.98437935
81	0x3f633536	0.8875307
82	0x3f7d6737	0.9898562
83	0x3f74d98c	0.9564445
84	0x3f88ce06	1.0687873
85	0x3f81e6c4	1.0148549
86	0x3f6c89c2	0.923977
87	0x3f83bd0e	1.029207
88	0x3f81533e	1.0103528
89	0x3f8f3574	1.1188188
90	0x3f755c30	0.9584379
91	0x3f7c01ce	0.98440254
92	0x3f8c9f95	1.09862
93	0x3f83cc44	1.0296712
94	0x3f75729f	0.9587802
95	0x3f810462	1.0079463
96	0x3f7d7312	0.9900371
97	0x3f98c304	1.1934514
98	0x3f7c71af	0.9861097
99	0x3f6d867e	0.92783344
100	0x3d8774f5	0.06614105
101	0xbce09543	-0.027414924
102	0x3b84c504	0.0040518064
103	0xbcfe7d23	-0.03106553
104	0xbd84b314	-0.06479469
105	0x3ddc54e9	0.10758383
106	0x3a494c48	0.00076789083
107	0x3cd75003	0.02628327
108	0xbd60c355	-0.054873783
109	0xbd5785e3	-0.05261792
110	0xbd9f603b	-0.077820264
111	0x3de36a85	0.11104301
112	0xbd830f30	-0.06399381
113	0x3e03326d	0.12812205
114	0xbc23341f	-0.009961157
115	0xbd541057	-0.051773395
116	0x3c1f26ac	0.00971381
117	0x3c16aed6	0.009196958
118	0x3d096ae8	0.03354922
119	0xbbfd16f0	-0.0077236816
120	0x3cd3e025	0.025863716
121	0xbd2e976b	-0.042624872
122	0xbd3b646f	-0.045750078
123	0xbd7f5081	-0.062332634
124	0x3c5d5101	0.013508082
125	0xbcb32d6f	-0.02187225
126	0xbd922f27	-0.071379
127	0xbc7b3c37	-0.015334181
128	0xbc759df1	-0.014991269
129	0x3d9eacdd	0.07747815
130	0xbd838d90	-0.06423485
131	0xbdd6bc96	-0.10485189
132	0xbbda6a27	-0.0066654864
133	0xbd33a273	-0.043856096
134	0x3cbd8db3	0.023138857
135	0xbd0d118b	-0.03444056
136	0xbdb998f4	-0.090623766
137	0xbdb89bda	-0.09014101
138	0xbd47c88b	-0.048775237
139	0x3d035f0a	0.03207306
140	0xbdb2abbc	-0.08724162
141	0x3c9ebfea	0.019378621
142	0x3c8fc06f	0.017547814
143	0xbdab93cc	-0.083777994
144	0xbd27a1f7	-0.040925946
145	0xbd78b67c	-0.060720906
146	0xbd340c63	-0.043957125
147	0x3cea06e0	0.028567731
148	0x3d6c9a8c	0.057764575
149	0xbd33b6b3	-0.043875407
150	0x3d11c190	0.035584986
151	0xbcfe5bd5	-0.031049648
152	0xbd76d848	-0.060264856
153	0xbca8c789	-0.020602958
154	0xbcdb8cd5	-0.026800552
155	0x3d3370b7	0.043808665
156	0xbd2a735c	-0.04161392
157	0xbd0e740f	-0.03477865
158	0x3e331c20	0.17491198
159	0xbd1d1cf8	-0.038357705
160	0xbd64f3b2	-0.05589647
161	0x3d91a19b	0.07110902
162	0xbc4f89fd	-0.012667176
163	0x3d289ba6	0.041164063
164	0xbc65706e	-0.014003856
165	0xbcf6a632	-0.030108545
166	0x3d8a7e65	0.06762389
167	0xbd925db1	-0.071467765
168	0xbb146b3a	-0.002264692
169	0x3ac03dbf	0.0014666839
170	0x3e039ed4	0.12853557
171	0xbb006f4a	-0.0019597583
172	0x3d05654a	0.0325673
173	0xbd2f9b2d	-0.042872597
174	0xba7ecd70	-0.00097199436
175	0x3d4f28e1	0.050576095
176	0xbd177943	-0.03698088
177	0xbba0608d	-0.0048943223
178	0xbcc0f20a	-0.023552913
179	0x3d822a5c	0.06355736
180	0xbcef3eed	-0.02920481
181	0xbd64122f	-0.055681404
182	0x3c24ff27	0.010070599
183	0xbc96aee0	-0.018393934
184	0xbe13631f	-0.1439328
185	0x3baf4748	0.0053490736
186	0xbd853ebf	-0.065061085
187	0xbd17b0c1	-0.0370338
188	0x3da900c0	0.08252096
189	0xb9d25d97	-0.0004012405
190	0xbd828b39	-0.06374211
191	0x3c6036a5	0.013684903
192	0x3c3b6a77	0.011438957
193	0xbcd8af2e	-0.02645072
194	0xbd667075	-0.05625959
195	0xbd023b2c	-0.031794712
196	0x3b8fe278	0.004391011
197	0x3dc6d9b4	0.09709492
198	0x3cf5afa1	0.029990973
199	0xbd96e751	-0.07368339

sequential_1/lstm_3/while/lstm_cell_9/MatMul_11 f4 [200, 50]
0	0xbdadd064	-0.08487013
1	0x3ce9c88f	0.028538017
2	0xbcc3ea5b	-0.02391546
3	0x3c887886	0.016659033
4	0xbd243e73	-0.04009862
5	0xbdcbbc1d	-0.09947989
6	0xbdaf3505	-0.085550345
7	0x3e29de25	0.16588648
8	0x3e2d25c4	0.16908938
9	0xbe3691a0	-0.17828989
10	0xbcabd259	-0.020974325
11	0xbc8bbe42	-0.017058495
12	0x3b931461	0.0044885133
13	0xbe36dcaa	-0.17857614
14	0x3d3b12b7	0.045672145
15	0x3df6eac3	0.12056496
16	0xbd454fb0	-0.0481717
17	0xbd990fb0	-0.07473695
18	0xbddf2b51	-0.10896934
19	0xbdc7f3fa	-0.09763332
20	0xbccf9aa4	-0.025342293
21	0x3ddfec7e	0.10933779
22	0xbe2a2478	-0.16615474
23	0xbe297570	-0.16548705
24	0xbddba1b1	-0.107241996
25	0xbdc111d5	-0.09427229
26	0xbbc40c0b	-0.005982881
27	0xbd790a87	-0.060801055
28	0xbd8fde03	-0.07024767
29	0xbe3b1dd0	-0.18273091
30	0x3da3c556	0.07996623
31	0x3d1226a8	0.035681397
32	0xbb9754d2	-0.0046182657
33	0x3dc92636	0.09821741
34	0xbd8e4236	-0.069462225
35	0x3d0814cb	0.033222955
36	0xbd2344ec	-0.03986065
37	0x3dc58bbb	0.09645792
38	0xbcfadaa3	-0.030621832
39	0xbd3e7e3d	-0.04650711
40	0xbdaf4ff0	-0.08560169
41	0x3d52bac3	0.05144764
42	0xbde7dae0	-0.11321044
43	0x3cfb6b00	0.03069067
44	0x3d6670a6	0.056259774
45	0x3c57d30e	0.013172878
46	0xbd02f719	-0.031973932
47	0x3de7c1d3	0.11316266
48	0xbdd1da78	-0.10246748
49	0xbde0beba	-0.10973878
50	0x3ac49dfe	0.0015000699
51	0x3da16b70	0.0788182
52	0xb9a392bf	-0.00031199117
53	0x3d4935d6	0.049123608
54	0xbb9e6006	-0.004833224
55	0x3d2a150a	0.04152397
56	0xbd2c50fb	-0.042069416
57	0xbd996761	-0.07490421
58	0x3c3864a1	0.011254461
59	0x3cc2b772	0.023769114
60	0xbd2dfb47	-0.042475965
61	0xbdd91729	-0.106001206
62	0x3d673b2a	0.056452908
63	0xbdb4a90b	-0.08821305
64	0x3c76b6ed	0.015058261
65	0xbd314dbe	-0.04328703
66	0x3b2d7a10	0.002647046
67	0xbd574907	-0.05255988
68	0x3d31853b	0.04333995
69	0xbd12d1c9	-0.035844598
70	0xbb7b947d	-0.0038388066
71	0xbd0e0b98	-0.034679025
72	0xbca36af3	-0.019948458
73	0xbd938d26	-0.07204656
74	0xbe3ec44c	-0.18629569
75	0xbdcd0cef	-0.100122325
76	0xbd4bd05f	-0.049759265
77	0x3d8feea1	0.07027937
78	0xbd1be37d	-0.038058747
79	0x3d1e3003	0.038620006
80	0xbd12bfc2	-0.035827406
81	0xbc91541e	-0.017740306
82	0x3d2eaeeb	0.042647284
83	0xbe2d16f3	-0.16903286
84	0xbc322ca2	-0.010874899
85	0xbdddb278	-0.10825056
86	0xbe0693a2	-0.13142255
87	0xbd571c93	-0.052517485
88	0xbd3213d1	-0.04347593
89	0xbd89f5a5	-0.06736306
90	0x3e200923	0.15628485
91	0xbbde7aac	-0.006789526
92	0x3c4a6a05	0.012354379
93	0x3da83582	0.08213331
94	0x3db74527	0.08948737
95	0xbcb170ea	-0.021660287
96	0xbd142147	-0.03616455
97	0x3e02a18e	0.1275694
98	0x3c7e697a	0.015528077
99	0x3c826dbe	0.01592147
100	0xbcea988a	-0.02863719
101	0xbca664a4	-0.020311661
102	0x3cdcb55f	0.026941953
103	0xbc4db6f3	-0.0125558255
104	0x3d968459	0.07349462
105	0xbc928b2c	-0.017888628
106	0x3e0786fd	0.13235088
107	0xbdaa3af2	-0.08312024
108	0xbd51a9a0	-0.051187158
109	0xbe1253f8	-0.14289844
110	0x3ccd921d	0.025094086
111	0xbe2494d3	-0.16072397
112	0xbde3e3f1	-0.11127461
113	0xbe23e585	-0.16005524
114	0xbc1dbb29	-0.009627142
115	0xbab0b621	-0.0013482013
116	0xbdc7dd8a	-0.09759052
117	0xbaa3c5de	-0.0012494882
118	0x3d11eb48	0.035624772
119	0xbd4b20dd	-0.049591888
120	0x3b5feda6	0.003416875
121	0xbe200df2	-0.1563032
122	0xbcacf731	-0.021113964
123	0xbd76965e	-0.060201995
124	0x3daf452b	0.085581146
125	0xbd5e301f	-0.05424511
126	0xbcaaeae9	-0.020863967
127	0x3d6f1b66	0.05837574
128	0xbd2db1dc	-0.042405948
129	0xbd397daf	-0.045285877
130	0x3c1db5d0	0.009625867
131	0x3dade902	0.08491708
132	0x3d633b2e	0.05547636
133	0x3cfc60e2	0.030807916
134	0x3daff062	0.08590771
135	0x3d3082ab	0.043093365
136	0xbd41a665	-0.047277827
137	0xbe15c3da	-0.14625493
138	0x3dcb79bb	0.099353276
139	0xbd5bb532	-0.0536396
140	0xbd6fddf0	-0.058561265
141	0x3c63a8e6	0.013895249
142	0xbd60a2ac	-0.054842636
143	0xbd68a72a	-0.056800045
144	0xbd2c811c	-0.042115316
145	0x3d8ef3ed	0.06980119
146	0xbc685867	-0.014181233
147	0x3cd1cba2	0.025609795
148	0x3d7ee8b7	0.062233653
149	0x3c86432d	0.016389454
150	0xbdcdbedd	-0.1004617
151	0x3d72bccb	0.05926208
152	0xbc4e11ec	-0.012577515
153	0x3c049e50	0.008094385
154	0xbd9a03e6	-0.07520275
155	0x3d2511fc	0.040300354
156	0xbc394703	-0.011308434
157	0xbe1d6b9e	-0.15373084
158	0xbd915f9d	-0.07098315
159	0xbdb62775	-0.088942446
160	0x3ccd2b2a	0.025044996
161	0x3b950bcf	0.004548527
162	0x3d9829e0	0.07429862
163	0x3d4e3988	0.050347835
164	0x3e0493cd	0.12947007
165	0x3b0616d4	0.0020460384
166	0xbd2239bb	-0.039605837
167	0xbc8d9cc2	-0.017286662
168	0xbce987ff	-0.02850723
169	0xbcc90d67	-0.024542524
170	0xbd1a9f3d	-0.037749518
171	0x3dfefa5d	0.12450097
172	0xbc4080cd	-0.0117494585
173	0xbe6f246b	-0.23353736
174	0xbd11598c	-0.03548579
175	0xbdd0e444	-0.10199788
176	0xbb4ae93e	-0.0030961777
177	0xbc870de2	-0.016486112
178	0x3c06a3be	0.00821775
179	0x3904d7c6	0.00012668883
180	0xbd812a3b	-0.06306883
181	0x3caeb322	0.021325652
182	0x3d0c9bfa	0.03432844
183	0x3d62aba5	0.055339474
184	0xbd9f35ed	-0.077739574
185	0x3db46d98	0.08809966
186	0x3c33a9db	0.01096579
187	0xbd453527	-0.048146393
188	0xbd8e2fa3	-0.0694268
189	0xbde33584	-0.11094192
190	0xbb8958c1	-0.0041914885
191	0x3d9f1fc2	0.07769729
192	0xbd4792cf	-0.048723992
193	0x3dc5faf9	0.0966701
194	0x3ca32cf2	0.019918893
195	0xbddc7882	-0.107651725
196	0xbd02988e	-0.03188377
197	0xbda54871	-0.08070458
198	0xbc88befc	-0.016692631
199	0x3d12f150	0.035874665
200	0xbe244205	-0.1604081
201	0xbd30bdf7	-0.043149915
202	0x3cae00de	0.021240648
203	0x3d34a5ea	0.04410354
204	0xbe3ed9b5	-0.18637736
205	0xbd066965	-0.032815356
206	0x3e3a9827	0.18222104
207	0x3c85cd96	0.016333383
208	0x3d2fd9d2	0.04293234
209	0x3d3c507c	0.045975193
210	0x3c3ff69a	0.011716509
211	0xbdd7496d	-0.10512052
212	0xbd443e8a	-0.047911204
213	0xbd0a036d	-0.033694673
214	0xbdae0a4d	-0.084980585
215	0xbd3f9a5a	-0.04677806
216	0xbd7cdd96	-0.06173476
217	0xbc667a90	-0.014067307
218	0x3dac4c41	0.08412982
219	0xbdd2cacc	-0.10292587
220	0x3e01948b	0.12654321
221	0xbcbe3ef0	-0.02322337
222	0x3c03ebb1	0.008051799
223	0x3c2a7519	0.010403895
224	0x388ad1a2	6.6194e-05
225	0xbb14aa82	-0.0022684638
226	0x3d6b5f0e	0.057463698
227	0x3dabf800	0.083969116
228	0xbd017d0a	-0.031613387
229	0x3c52df00	0.01287055
230	0xbc00f8f0	-0.007871851
231	0x3df9842e	0.121834144
232	0xbca154ff	-0.01969385
233	0xbdcdf323	-0.1005614
234	0xbd92320f	-0.07138454
235	0x3cdf676b	0.027270993
236	0xbd28832e	-0.041140728
237	0x3cb50e0d	0.022101426
238	0x3ba3b419	0.0049958345
239	0xbd745339	-0.05964968
240	0x3d324b84	0.04352905
241	0x3e0ba5fa	0.13637534
242	0xbbdf0d6a	-0.006807019
243	0x3ce77bd0	0.02825728
244	0xbd83a2d9	-0.06427545
245	0x3d8132f3	0.06308546
246	0xbe090d92	-0.13384083
247	0x3cd55056	0.026039284
248	0xbda22803	-0.07917788
249	0xbc1525dc	-0.009103265
250	0xbe750259	-0.23926677
251	0x3ca71b0d	0.020398641
252	0x3d50737c	0.050891384
253	0x3ca67465	0.020319173
254	0xbdf4026b	-0.11914524
255	0xbdc06c32	-0.093956366

sequential_1/lstm_3/while/lstm_cell_9/MatMul f4 [200, 50]
0	0xbd168a4f	-0.036752995
1	0xbe28781e	-0.16452071
2	0xbd953213	-0.072849415
3	0xbddbb48b	-0.10727795
4	0x3e92f37c	0.2870139
5	0x3e22fbbd	0.15916343
6	0xbd848a26	-0.06471662
7	0xbeb31cf5	-0.3498303
8	0x3e70cd5c	0.23515838
9	0x3c233090	0.009960309
10	0x3e1142c9	0.14185633
11	0xbdb13bcd	-0.08653984
12	0x3e16dd15	0.14732774
13	0x3cc3a458	0.023882076
14	0x3e9c1560	0.30485058
15	0xbcbaa93c	-0.022785775
16	0x3dcf6839	0.10127301
17	0x3d8a9d04	0.067682296
18	0x3eac83fa	0.3369444
19	0xbe842eaf	-0.25816867
20	0x3e03c753	0.12869005
21	0x3ea04b9d	0.31307688
22	0xbda0e8c2	-0.07856895
23	0xbe387edd	-0.18017145
24	0xbd8ffdfa	-0.07030864
25	0xba241eaf	-0.0006260676
26	0xbaed9ef3	-0.0018129036
27	0x3daa6db8	0.083217084
28	0xbe46bd8a	-0.19408241
29	0xbe1718ee	-0.14755604
30	0xbd584398	-0.052798837
31	0xbd8f5de0	-0.07000327
32	0xbc8d40bc	-0.017242782
33	0xbe855f33	-0.26049194
34	0xbe1fcfa8	-0.15606558
35	0xbd9dc219	-0.07703037
36	0x3e88de82	0.2673226
37	0xbd9858aa	-0.07438786
38	0x3e4c3768	0.19943011
39	0xbe75ef74	-0.24017125
40	0xbe33b685	-0.17550094
41	0x3cb24cfe	0.021765228
42	0x3dbf2c4c	0.09334621
43	0x3d94eb2b	0.07271417
44	0x3e2823e5	0.16419943
45	0x3bbf4c17	0.005837928
46	0xbded15a9	-0.11576397
47	0xbd7c3b25	-0.061579842
48	0x3e0aac5d	0.13542314
49	0xbd9bd88d	-0.07609663
50	0x3db850d6	0.08999793
51	0xbcbc8a1a	-0.02301507
52	0xbc531385	-0.012883072
53	0xbe1d1293	-0.15339117
54	0x3da35e0f	0.07976925
55	0x3d6d062a	0.057867207
56	0x39f10000	0.00045967102
57	0xbdf5648a	-0.11982067
58	0xbd5c9c46	-0.05385997
59	0x3d9dce74	0.077053934
60	0x3d4caa91	0.049967352
61	0xbe27c531	-0.16383816
62	0xbdd831f8	-0.10556406
63	0x3dc4093b	0.09572073
64	0x3df0128b	0.11722287
65	0xbd3f1734	-0.046652988
66	0xbe100588	-0.1406461
67	0x3dab9d30	0.083795905
68	0x3d9a42b0	0.07532251
69	0xbdd8b0e4	-0.10580614
70	0x3db981f2	0.09057988
71	0xbd27ead2	-0.040995426
72	0x3ddf120a	0.108921126
73	0xbe097664	-0.13424069
74	0xbe04e7bc	-0.12979025
75	0xbe067743	-0.13131432
76	0x3e086e54	0.13323337
77	0xbce30cd8	-0.027716085
78	0x3d0a2c48	0.033733636
79	0xbd7ef680	-0.0622468
80	0x3ddb7deb	0.10717376
81	0x3d8c70e4	0.0685747
82	0x3cdd1cb0	0.026991218
83	0x3d14b5f4	0.036306337
84	0xbd8e9ecf	-0.06963884
85	0xbe0c4761	-0.13699104
86	0x3de14b90	0.110007405
87	0x3db70310	0.08936131
88	0x3dfb973b	0.12284704
89	0xbc83719e	-0.016045388
90	0xbe1eeb77	-0.1551951
91	0xbdaec801	-0.085342415
92	0xbe20605d	-0.1566176
93	0x3c4356e5	0.011922573
94	0xbe1635c6	-0.1466895
95	0xbe1810aa	-0.14850107
96	0x3c06864a	0.008210728
97	0xbdc8f15a	-0.09811659
98	0x3a8af900	0.0010602772
99	0xbc8df628	-0.01732929
100	0xbcd96460	-0.02653712
101	0x3bfc00af	0.007690511
102	0x3df461f6	0.11932747
103	0xbc86e90e	-0.016468551
104	0xbe07859c	-0.13234562
105	0x3d3621e0	0.0444659
106	0xbe177475	-0.14790519
107	0x3ce6a592	0.028155122
108	0xbd9ffb36	-0.078115866
109	0xbddf8cc5	-0.109155215
110	0xbe0224d4	-0.12709361
111	0xbe0f68e6	-0.1400486
112	0x3d92c3de	0.07166265
113	0xbd9b1ca7	-0.075738244
114	0x3d4e33f7	0.050342526
115	0x3d7e297e	0.06205129
116	0x3c31eff3	0.010860431
117	0xbd96235c	-0.07330963
118	0x39e2e278	0.00043274811
119	0xbd5e74ea	-0.054310717
120	0xbc8a0908	-0.01685001
121	0x3da42484	0.08014777
122	0xbc88fd48	-0.016722336
123	0x3e11f92e	0.14255211
124	0x3d107895	0.035271246
125	0x3dadeef5	0.08492843
126	0xbd343181	-0.043992523
127	0xbce7a02f	-0.028274624
128	0xbd2e52e1	-0.04255951
129	0xbd1270d0	-0.035752118
130	0xbe27ddac	-0.16393155
131	0xbcab61d0	-0.020920664
132	0xbdcb28df	-0.09919905
133	0x3db1de63	0.08684995
134	0xbd4123f7	-0.04715344
135	0x3e022488	0.12709248
136	0x3d3b6e9a	0.045759775
137	0x3db88e97	0.09011572
138	0x3d31cfa3	0.04341091
139	0xbdbed300	-0.09317589
140	0x3cb6c909	0.022312658
141	0xbd282ddf	-0.04105937
142	0x3d1ef56d	0.038808275
143	0xbc34dc46	-0.011038845
144	0xbbf08a08	-0.0073406734
145	0xbc2eb38e	-0.010662926
146	0xbdc77c41	-0.097404964
147	0xbd55c42c	-0.052189037
148	0x3d19202f	0.03738421
149	0xbd13b880	-0.036064625
150	0x3e0e83df	0.13917492
151	0xbb922a31	-0.004460596
152	0xbdeba11a	-0.11505337
153	0x3d92fe66	0.07177429
154	0xbd9bc203	-0.07605364
155	0xbc323aeb	-0.010878305
156	0x3d8b2138	0.06793445
157	0x3da0b7e4	0.07847574
158	0xbde5900f	-0.112091176
159	0xbd450f64	-0.04811038
160	0xbe155994	-0.14584953
161	0x3db8ea9f	0.090291254
162	0xbd674719	-0.05646429
163	0x3dcde9a6	0.100543305
164	0xbd1262cf	-0.035738762
165	0xbd45acb0	-0.04826039
166	0xbda4a55a	-0.08039351
167	0x3d538349	0.051638875
168	0x3e19ea5c	0.15030807
169	0x3d8278c0	0.063706875
170	0x3d8c7d2a	0.06859811
171	0xbd247d80	-0.04015875
172	0x3cdca799	0.026935386
173	0xbe07a52c	-0.13246602
174	0xbdf77ac4	-0.120839626
175	0xbdabb477	-0.0838403
176	0xbd0024f3	-0.031285238
177	0xbda490e2	-0.08035447
178	0x3ca6ac75	0.020345906
179	0x3d976184	0.073916465
180	0xbd00edf0	-0.031476915
181	0xbdc2c458	-0.09510106
182	0x3d138f39	0.03602526
183	0xbdcef623	-0.101055406
184	0x3da7c245	0.08191351
185	0x3d69153a	0.05690501
186	0xbc29557c	-0.0103353225
187	0xbdb61925	-0.08891515
188	0xbc65579e	-0.01399794
189	0x3e14fe72	0.14550188
190	0xbdb5fd76	-0.088862345
191	0x3b4d71f3	0.0031348437
192	0xbd075af7	-0.033045735
193	0xbd29eabd	-0.04148363
194	0xbded439c	-0.11585161
195	0x3db08532	0.08619155
196	0xbd9f4f93	-0.077788495
197	0x3defb2fd	0.11704061
198	0x3cfe82e8	0.03106828
199	0x3ddb94ea	0.107217625
200	0x3d463fcf	0.048400696
201	0x3c8c2aff	0.017110346
202	0xbe0560f4	-0.13025266
203	0xbe1dbdf4	-0.15404493
204	0x3ddf1d97	0.10894316
205	0xbcca505a	-0.024696518
206	0x3d4fd25e	0.05073773
207	0x3d232e18	0.03983888
208	0x3d88b5ae	0.06675278
209	0x3da9484d	0.082657434
210	0x3ce21372	0.027597163
211	0xbd290415	-0.04126366
212	0xbe4163fd	-0.18885799
213	0xbdce1419	-0.10062427
214	0xbe286bea	-0.16447416
215	0xbd05e16f	-0.032685693
216	0xbd91c0c7	-0.071168475
217	0xbe1bf38b	-0.15229623
218	0x3d238751	0.03992397
219	0xbe11bf25	-0.14233072
220	0x3dce6615	0.10078064
221	0x3d2b19f1	0.041772787
222	0xbe245f3d	-0.16051956
223	0xbd1035d3	-0.03520758
224	0x3da29d7f	0.07940196
225	0xbdf72202	-0.12067033
226	0xbbcd9318	-0.0062736385
227	0xbd8b7eb5	-0.06811277
228	0xbe205ab9	-0.15659608
229	0x3e0d3ead	0.1379344
230	0x3d0e1787	0.034690406
231	0xbd7733b6	-0.06035205
232	0xbe342b8f	-0.17594741
233	0xbdd5924a	-0.10428293
234	0xbdb1f594	-0.086894184
235	0xbb5376d8	-0.0032266881
236	0x3d6b491d	0.057442773
237	0x3d3d1cb4	0.04616995
238	0xbddafd40	-0.10692835
239	0xbd6152cd	-0.055010606
240	0x3dc2e5d6	0.09516494
241	0xbe3bc406	-0.18336496
242	0xbdc8dd95	-0.098078884
243	0xbd4ac2c3	-0.049502145
244	0x3d1cd34c	0.038287446
245	0x3d4fab12	0.050700255
246	0x3e024abf	0.12723826
247	0x3ddabfbd	0.106811024
248	0x3d9849a0	0.07435918
249	0xbdca849a	-0.09888573
250	0x3dd07e1c	0.101803035
251	0x3e0ddc02	0.13853458
252	0x3e0f54dc	0.13997215
253	0x3e001f21	0.12511875
254	0xbd174e45	-0.036939878
255	0xbe772aa9	-0.24137367
