app/src/main/assets/model/weather_description_24hours.tflite (tflite, 510268 bytes, 12 tensors)

sequential_1/lstm_3/Read_2/ReadVariableOp f4 [256]
00000000: f4e0 43bc b213 283d b665 1dbd e245 cfbc
00000010: a15e 473d 4c21 7e3d 878d babb 8375 27bd
00000020: 27ee 0b3d 4aae 393d 2eb0 153c 7100 aa3b
00000030: c0ae 03bd 4336 8d3d 201a 363d 2bf2 03bd
00000040: f8d0 083d 5610 4d3c 6ba6 4e3d ca37 483d
00000050: b6da eb3c 0b44 453d b8b8 013a 9bfc 403d
00000060: 3f95 703d 1974 1a3d f90e 2fbd 2af0 3d3d
00000070: 9d59 293d 36f9 fa3d e08f 9bbc 642a 313e
00000080: 3f0c 793d d65a 973c 4cf7 653d 1302 073d
00000090: ce86 303d 32d6 763d ff45 923d 9ea1 363c
000000a0: 7048 a33a 731f 023e 22ae 163d 135d 7c3b
000000b0: 665a a03d 6ff6 f33d 1b28 bb3c fd22 f83d
000000c0: 9de8 eebc 458c f13c 8be7 f23c ca40 453c
000000d0: 721c 363d 23dd bcbb 2f9a 2a3d fbb4 a0bb
000000e0: 87e1 8f3d c65a d13b bfbb 1b3d e42a 073d
000000f0: 495e cf3d 33f6 ad3c 3edf be3c de19 353d
00000100: acea 793f 7a04 873f b553 713f 1f28 723f
00000110: da88 863f da21 883f cdd3 803f 8334 783f
00000120: d54e 833f 4227 6d3f 5ee1 753f a4b0 773f
00000130: b5fb 853f d51c 673f f3df 883f 9b69 763f
00000140: 2cca 803f f857 713f 2313 883f 9962 6e3f
00000150: cbb6 843f 19b0 883f 8a15 703f cbc9 633f
00000160: e9ca 643f d472 733f 0f3e 7e3f 162a 733f
00000170: 106a 863f b4f9 653f 6aa5 7f3f e3d1 613f
00000180: 7c28 8a3f 0891 813f 96b4 883f f3f7 843f
00000190: 1bbd 873f fb51 763f b65d 803f b3ce 753f
000001a0: ea3d 763f 81b5 653f e0f1 7d3f 723a 6f3f
000001b0: 75ff 893f b806 873f 9943 633f 781e 6c3f
000001c0: 8591 6f3f 097e 853f 07f7 7a3f ea0a 743f
000001d0: 4cc4 7b3f 9ccc 843f 92d9 863f 1424 803f
000001e0: d18d 5d3f 2a76 713f 7ca0 853f c4a5 763f
000001f0: 1054 5e3f 212f 7b3f 56a7 6a3f 2b3d 853f
00000200: 4fff d7bc 8697 de3c 7f92 8cbd b9e3 843d
00000210: 8c0b 063d c7b0 9b3c 8c73 0e3d fdcf ab3b
00000220: a2d4 2dbd fbc9 7b3d 631e 72bc 7937 27bd
00000230: ef82 363d b3f0 3abd 16ba 4bbd fc67 343c
00000240: 0efc 373b fb1e 803c 3abc e13c 2bba 483d
00000250: 3f74 aebc c43a c83c 52ec 693d 9920 c83c
00000260: 1c75 a03d bc48 a3b9 af4c 953c 1373 debc
00000270: c863 f83c 53aa 0fbc 85ef c03c 17b0 9b3c
00000280: 6830 07bd 778c 223d ce7e 1e3d c41f 0ebd
00000290: 1757 17bd 9ee9 6e3b e71c 19bd 8422 8a3c
000002a0: 0bfa 743c 3234 f13c 3992 3ebd 00b2 063d
000002b0: 1633 863d 5bce 793d 1355 bebc 5f39 a83b
000002c0: 3307 7cbd 6081 a53c 14fd 8a3c e0c2 043c
000002d0: 9256 6bbd be81 e63c db39 d8bc b513 b13c
000002e0: 07e4 7e3d c68e cc3c 4104 053d 93a7 0b3d
000002f0: 38d8 d93c 448d 05bd 97d1 2ebb c200 c53c
00000300: a74b dbbb 068f 76bd 9799 ffbc 6d29 27bd
00000310: 5ea2 12bd 973e acbd 7780 75bd 9bcd ebbc
00000320: 78ca 9ebd 2987 963d 56f6 56bb 73db 8a3b
00000330: e561 11bc 83fa 2c3d 7f34 21bd 9004 68bd
00000340: 84d3 cebc c2e0 1ebd 2771 10bd 9f3f 0e3e
00000350: 5ace 55bd 5bd0 11bc 66fe d73c 01a9 8d3d
00000360: cbfe 8fbb fa06 09bd 9dd4 4bbc ea30 873c
00000370: 3a37 44bd d188 7a3e 1e31 78bb 4e00 1c3e
00000380: cf97 a7bc 9b21 42bd d55d fcbc e96b 4ebd
00000390: 772b 64bd c6a8 593d e624 073b 97e2 be3c
000003a0: d135 1cbd 6ae3 4c3e 462e 98bd 6378 293d
000003b0: 6086 86bd 30f4 23bc 26bd ac3c 44bd 1c3e
000003c0: 3112 76bb 0dfd 9dbd 4fe5 aa3c 89e8 c93a
000003d0: 7210 13bd 0662 c2bc 5ce6 2ebd e2a4 47bd
000003e0: 8aae ca3d 6de2 fdbc 65f5 30bd b725 7f3d
000003f0: cd01 023e 0ad3 cabc 76bb a43b 5bc3 21bd
-0.0119554885 0.041034408 -0.038427077 -0.025301877 0.04867423 0.062043473 -0.005693141 -0.040883552
0.034162667 0.04533223 0.009136243 0.005188041 -0.032149076 0.06895115 0.04445851 -0.03221337
0.033402413 0.012516102 0.050451677 0.04888133 0.028790813 0.048160594 0.0004948485 0.047115903
0.058736082 0.037708376 -0.04273889 0.046371616 0.041345228 0.122545645 -0.018989503 0.17301327
0.060802694 0.018475931 0.056144044 0.032960963 0.04309731 0.060262866 0.07142257 0.011146931
0.0012457501 0.1270731 0.03678716 0.0038507625 0.07829742 0.11912238 0.022846272 0.121160485
-0.029163653 0.029485831 0.029651424 0.012039373 0.04446072 -0.0057636662 0.041650947 -0.004904387
0.07025438 0.006388995 0.038020846 0.032999888 0.10125405 0.021235561 0.02329981 0.044214122
0.97623706 1.0548241 0.9426835 0.9459247 1.0510514 1.0635331 1.0064636 0.96955127
1.0258433 0.9263803 0.9604701 0.9675391 1.046744 0.9027837 1.0693344 0.9625489
1.0061698 0.94274855 1.063084 0.931192 1.0368284 1.0678741 0.93782866 0.88979787
0.89372116 0.9509709 0.99313444 0.94986093 1.0501118 0.8983414 0.99861777 0.88210887
1.0793605 1.0122385 1.068011 1.0388168 1.0604585 0.9621884 1.0028598 0.9601852
0.96188223 0.8973008 0.99197197 0.93448555 1.0781084 1.0548925 0.8877502 0.9223399
0.9358142 1.0429088 0.98033184 0.95329154 0.983464 1.0374942 1.0535147 1.001101
0.8654452 0.9432093 1.0439601 0.9634669 0.8684702 0.9811879 0.91661584 1.0409292
-0.026366858 0.027171861 -0.068638794 0.06488747 0.032725856 0.019005192 0.034778163 0.0052433
-0.04243911 0.06147192 -0.014777753 -0.040824387 0.04455846 -0.045639705 -0.049738012 0.01101112
0.002807382 0.015639773 0.027555574 0.04900567 -0.021295665 0.024442084 0.05711014 0.024429606
0.07834837 -0.00031143974 0.018225042 -0.027154481 0.030321017 -0.008768636 0.023551712 0.019004865
-0.03300515 0.03968474 0.03869515 -0.034698263 -0.03694829 0.0036455165 -0.03738108 0.016862161
0.014952193 0.029443834 -0.046526168 0.032884598 0.065527126 0.06098781 -0.023233926 0.0051337923
-0.061530303 0.020203292 0.01696638 0.008103102 -0.057455607 0.028138038 -0.026394775 0.021615842
0.062229183 0.024970423 0.03247476 0.034095358 0.026592359 -0.032605425 -0.0026675218 0.024048213
-0.006692368 -0.06019499 -0.031201167 -0.04081099 -0.035799377 -0.084103756 -0.059936967 -0.028784564
-0.077534616 0.073499985 -0.0032800636 0.004237586 -0.0088734375 0.042231094 -0.039356705 -0.056644976
-0.025247343 -0.038788565 -0.03526416 0.13891457 -0.052198745 -0.0088997735 0.026366424 0.069170006
-0.0043943874 -0.03345392 -0.012440828 0.016502816 -0.04790423 0.24466254 -0.0037871073 0.15234491
-0.02045813 -0.04739533 -0.030806461 -0.05039588 -0.055705514 0.05313947 0.0020621358 0.023301406
-0.03813726 0.20008627 -0.07430701 0.041374575 -0.06568599 -0.010006949 0.021086287 0.15306574
-0.0037547464 -0.07714281 0.020861296 0.0015404384 -0.035904355 -0.023728382 -0.042700157 -0.04874123
0.09896572 -0.030991757 -0.043202776 0.062291827 0.12696 -0.024758834 0.00502723 -0.039492946

sequential_1/lstm_2/Read_2/ReadVariableOp f4 [512]
00000000: 0ea0 023e b1ee cebd b8cb f5bb b0e2 a53d
00000010: 8b7f 97bc 2b1c bc3d 59f7 1abd ccfa 6e3d
00000020: 40c2 c0bd 5dc0 9dbd 3b36 b03e d8f3 e73d
00000030: 278b 50bd 2d8a 113e 10d1 0ebd 3b59 3f3d
00000040: 9851 0e3e 9d0c 84bd 6c6f 443d 4eb8 b83c
00000050: 0767 833c 949e 953e 0542 14bd 2e1f c8bc
00000060: f484 253d 8d64 553e a2aa 9e3c 0169 b6bc
00000070: 5054 b83e e6e9 1c3d 2ec4 80bd 3edf 713e
00000080: bc32 693e 2d5d d3bd 2a24 023d 856e ea3d
00000090: f8dc 8d3c 126f c9bc 0bf5 2fbd 5284 953c
000000a0: cdf4 bdbd ce9b adbd 6f50 03bd f4b4 303c
000000b0: ae7b f4bc f41c 7f3e 8d7b 183e c214 e4bd
000000c0: a95d 643c 884d 583e a2ab 96bd 8329 7abd
000000d0: 5c88 9e3e 97ac 763b 0684 9f3c 523c 08bd
000000e0: c81d a4bd 7c46 f9bd 1d11 c3bd 2de0 ddbd
000000f0: ceef 583d dc79 903e 7b1c 16bc 6cf1 7fbd
00000100: 1f71 c43d b373 073b fe59 2fbb 2e09 703d
00000110: 1b20 74bb f25a 10be b8a5 9b3d 49cd 7e3e
00000120: c73a c53b c2ce 55bd 3f53 fc3d e36b e1bc
00000130: f326 b9bd 47b2 7b3d 202c 543d 5b2d c4bd
00000140: 25db ac3e a88a 93bd 1ec6 25bc dd1c 60bd
00000150: 9100 e1bd 816f 2f3e b75e 8d3c 43ed 8d3d
00000160: 0d20 c5bd 5fa9 8c3b 9019 40bc 5e21 1bbd
00000170: 3066 edbc b148 c9bd b69a b83e 49a6 b7bb
00000180: b587 c63d e7f5 5d3d 4450 8b3e 6263 91bd
00000190: 3703 633c a71a 1cbd 339b c8bd 8807 18bd
000001a0: 5e3e 693d 6e1d 54bc 1768 17bd 8ab9 95bd
000001b0: a7e0 ab3c 84c5 6dbd 65b2 77bd b96c 193d
000001c0: 6a8a 8abd b594 a4bd 2777 ffbd 476c c6bd
000001d0: 843b 5e3c 1039 bcbd 4480 1ebe a517 d0bd
000001e0: 4d00 44bd caed 223d b0be f2bd 2cf0 29bc
000001f0: 6366 b03e 7083 b8bd db88 1ebb 6dc1 f53b
00000200: c090 493f c165 653f dc15 683f 22cb 593f
00000210: 9770 5e3f 2317 573f d89b 763f df07 7f3f
00000220: 996f 753f b033 893f fb98 3c3f 01e9 8f3f
00000230: b0c0 673f 5cf9 5e3f acf4 7a3f 44fc 753f
00000240: 9175 483f dad4 533f f239 693f 4fcb 873f
00000250: d654 893f 1652 393f c79a 963f 495e 6c3f
00000260: 00ee 5f3f 5730 643f 8088 5f3f a959 813f
00000270: bcf0 4f3f f28f 673f 1073 5a3f 1b4e 543f
00000280: 3e31 5a3f f1cb 793f 77a2 6f3f afd1 673f
00000290: 46db 5f3f 4879 803f 4f41 723f b622 623f
000002a0: 3d77 693f 0773 723f 39d0 7b3f 275c 5c3f
000002b0: b3d3 813f 7b4f 593f 559a 633f b00e 6e3f
000002c0: faec 833f 5e4a 503f 6525 6f3f f958 713f
000002d0: 3ddd 403f f8bd 753f 13c7 823f 7716 5a3f
000002e0: a739 6d3f 96af 783f 4d36 7a3f 4dd8 613f
000002f0: 70b4 803f 0a5c 513f e5e6 883f b4d2 733f
00000300: bcaa 593f d87d 7d3f 0875 783f 5ce9 8d3f
00000310: d6f7 7c3f 992d 613f a04f 4d3f 40cf 453f
00000320: 8e4c 6c3f 81cd 533f cf6f 8d3f ebd3 5e3f
00000330: 2986 6e3f c6e3 903f dd14 6f3f 0353 6e3f
00000340: 6cd7 4b3f 0362 723f 551c 893f 65fa 683f
00000350: f965 6d3f 2416 493f c9b2 823f 8e25 573f
00000360: 47e7 673f 07bf 603f e2e8 6f3f 54d2 863f
00000370: f9c9 703f 3646 753f a0ca 413f bbd5 733f
00000380: 883c 703f eb77 563f cd40 5c3f ed83 713f
00000390: bb5b 5d3f 9b0d 7d3f a4e9 6d3f 8ece 683f
000003a0: 3398 8b3f 7898 733f 439b 6d3f 97d3 803f
000003b0: a3a9 8d3f c795 7c3f beb5 783f e1cd 8f3f
000003c0: 6e13 6f3f 2b32 6b3f c9fd 603f f65d 703f
000003d0: f024 6b3f 2455 653f 7ad3 653f 57bd 663f
000003e0: 5023 8b3f 2eed 8e3f 09a8 683f 271f 5c3f
000003f0: 0e53 453f b8f1 6b3f d1e5 7c3f 1d78 573f
0.12756369 -0.101041205 -0.007501092 0.08099878 -0.018493434 0.0918506 -0.037833545 0.058344647
-0.0941205 -0.07702706 0.34416375 0.113258064 -0.050913956 0.14212866 -0.034867346 0.046715956
0.13898313 -0.06447718 0.047957823 0.02254882 0.016040338 0.29222548 -0.036195774 -0.02442893
0.040409997 0.20839138 0.019368473 -0.022266867 0.36001825 0.038309 -0.06287418 0.23620316
0.2277326 -0.10320506 0.03177277 0.11446861 0.01731728 -0.024589095 -0.0429583 0.018251572
-0.09275208 -0.08476983 -0.03205913 0.01078533 -0.029844131 0.24913388 0.14890881 -0.11136772
0.013938346 0.21123326 -0.07356955 -0.061074745 0.3096341 0.0037639493 0.019472133 -0.03326065
-0.08013493 -0.12171647 -0.095247485 -0.10833774 0.05296307 0.2821797 -0.009162064 -0.062486097
0.09591889 0.0020668327 -0.002675652 0.058602504 -0.0037250582 -0.14097193 0.07599968 0.24882998
0.0060189697 -0.052199133 0.123205654 -0.027517265 -0.09040632 0.061449315 0.051799893 -0.09578963
0.33760944 -0.07204181 -0.010118036 -0.054715026 -0.10986436 0.17132379 0.017257078 0.0693002
-0.09625254 0.0042926515 -0.011724845 -0.03787362 -0.02897939 -0.09828318 0.36055535 -0.0056045395
0.09693853 0.05418959 0.27209675 -0.07099034 0.013855747 -0.038111355 -0.09795227 -0.037116557
0.056944244 -0.01294647 -0.036964502 -0.073107794 0.020981146 -0.058049694 -0.060472865 0.0374572
-0.06764682 -0.08036176 -0.124738984 -0.09688621 0.013563994 -0.09190571 -0.15478617 -0.1016076
-0.04785185 0.039777555 -0.11852777 -0.010372203 0.34453115 -0.09009445 -0.002419046 0.007499865
0.78736496 0.8960839 0.90658355 0.8507558 0.8689055 0.8401968 0.9633155 0.99621385
0.9587341 1.0718899 0.7367093 1.1242982 0.9052839 0.8709924 0.9802959 0.9608805
0.7830439 0.8274666 0.9110404 1.060892 1.0729015 0.7239088 1.1765984 0.9233137
0.87472534 0.8913626 0.8731766 1.0105487 0.81226707 0.9045402 0.8533182 0.8293168
0.8523139 0.97576815 0.93607277 0.90554327 0.8744396 1.0037012 0.94630903 0.88334215
0.9119757 0.9470677 0.983646 0.86078113 1.014273 0.848869 0.88907367 0.9299116
1.0306695 0.81363475 0.93416435 0.94276386 0.7533758 0.95992994 1.0217003 0.8519053
0.92666095 0.9714292 0.97739106 0.88220674 1.0055065 0.81781065 1.0695463 0.9524338
0.85026145 0.9902015 0.97053576 1.1086841 0.9881567 0.879602 0.80199623 0.77269363
0.92304313 0.8273545 1.1049746 0.8704211 0.9317346 1.1319511 0.9339121 0.93095416
0.7962558 0.94680804 1.0711771 0.9100707 0.9273372 0.7854941 1.0210811 0.8404168
0.90587276 0.87791485 0.93714726 1.0532937 0.94058186 0.9581026 0.75699806 0.95248
0.93842363 0.8377673 0.8603638 0.9434193 0.86468095 0.98848885 0.9293463 0.9094018
1.0905823 0.95154524 0.92815036 1.0064572 1.1067394 0.9866604 0.97152317 1.1234704
0.9338902 0.91873425 0.87887245 0.93893373 0.9185324 0.8958304 0.8977581 0.9013266
1.0870152 1.1166131 0.908814 0.85985035 0.77079856 0.9216571 0.9878817 0.84167653

sequential_1/dense_3/BiasAdd/ReadVariableOp f4 [16]
00000000: 8a4a b13d 3c86 44be 3c83 9ebd 15b8 2dbd
00000010: ca1e 01be 9071 3a3d 5df0 5ebe f66d 89bd
00000020: bb79 bf3d 2727 0e3d dfff f4bd b25e f2bc
00000030: 8d54 10be 1038 a8bd 1e4d bcbd ab1c 0cbe
0.08656795 -0.19191831 -0.07739875 -0.042411882 -0.12609401 0.045518458 -0.21771379 -0.067104265
0.0934939 0.034705307 -0.11962866 -0.02958617 -0.14094754 -0.08213818 -0.091943964 -0.13682811

sequential_1/dense_2/BiasAdd/ReadVariableOp f4 [32]
00000000: bcf3 0c3e 3872 9f3d 0f3a 51bd a444 963e
00000010: 9a4d 853d 1499 3abd 62de 3f3b a315 f73d
00000020: 64ea 953d a9a0 4cbc 74f0 ab3d 557f b53d
00000030: db6a 30bc 64f7 753c a2d6 72bd 7653 43bd
00000040: 107e 9a3d d68a 863d 9c72 443d 1696 083e
00000050: 894a 073e 4cf5 b4bc 153a da3d 48f2 3e3d
00000060: 33f4 1b3e 26c4 a7bc 9991 ef3d 69eb 323e
00000070: f959 5ebd cd5a 813d 3b03 903b c39c 41bd
0.13764852 0.077854574 -0.05108076 0.29349244 0.06508942 -0.045556143 0.0029276838 0.12064674
0.07320097 -0.012489476 0.08395472 0.08862177 -0.010767664 0.015012596 -0.05928672 -0.047687016
0.07543576 0.065694496 0.047960863 0.13338503 0.13212027 -0.022089623 0.106556095 0.046617776
0.15229873 -0.020479273 0.116976924 0.17472614 -0.054285023 0.06316147 0.0043949164 -0.04726864

sequential_1/dense_2/MatMul f4 [32, 64]
00000000: 9ccc 383e 0980 403e 9f32 cebe bd3d 99bd
00000010: 4612 b9bd 21ba 4d3e 8241 3f3e 46f5 f73d
00000020: 5838 25be 3355 b23d fd01 c33c c0e0 7bbe
00000030: 11c3 a13e 6a7e d5bb a3b1 69be 0383 22be
00000040: af83 11be 15a6 8d3e fdce 07bd 49f7 d5bd
00000050: c8f7 b03d 74c8 5b3e e785 1e3e 6c86 92bd
00000060: 46e6 ee3d cd98 acbd 2316 f23d 5a2f 7d3e
00000070: 3381 323e 12fe a1bc 5608 853e b756 1c3e
00000080: d7c2 233e b36b 5f3e fcf8 4b3e 2248 bc3d
00000090: c009 91be f55b 5ebe 7b62 56be 8ba0 43bd
000000a0: ec0f c13c bf94 983e 4868 21be feb3 bb3c
000000b0: 3a07 443e 8747 813e bf61 23be 81d8 4c3e
000000c0: 8862 d7be 2e72 233d 1bb6 83bd dd57 dd3e
000000d0: 9f5c 493e 0669 68bd 18da 32be 3283 173e
000000e0: 3331 013d 3517 de3d 4010 92bd 6e24 cc3d
000000f0: cf32 5f3e acbd 9bbc 233f a6bd 1066 113a
00000100: f460 a4bc 395e d73d fe8c 20be 0f24 8d3e
00000110: 96fd 783e a89f b4bc ce44 5abd fb36 85be
00000120: 3ac8 c43d 8ed4 2b3e b375 eebd 69ec bfbd
00000130: ea7a 073c d250 323d fc19 40bd 52e9 493e
00000140: ce20 303e 177b 00bd c34c 82bd c0b0 24be
00000150: 8316 8abe be31 dcbd 42db 3dbe 7f96 403e
00000160: 95ac f73d 9013 f4bd 6057 50bd 9b72 c53d
00000170: a091 7c3e a259 6e3e b67f 043e ccf2 bfbe
00000180: 6032 463e 86b0 7a3e ebeb edbd 5a51 0abd
00000190: 40f2 013e 2230 41bd 0b94 cdbd b437 f63d
000001a0: 0a66 33be 7f46 a1be 02d3 383e 35c4 b23c
000001b0: 1b04 0d3e be72 96bc 6f74 9fbe d30d 8ebe
000001c0: a795 13bd d478 e63c 45a2 ecbd 9e67 1bbd
000001d0: c640 d7bb 130b d83d e1ab 9e3b 19f9 a83c
000001e0: f98d 0c3e e358 96bd 6935 a2bd c0a9 16be
000001f0: 1554 f23d 0d69 d5bd 5cc6 703e d5c7 b13d
00000200: 7817 95bd 88aa be3d f521 763e e62f 113e
00000210: 0266 683e 335b 573d 6a2d 90bd 6985 b23d
00000220: c87b 0a3e ee51 91bd dba4 4bbe 9255 133e
00000230: 36d2 fa3d 7add 5abe e241 053e 679c 6fbe
00000240: bb6e 04be 81e4 87be daa8 5f3e 854d 963e
00000250: ea90 e2bd bd3c 35bd 30a9 2e3d 642c 72bc
00000260: c023 153d 0738 033e ff0e cd3d c26f 63bd
00000270: e30d 773e f404 dc3e a466 be3c 1026 f5be
00000280: 5456 703e 435b 78bd fe24 1a3e d37a 5abd
00000290: 0a85 07be 97ee f83d 96d7 563e f129 0abe
000002a0: 80fc 41be 8d30 96be c2c4 543e c5d4 9bbd
000002b0: 7751 1cbe 4a75 0f3e 71df 60be 2216 92be
000002c0: 1d9c 06be 7032 c5bd 0bca f13a 33bd 3ebe
000002d0: 65ba 29bc 3eaa 163e 3de8 2ebd 9b61 593d
000002e0: 7447 a5bd 082b 72be 906e f4bd f3e2 71be
000002f0: dcba ca3e 4bb8 fdbc c4f9 28be 2fa7 873d
00000300: 5957 e8bd 7b32 893d 5c40 913d 7bf0 ee3d
00000310: 3bb3 503e 9736 043e 4d9c f23c 246e 79be
00000320: 3322 e2bc 5ba1 043e dc98 80be a932 8fbe
00000330: e608 a33e dc77 febd efc7 34be d57e b23d
00000340: 1037 b23d 5211 263e 795f b63d 5441 b53e
00000350: 65b0 85be ff87 e83d 9473 f13d 3bb1 933e
00000360: d7fb ab3e a0d3 653d b474 f53c fb56 173e
00000370: f22a 123e 54b7 943c 687c 943e 0109 e5bc
00000380: e2ef d3be c893 33bd 8603 973e 6c48 5cbe
00000390: 222d b8bc d320 8d3e 859d 8ebd 6ab9 463e
000003a0: be2b bcbc c9cd d5bd c631 dd3b cfb9 6fbc
000003b0: 17ca ed3d 8b8f 9f3e 819f 0a3e e955 8dbd
000003c0: f4e7 8abe 6e5b 9f3d 1033 0f3e e1d8 fb3d
000003d0: 557c 2d3d 5e2a ef3c b9f5 433c 75ee 06be
000003e0: 801f ac3d 6eca 80be 074a 8a3e 5153 ae3d
000003f0: d2f3 1a3b 20a9 82be a6b5 4b3e 3f1c f6bc
0.18046802 0.18798842 -0.40272996 -0.07482479 -0.090366885 0.20090534 0.18677333 0.12107329
-0.16134775 0.08707657 0.023804659 -0.24597454 0.31594136 -0.006515314 -0.2282167 -0.1587029
-0.1421039 0.27665773 -0.033156384 -0.104475565 0.086410105 0.21463186 0.15480767 -0.07154545
0.11665015 -0.08427582 0.118206285 0.24725094 0.17432098 -0.01977447 0.25982922 0.15267454
0.15992294 0.21818428 0.19919199 0.09193446 -0.2832775 -0.21714766 -0.20936005 -0.047760528
0.023567162 0.29800984 -0.15762436 0.022912975 0.19143382 0.25249884 -0.15955256 0.20004465
-0.4206736 0.039903812 -0.06431218 0.43231097 0.19664238 -0.056740783 -0.17466009 0.14796141
0.03154106 0.1084427 -0.07132006 0.09967886 0.21796726 -0.019011341 -0.08117511 0.00055465195
-0.020065762 0.105160184 -0.15678784 0.27566573 0.24315485 -0.022048786 -0.053288274 -0.2601851
0.09608503 0.16780302 -0.11643543 -0.093712635 0.008269051 0.043534108 -0.04689978 0.19717911
0.17200014 -0.031367388 -0.063622974 -0.1608305 -0.269703 -0.10751675 -0.18540671 0.1880741
0.12093464 -0.11917794 -0.050864577 0.09641 0.24664927 0.2327638 0.12939343 -0.37489927
0.19355154 0.24481401 -0.116172634 -0.03376899 0.12690067 -0.047165044 -0.100380026 0.12022343
-0.17519394 -0.31499097 0.18049243 0.021822074 0.13771097 -0.01836526 -0.3114352 -0.27744922
-0.03603139 0.028133787 -0.11554388 -0.037940614 -0.006569001 0.10548987 0.004842267 0.020626592
0.13726033 -0.073411725 -0.079203434 -0.14713192 0.118324436 -0.104204275 0.23513168 0.08680693
-0.07279867 0.0930987 0.24036391 0.14178428 0.22695163 0.05257721 -0.07039912 0.08716852
0.13523781 -0.07095705 -0.19887106 0.14388111 0.12247126 -0.21373549 0.13013414 -0.23399507
-0.12932865 -0.26541522 0.21841756 0.29356018 -0.110627964 -0.044247378 0.04264182 -0.014781091
0.036411047 0.12814341 0.10012626 -0.055526502 0.24126391 0.4297253 0.023242302 -0.47880602
0.23470432 -0.06063391 0.15053174 -0.05333979 -0.13234344 0.121548824 0.20980677 -0.13492562
-0.18943977 -0.29333916 0.20778182 -0.07608942 -0.15265451 0.14009586 -0.21960236 -0.2853251
-0.1314549 -0.09628761 0.0018447054 -0.18626861 -0.010359381 0.1471338 -0.04270195 0.0530716
-0.08070269 -0.23649228 -0.119351506 -0.2362173 0.39595687 -0.030971667 -0.16501528 0.066236846
-0.11344785 0.066990815 0.07092354 0.11666962 0.20380871 0.1291145 0.029615546 -0.24358422
-0.027604198 0.12952177 -0.25116622 -0.27968338 0.31842726 -0.12425205 -0.17654394 0.087155975
0.087019086 0.16217545 0.08904929 0.35401404 -0.2611114 0.11354064 0.11789623 0.28846154
0.33590576 0.056110024 0.029962875 0.14779274 0.14274195 0.018153824 0.29001164 -0.027958395
-0.41393954 -0.043842107 0.29494876 -0.21512002 -0.022482459 0.27564105 -0.06963638 0.19406667
-0.022970077 -0.10439641 0.006750318 -0.014631703 0.11610811 0.31164202 0.13537408 -0.06901152
-0.2713009 0.07781111 0.13984323 0.12297226 0.0423549 0.029195007 0.01196044 -0.13176902
0.08404446 -0.25154442 0.27009603 0.08511985 0.0023643863 -0.25519657 0.19893512 -0.030042766

sequential_1/dense_3/MatMul f4 [16, 32]
00000000: 7e1c cc3e eb44 2bbe eb88 93be 415c c1bc
00000010: 9e75 bb3e 5d88 2a3d 4518 3b3c 4988 1b3e
00000020: ffb6 103d cfcb 493e a5bd f0bd 909c 8abc
00000030: 3202 0c3e 8f35 cabe ef22 a1bc e920 bbbd
00000040: fa5d 563e 1cbc 6dbe c942 75be c387 db3c
00000050: 8860 cebd 1d7c 2d3e 42dd 62bd f96f 2ebe
00000060: da8f 023e 3418 f1be 435b ab3e bc11 a03e
00000070: 8cf4 893d 151b 113e b088 a7bd b5a0 e5be
00000080: 082d 2cbd 8c31 d0be 0986 fcbe f046 38bf
00000090: 8805 1ebd a1ed 0abe 6e30 adbe e802 223e
000000a0: e10b d7bc 30e5 50be 2b1f dabd 7104 c0be
000000b0: 8d90 12bf e636 a13e 5bbd f43d 65a0 6fbe
000000c0: 1c18 9dbe 8760 993d 3f66 f13e b94d c0bd
000000d0: 8de9 36bf 80d7 5e3d 750f b7bc 5f52 ecbe
000000e0: 4dc1 b1be 5a84 8c3e 3749 363d d1ec 963d
000000f0: a0cd 713e 62ab 94bd 5c28 10bd d10f 213d
00000100: a0e6 16be 4b3b 95be 1bd1 983e 757a 71be
00000110: a806 283c 5a39 173d 33df 8fbe cd4e 983e
00000120: ac71 073e 4afa 03be a33f 4fbb 0a05 21be
00000130: 23dc adbe cba7 c2bd 5b81 65be f3f4 9cbe
00000140: a839 243e 3f5e 873e 6d35 873e fc6a 9fbd
00000150: 501a 5fba f7b2 a2be 3a57 b13e f58c 4b3e
00000160: 2eb2 95be 4cb3 343e 4e9f 353e 9394 27be
00000170: b1cc b9bd df5f 90bd a103 88be 6743 59bd
00000180: ffb6 c0be 56ac 703c 2993 433d 6a03 7bbd
00000190: 3c25 e93c f29d 1fbf ef48 19be 9204 883c
000001a0: 4494 5cbe 44eb 23bf 8843 c5bd b43c 8e3e
000001b0: b662 0f3e 9aa9 b53d 18f9 cbbe 0db6 bfbe
000001c0: a878 5b3e b2fc bc3d 9210 c6be 4bd0 893e
000001d0: 4179 cabd 21c9 32be afcc e3be 593b a53e
000001e0: 4a08 76bc 2e5f 333d 62ef 343e f401 76be
000001f0: 29be d1be bf16 afbe 45c8 16be ed38 f43d
00000200: 3337 5a3e 44ec 4f3d 1286 6cbe 7401 b3bd
00000210: 62b4 30be 9fe2 153e aa14 16bf 606a 98be
00000220: c637 e1be 153f 7f3e 925d c6be 6487 0fc0
00000230: 138c 47be 0cf1 bfbf 7a52 66be a76c 93bd
00000240: 149d 5fbe c2ea 3e3c 11f4 f9be 03b7 1abf
00000250: 92ba d0be 7367 12be 108c 3fbf 2301 0f3d
00000260: 8d6d 31be f4b3 40bf d1a2 8dbe 34a3 a1bd
00000270: 6e69 e4bd edb9 58bf 6b85 afbe f296 da3c
00000280: 38a2 48be 043e 16bd 0793 473e 9a1b ba3d
00000290: 4947 903e 47d6 51bd 79c2 9f3c 5649 833e
000002a0: 2bac bebe e3dc 393e 30ae 993e 46c9 8c3d
000002b0: 99d6 1ebe 2b08 f3bd e151 823b f2bd 9b3d
000002c0: 6ae4 703e 1333 82bd 6ffa 9e3e 14a5 88bc
000002d0: 5d36 873d 02ae 9ebe ffe6 26be 6d4f db3d
000002e0: 4182 6bbe d9f6 0cbe f3be 4d3e 206e f33d
000002f0: dbc3 18be 4ac8 76bc c845 8cbe f721 a03e
00000300: e115 11bd e6f0 b13b e314 83be f888 ea3d
00000310: c0b9 87be e1a8 d5be 3968 5abf 474f f9bc
00000320: bf69 09bf dac5 c7be fcc5 573e 210f 95be
00000330: f18b 70bf 3940 82bf 06e6 153d c895 a3be
00000340: 7a15 0dbd d9bf 473e 576d 79bf 2708 d0bd
00000350: 88e6 cfbe 2b3b 0abe bab2 23bf 2009 7fbe
00000360: 400e 35be f618 b3bf 5758 f6bd 0189 e4be
00000370: 45e7 443d de72 eebe 1522 833d 9750 4d3d
00000380: e648 81bc 6728 273e 0a76 353e 5f5e 063e
00000390: fdbe 353e 2dd7 a1be 453c 463e 369b 9cbe
000003a0: 0b7a 95be 6871 03be 2a75 b93e 1ecd babd
000003b0: 6377 f5bd f6f2 86bd 7936 afbd 7364 7b3e
000003c0: d484 863e ecfb 66be 2441 bf3e 4eaa 8e3e
000003d0: 8d4f 893e 24d4 0ebb d4a9 b5be b646 793e
000003e0: 1063 92be da95 eabd 78f5 623c 4126 0e3e
000003f0: 9c11 80be 345a bdbe e946 213d b5cd efba
0.39865488 -0.16725509 -0.28815398 -0.02360356 0.36613172 0.041633952 0.0114193605 0.15188707
0.03533077 0.19706653 -0.11754922 -0.016920358 0.13672712 -0.39493987 -0.019669978 -0.091371365
0.20934287 -0.2321629 -0.23951258 0.026798135 -0.100770056 0.16941877 -0.05538679 -0.17034902
0.12750188 -0.47088778 0.33468065 0.3126353 0.06736097 0.14170487 -0.08180368 -0.44849172
-0.042035133 -0.406628 -0.4932101 -0.7198324 -0.038579494 -0.1356721 -0.3382601 0.15821421
-0.026250781 -0.20399928 -0.10650476 -0.3750339 -0.57251817 0.31487197 0.11950179 -0.2340103
-0.30682456 0.07489114 0.4714832 -0.093898244 -0.7145012 0.054404736 -0.022346238 -0.46156594
-0.3471779 0.27444726 0.044503417 0.07369388 0.23613596 -0.07259251 -0.03519474 0.039321724
-0.14736414 -0.291468 0.29847035 -0.2358187 0.010255493 0.03691993 -0.28099975 0.2974762
0.13226956 -0.12888446 -0.0031623624 -0.15724578 -0.33957013 -0.0950466 -0.22412626 -0.3065563
0.16037619 0.26439092 0.26407948 -0.077840775 -0.0008510696 -0.31777164 0.3463686 0.1987799
-0.29237503 0.17646521 0.17736551 -0.1636527 -0.09072245 -0.07049536 -0.2656527 -0.053042796
-0.37639615 0.014689526 0.047747765 -0.061282553 0.028460138 -0.6235038 -0.14969228 0.016603742
-0.21540934 -0.6403086 -0.09632021 0.27780688 0.14002499 0.088702396 -0.3983848 -0.3744358
0.21432745 0.09227885 -0.38684517 0.26916727 -0.098864086 -0.17459537 -0.444921 0.3227184
-0.015016625 0.043791942 0.17669442 -0.24024183 -0.40965393 -0.3419704 -0.14724834 0.1192492
0.2131012 0.05076243 -0.23098019 -0.087405115 -0.1725631 0.1463723 -0.5862528 -0.29768658
-0.43987864 0.24926408 -0.38743263 -2.2426386 -0.19487028 -1.4995437 -0.224924 -0.07198458
-0.21837264 0.01165265 -0.4881902 -0.60435504 -0.40767342 -0.14297275 -0.74823093 0.034913193
-0.17326947 -0.75274587 -0.27663282 -0.07892457 -0.111529216 -0.846587 -0.34281477 0.026683304
-0.19593132 -0.036680236 0.1948968 0.09087296 0.28179386 -0.05122974 0.019501911 0.25641888
-0.3724073 0.18150668 0.30015707 0.06874327 -0.1551155 -0.11866792 0.003977046 0.076045886
0.23524633 -0.06357398 0.3105044 -0.016680278 0.06602166 -0.30992132 -0.16299056 0.10708509
-0.22998907 -0.1376604 0.20092373 0.11886239 -0.14918463 -0.015062401 -0.2739699 0.31275913
-0.035421256 0.0054303287 -0.25601873 0.11451906 -0.26508904 -0.41730407 -0.8531528 -0.03043331
-0.5367698 -0.39018136 0.21071619 -0.29113105 -0.93963534 -1.0175849 0.03659632 -0.31950212
-0.03444431 0.19506778 -0.97432464 -0.10157805 -0.4060557 -0.13499133 -0.6394459 -0.24905825
-0.17681217 -1.3991992 -0.12028568 -0.44635776 0.04807212 -0.46572012 0.06402985 0.050125685
-0.015781831 0.16324006 0.1772081 0.13121937 0.17748637 -0.3160948 0.19358929 -0.30587167
-0.29194674 -0.1283623 0.36222202 -0.09121154 -0.11985662 -0.0658931 -0.08555312 0.24550037
0.26273215 -0.22557038 0.37354386 0.27864307 0.26818505 -0.0021793926 -0.3548113 0.2434338
-0.28591204 -0.11454363 0.01385247 0.1388178 -0.25013435 -0.36982882 0.039374266 -0.0018295558

sequential_1/lstm_2/Read_2/ReadVariableOp1 f4 [512]
00000000: 0ea0 023e b1ee cebd b8cb f5bb b0e2 a53d
00000010: 8b7f 97bc 2b1c bc3d 59f7 1abd ccfa 6e3d
00000020: 40c2 c0bd 5dc0 9dbd 3b36 b03e d8f3 e73d
00000030: 278b 50bd 2d8a 113e 10d1 0ebd 3b59 3f3d
00000040: 9851 0e3e 9d0c 84bd 6c6f 443d 4eb8 b83c
00000050: 0767 833c 949e 953e 0542 14bd 2e1f c8bc
00000060: f484 253d 8d64 553e a2aa 9e3c 0169 b6bc
00000070: 5054 b83e e6e9 1c3d 2ec4 80bd 3edf 713e
00000080: bc32 693e 2d5d d3bd 2a24 023d 856e ea3d
00000090: f8dc 8d3c 126f c9bc 0bf5 2fbd 5284 953c
000000a0: cdf4 bdbd ce9b adbd 6f50 03bd f4b4 303c
000000b0: ae7b f4bc f41c 7f3e 8d7b 183e c214 e4bd
000000c0: a95d 643c 884d 583e a2ab 96bd 8329 7abd
000000d0: 5c88 9e3e 97ac 763b 0684 9f3c 523c 08bd
000000e0: c81d a4bd 7c46 f9bd 1d11 c3bd 2de0 ddbd
000000f0: ceef 583d dc79 903e 7b1c 16bc 6cf1 7fbd
00000100: 1f71 c43d b373 073b fe59 2fbb 2e09 703d
00000110: 1b20 74bb f25a 10be b8a5 9b3d 49cd 7e3e
00000120: c73a c53b c2ce 55bd 3f53 fc3d e36b e1bc
00000130: f326 b9bd 47b2 7b3d 202c 543d 5b2d c4bd
00000140: 25db ac3e a88a 93bd 1ec6 25bc dd1c 60bd
00000150: 9100 e1bd 816f 2f3e b75e 8d3c 43ed 8d3d
00000160: 0d20 c5bd 5fa9 8c3b 9019 40bc 5e21 1bbd
00000170: 3066 edbc b148 c9bd b69a b83e 49a6 b7bb
00000180: b587 c63d e7f5 5d3d 4450 8b3e 6263 91bd
00000190: 3703 633c a71a 1cbd 339b c8bd 8807 18bd
000001a0: 5e3e 693d 6e1d 54bc 1768 17bd 8ab9 95bd
000001b0: a7e0 ab3c 84c5 6dbd 65b2 77bd b96c 193d
000001c0: 6a8a 8abd b594 a4bd 2777 ffbd 476c c6bd
000001d0: 843b 5e3c 1039 bcbd 4480 1ebe a517 d0bd
000001e0: 4d00 44bd caed 223d b0be f2bd 2cf0 29bc
000001f0: 6366 b03e 7083 b8bd db88 1ebb 6dc1 f53b
00000200: c090 493f c165 653f dc15 683f 22cb 593f
00000210: 9770 5e3f 2317 573f d89b 763f df07 7f3f
00000220: 996f 753f b033 893f fb98 3c3f 01e9 8f3f
00000230: b0c0 673f 5cf9 5e3f acf4 7a3f 44fc 753f
00000240: 9175 483f dad4 533f f239 693f 4fcb 873f
00000250: d654 893f 1652 393f c79a 963f 495e 6c3f
00000260: 00ee 5f3f 5730 643f 8088 5f3f a959 813f
00000270: bcf0 4f3f f28f 673f 1073 5a3f 1b4e 543f
00000280: 3e31 5a3f f1cb 793f 77a2 6f3f afd1 673f
00000290: 46db 5f3f 4879 803f 4f41 723f b622 623f
000002a0: 3d77 693f 0773 723f 39d0 7b3f 275c 5c3f
000002b0: b3d3 813f 7b4f 593f 559a 633f b00e 6e3f
000002c0: faec 833f 5e4a 503f 6525 6f3f f958 713f
000002d0: 3ddd 403f f8bd 753f 13c7 823f 7716 5a3f
000002e0: a739 6d3f 96af 783f 4d36 7a3f 4dd8 613f
000002f0: 70b4 803f 0a5c 513f e5e6 883f b4d2 733f
00000300: bcaa 593f d87d 7d3f 0875 783f 5ce9 8d3f
00000310: d6f7 7c3f 992d 613f a04f 4d3f 40cf 453f
00000320: 8e4c 6c3f 81cd 533f cf6f 8d3f ebd3 5e3f
00000330: 2986 6e3f c6e3 903f dd14 6f3f 0353 6e3f
00000340: 6cd7 4b3f 0362 723f 551c 893f 65fa 683f
00000350: f965 6d3f 2416 493f c9b2 823f 8e25 573f
00000360: 47e7 673f 07bf 603f e2e8 6f3f 54d2 863f
00000370: f9c9 703f 3646 753f a0ca 413f bbd5 733f
00000380: 883c 703f eb77 563f cd40 5c3f ed83 713f
00000390: bb5b 5d3f 9b0d 7d3f a4e9 6d3f 8ece 683f
000003a0: 3398 8b3f 7898 733f 439b 6d3f 97d3 803f
000003b0: a3a9 8d3f c795 7c3f beb5 783f e1cd 8f3f
000003c0: 6e13 6f3f 2b32 6b3f c9fd 603f f65d 703f
000003d0: f024 6b3f 2455 653f 7ad3 653f 57bd 663f
000003e0: 5023 8b3f 2eed 8e3f 09a8 683f 271f 5c3f
000003f0: 0e53 453f b8f1 6b3f d1e5 7c3f 1d78 573f
0.12756369 -0.101041205 -0.007501092 0.08099878 -0.018493434 0.0918506 -0.037833545 0.058344647
-0.0941205 -0.07702706 0.34416375 0.113258064 -0.050913956 0.14212866 -0.034867346 0.046715956
0.13898313 -0.06447718 0.047957823 0.02254882 0.016040338 0.29222548 -0.036195774 -0.02442893
0.040409997 0.20839138 0.019368473 -0.022266867 0.36001825 0.038309 -0.06287418 0.23620316
0.2277326 -0.10320506 0.03177277 0.11446861 0.01731728 -0.024589095 -0.0429583 0.018251572
-0.09275208 -0.08476983 -0.03205913 0.01078533 -0.029844131 0.24913388 0.14890881 -0.11136772
0.013938346 0.21123326 -0.07356955 -0.061074745 0.3096341 0.0037639493 0.019472133 -0.03326065
-0.08013493 -0.12171647 -0.095247485 -0.10833774 0.05296307 0.2821797 -0.009162064 -0.062486097
0.09591889 0.0020668327 -0.002675652 0.058602504 -0.0037250582 -0.14097193 0.07599968 0.24882998
0.0060189697 -0.052199133 0.123205654 -0.027517265 -0.09040632 0.061449315 0.051799893 -0.09578963
0.33760944 -0.07204181 -0.010118036 -0.054715026 -0.10986436 0.17132379 0.017257078 0.0693002
-0.09625254 0.0042926515 -0.011724845 -0.03787362 -0.02897939 -0.09828318 0.36055535 -0.0056045395
0.09693853 0.05418959 0.27209675 -0.07099034 0.013855747 -0.038111355 -0.09795227 -0.037116557
0.056944244 -0.01294647 -0.036964502 -0.073107794 0.020981146 -0.058049694 -0.060472865 0.0374572
-0.06764682 -0.08036176 -0.124738984 -0.09688621 0.013563994 -0.09190571 -0.15478617 -0.1016076
-0.04785185 0.039777555 -0.11852777 -0.010372203 0.34453115 -0.09009445 -0.002419046 0.007499865
0.78736496 0.8960839 0.90658355 0.8507558 0.8689055 0.8401968 0.9633155 0.99621385
0.9587341 1.0718899 0.7367093 1.1242982 0.9052839 0.8709924 0.9802959 0.9608805
0.7830439 0.8274666 0.9110404 1.060892 1.0729015 0.7239088 1.1765984 0.9233137
0.87472534 0.8913626 0.8731766 1.0105487 0.81226707 0.9045402 0.8533182 0.8293168
0.8523139 0.97576815 0.93607277 0.90554327 0.8744396 1.0037012 0.94630903 0.88334215
0.9119757 0.9470677 0.983646 0.86078113 1.014273 0.848869 0.88907367 0.9299116
1.0306695 0.81363475 0.93416435 0.94276386 0.7533758 0.95992994 1.0217003 0.8519053
0.92666095 0.9714292 0.97739106 0.88220674 1.0055065 0.81781065 1.0695463 0.9524338
0.85026145 0.9902015 0.97053576 1.1086841 0.9881567 0.879602 0.80199623 0.77269363
0.92304313 0.8273545 1.1049746 0.8704211 0.9317346 1.1319511 0.9339121 0.93095416
0.7962558 0.94680804 1.0711771 0.9100707 0.9273372 0.7854941 1.0210811 0.8404168
0.90587276 0.87791485 0.93714726 1.0532937 0.94058186 0.9581026 0.75699806 0.95248
0.93842363 0.8377673 0.8603638 0.9434193 0.86468095 0.98848885 0.9293463 0.9094018
1.0905823 0.95154524 0.92815036 1.0064572 1.1067394 0.9866604 0.97152317 1.1234704
0.9338902 0.91873425 0.87887245 0.93893373 0.9185324 0.8958304 0.8977581 0.9013266
1.0870152 1.1166131 0.908814 0.85985035 0.77079856 0.9216571 0.9878817 0.84167653

while/MatMul_11 f4 [512, 128]
00000000: 27bc 243d fb25 de3d f1ac 82bd 6e80 1a3e
00000010: 808b fc3b 02e3 87bd b4e2 90bc 358c ad3d
00000020: 5ea8 e2bd e64a 9c3e b7d5 5dbd 39c3 21be
00000030: ec6d 633e b701 2dbe b5ed 0bbe 9c40 d1bd
00000040: 206c 7d3d 88ab 443b 53a8 1f3d 9d8d 89be
00000050: 9819 543e 883f afbd 6ed3 1bbe 1389 823d
00000060: e005 f8bc 1da1 cabb 9139 37bc 3305 be3d
00000070: 6365 13be 4f6b 86bc bc30 d73c b0dc d03d
00000080: ce08 05be 3da8 1c3e 41e0 8e3d 91fe 1ebe
00000090: 0966 653b 3a5e 3bbb 3b7a e83d a61b 22be
000000a0: d7e3 dfbd 8b92 03be 82be 213e 74de 943c
000000b0: 36e2 1f3e a5d5 36be 74d0 193e 432c 46bd
000000c0: 5db9 3abe 5dfd 1dbe c419 b93d d061 62be
000000d0: 9344 713e f85b 3abe 4020 633e eb59 e23c
000000e0: e365 b0bd 6a33 cc3d 2cb8 ef3c b89e c7bd
000000f0: 22e1 63be 95a9 81bd 780d 7b3e 6349 ee3c
00000100: 0ec7 06be 55dd 5dbe 0fac b93c c9a9 2d3e
00000110: 181b 72be 906c c1bc 2788 32be d44b cbbc
00000120: d28b 283d e1b9 a53d 5efa 9cbe b5f6 01be
00000130: 42c7 b23d 7b7e 9a3e 3415 a13d 3d4f 513b
00000140: f587 08bd f2f2 15be 71ae 4d3e 0f32 a8bc
00000150: 4516 e1bd 2475 4d3d 7670 e83d 5620 6e3c
00000160: 55a3 0ebd 6138 f7bd 6a63 adbd ecea 31be
00000170: 50d1 38bc 94f5 133e f0e8 4bbb 8cf4 70bd
00000180: 51b0 6ebe 1c31 863c e487 21be 1c91 7abd
00000190: 4f34 8b3c d725 113c da83 72bd f0c8 133e
000001a0: 25d8 69be c6a8 8bbc 2c61 d7bd 1288 123e
000001b0: 9f4d 5c3e 7e20 f03d ccc0 7dbc 13e9 6c3e
000001c0: ed84 703b bb95 9cbd aed0 3f3d 2239 49be
000001d0: 9d0e 68be b4c7 3d3d ebe6 8db8 d932 3dbc
000001e0: c5e0 3abe 766f 2abe 2321 d6bd 1ce6 cf3d
000001f0: 76d7 32bd ac8b a43c 9db1 4e3e 940b a83d
00000200: dd26 a1bc 2158 96bd 4e2b fc3d 0c23 80bd
00000210: 63b2 3fbd 071c bebd 6eb3 2fbd 8410 6abe
00000220: 929b 523d 9b0f 99bd 4ac1 593c c310 ac3d
00000230: 9b18 afbd 063f 80bd 0ac4 063e 6333 f1bd
00000240: c477 00bd e46c a3bc 5d62 d6bd 9bee 7cba
00000250: 823f 66bd 6982 52bd 6de5 e53d 683b 3bbd
00000260: c60a c2bd 8915 843d 3403 a53d ab44 093d
00000270: 6d34 be3c 532c 25bd bf0f 353d 8348 be3d
00000280: 552e 9abd 506b 0ebd 04af 933b 2a8c 5cbd
00000290: cf7f 40bd c4c7 eb3c 86d9 10be 269e ffbc
000002a0: 7209 8a3c 828a 5cb8 7263 13bd 58dd 4fbd
000002b0: ad16 b73c bffe 13bd 1ad6 b93d 00b8 a33d
000002c0: 136c 213e 5a04 84bc fd9e 15be 5e85 083e
000002d0: 812e 593d ff39 09be 8862 e5bc 7a25 113d
000002e0: d857 86bd 3fb2 09be 0d0d 8fbd 110e ab3d
000002f0: d1b1 583d 2d29 8fbd a86e abbc e5c8 84bd
00000300: e374 a23d 2511 293d c711 263d 9a35 48be
00000310: bf19 fa3d f664 803d 681b 65bc a300 10bd
00000320: f341 08be 71ae 663c 7477 5b3d 4762 69bd
00000330: 8873 08bd 38d9 c8bd 5fef 83bd 3ce7 9f3c
00000340: eb14 31bd cfd0 df3c fdbb b2bc c2b6 a1bd
00000350: 0f8f 033e fa6b 85bb 3971 13be d884 d23c
00000360: 52fa f53c 8563 0d3e 1108 ca3d 1966 b33d
00000370: 4e52 7dbd 7a11 a3bc 9637 413d 9195 0fbd
00000380: aa1e 95bd 244d ea3c cc5e 783d f5bd bdbc
00000390: d658 c1bd 1979 0d3e 1b06 bd3d beb0 3abc
000003a0: e56f 193e dd5f 64bc cea6 6cbd e295 04be
000003b0: 4788 4fbd c706 f3bd 0c79 953c 3808 58bd
000003c0: 04c8 ecbb 13b8 8fba a728 11bd bebb cd3d
000003d0: d30b df3d 821c 2dbc 3d5d 013d f20c 15bd
000003e0: feb1 0e3e b471 f43d a8fa 2a3d e0b2 fdbb
000003f0: 3568 77bc cbcf f43a 03b2 46bd 44f8 80bc
0.0402185 0.10847088 -0.06380642 0.15088055 0.0077070594 -0.06635095 -0.017686225 0.08474008
-0.1106727 0.30525893 -0.054158892 -0.15797128 0.222099 -0.16895185 -0.13664897 -0.102174014
0.061870694 0.0030009467 0.038978886 -0.26865855 0.20712888 -0.085570395 -0.15217373 0.06373801
-0.030276239 -0.006183757 -0.0111831585 0.092783354 -0.14394145 -0.01640859 0.026268356 0.10198343
-0.1299164 0.15298553 0.06976367 -0.15526797 0.0035003445 -0.00285901 0.113514386 -0.1583086
-0.10932129 -0.1284887 0.15795329 0.01817248 0.15613636 -0.17854936 0.15020925 -0.048382055
-0.18234773 -0.15428682 0.090381175 -0.22107625 0.23561315 -0.18199146 0.22180271 0.027630767
-0.08613183 0.09970744 0.029262625 -0.0974707 -0.2225385 -0.06331173 0.24516857 0.029087728
-0.13161871 -0.21666463 0.022665052 0.16959299 -0.23643148 -0.023611337 -0.1743475 -0.024816431
0.041148968 0.08092094 -0.30659765 -0.12691768 0.08729412 0.30174622 0.07865372 0.00319381
-0.033332784 -0.14643458 0.20086075 -0.020531682 -0.10990576 0.050160542 0.11349575 0.014534077
-0.034823734 -0.120713 -0.08466227 -0.17374772 -0.011280373 0.1444915 -0.0031114183 -0.058826968
-0.23309447 0.016380839 -0.15774494 -0.061173543 0.016992716 0.008859119 -0.059207775 0.1443212
-0.22836359 -0.01704825 -0.10516581 0.14309719 0.21513985 0.117249474 -0.015487861 0.23135786
0.0036700324 -0.07645746 0.04682987 -0.196507 -0.22661825 0.04633303 -6.766416e-05 -0.011547768
-0.18249805 -0.16644081 -0.10455539 0.10151312 -0.04366251 0.020086132 0.20184942 0.08205333
-0.019671852 -0.07341028 0.12312947 -0.06256685 -0.046800982 -0.092826895 -0.042895727 -0.22857863
0.051417895 -0.0747368 0.013290713 0.084016345 -0.08549615 -0.06262021 0.1316072 -0.11777379
-0.031364217 -0.019949384 -0.1046798 -0.0009648592 -0.05621291 -0.0513939 0.112254 -0.04571095
-0.09474711 0.0644942 0.080572516 0.033512753 0.023218358 -0.040325474 0.04420447 0.09291174
-0.075283684 -0.03477031 0.0045069475 -0.05384461 -0.046996888 0.02878178 -0.14145479 -0.03120334
0.016850207 -5.2581083e-05 -0.03598351 -0.0507482 0.02234968 -0.036131617 0.0907404 0.079940796
0.15763883 -0.016115356 -0.1461143 0.13332126 0.053022865 -0.1340103 -0.028001085 0.03543613
-0.065597236 -0.13446902 -0.06984911 0.08352292 0.052903954 -0.069902755 -0.020926788 -0.0648363
0.079324506 0.041276116 0.040544298 -0.19551697 0.12211942 0.06269257 -0.013983585 -0.035156857
-0.13306408 0.014079676 0.053580716 -0.05697849 -0.033313304 -0.09807056 -0.06442141 0.01951944
-0.04323284 0.027321247 -0.021818155 -0.078961864 0.12847541 -0.0040717097 -0.1439866 0.02569811
0.030026589 0.13807495 0.0986482 0.08759708 -0.06184607 -0.019905794 0.04717215 -0.035054747
-0.07281239 0.028601237 0.06063728 -0.023161868 -0.09440772 0.13815726 0.0922968 -0.011394678
0.1498409 -0.013938871 -0.057776265 -0.12947801 -0.050667074 -0.11866527 0.018246196 -0.052742213
-0.007225992 -0.0010964893 -0.03543916 0.100455746 0.10890927 -0.010565879 0.03158306 -0.0363893
0.13935086 0.1193575 0.04174295 -0.007742271 -0.0151005285 0.001867765 -0.04850961 -0.015743382

while/MatMul f4 [512, 9]
00000000: fa1e 3d3e 2791 7e3e 9123 093e 98f7 d53d
00000010: 416c 383d 57b2 7d3e 297c 8ebd d4e2 ed3d
00000020: 435f 133e 5aa2 17bd b0a1 fdbd 273d 80bd
00000030: 1ef6 a2bd 94b9 f7bd af86 b6bc 94a1 99be
00000040: 55e4 a8bc b2a2 cebd af29 aa3d a612 ac3d
00000050: 0d15 49bc 568d d9bd c2f5 033d efad bd3d
00000060: 40a0 fbbc ed64 53bc cc60 6b3e 86fb bc3d
00000070: aa90 de3d f9a8 373e 8f80 ef3d 0be5 b53d
00000080: cb14 c23c 228d ae3c b50c b23c c11e 873e
00000090: bfbe 43bd 3d86 02bd 3a48 94bc 2fa8 1cbd
000000a0: bbb3 103d 0747 733d 3658 0cbc 62ec 1b3d
000000b0: 6c2b 283d 22a9 fa3d 60bc 123e 7521 a03d
000000c0: 55f7 fe3d 323b 983c f0a5 2e3e a9a8 753d
000000d0: 4a38 9a3d 6939 fe3d 4ab7 9fbb b0ac 16be
000000e0: 0e8b 403c a8cc 5dbd ea9b 95bc 6aa1 3bbd
000000f0: 74c9 733d cb9a 093e 9081 86bb 98e5 eb3c
00000100: 32d5 ddbc 0a77 693e 6d0e f83d 13e3 21bd
00000110: 3c70 2fbc a4a1 1a3e 675e 89be 29c8 143e
00000120: 0515 dbbc 7c1f a83c 7d1c 38be eece 40be
00000130: 96fe 27be 52b2 473d fa2e 9ebd b458 20be
00000140: 006e 33bd 6eb2 ea3c 1cf9 05bd 8635 35be
00000150: 5c86 9fbd 656b 87bd 5f25 91bc fb7e ef3c
00000160: c7d8 c8bd a3e3 f9bd 24e3 ee3e ee9b dc3e
00000170: 7bee b43e b8d1 a03e 3dca e93e f8b8 ba3e
00000180: a1af e93d e08a 9f3e 45cf 9d3e 1ab5 2b3e
00000190: 555a b23d 2efd 0c3e 06a0 263e daa5 853d
000001a0: ead7 543e a0cf 253d 22af ab3d d918 c23b
000001b0: ad59 95bd da48 d2bd d1fc c4bd 0fa5 443c
000001c0: 3370 023d 7788 93bc 1534 bcbd 80ce 28be
000001d0: de55 f53d 24c4 143e e030 993d bc02 53bd
000001e0: 1409 1a3e 09da 443e 2ace 463e 7511 623e
000001f0: a96a 8d3e 1026 7d3d ac96 2cbe 5244 06be
00000200: f2a8 6fbd 4a4a 12bd 9dd2 dfbd a21b 64be
00000210: a646 52be f256 37be fb6e 41be 0ab4 173e
00000220: 17a3 e33d b840 d13c 32de c13d e035 9c3b
00000230: 774c e63d 1f2a 71bd f8eb 543d 6d13 97be
00000240: 0381 8c3d 7f16 433e 25b9 4c3e cbf3 a63d
00000250: d97e 003e 3952 103e df5b 0a3e fd9a ba3d
00000260: 2717 833d d486 07be 1ff7 7c3d 7e1b e73c
00000270: 6b16 a0ba d420 52bd c828 883c a2ca 96bd
00000280: 0011 a73d 21f2 34bd 0279 023e 26ec 483e
00000290: 2f04 043d 8cea 733c f38d aa3d 62a4 233e
000002a0: 6e43 5b3d c1fd a53c eb8f 803e e1a5 0bbd
000002b0: a647 6e3c 038f 343d 08fe 9dbd dfc2 8cbd
000002c0: b12e e7bb 0180 b43d df7c 83bd 9462 36be
000002d0: 1cc9 853d 839f 33bd a36c dabc f1ff 873d
000002e0: 742c db3d 4121 78bd 929c e4bd e964 363d
000002f0: e39c ebbd 4367 b23e 90cd d73e 2246 7a3e
00000300: d55e bf3e 0fe7 8d3e e964 b23e a6dc 023e
00000310: bc81 653e 4b98 bb3e 2737 963e 6317 013e
00000320: 4512 04be 3693 d4bc 6374 473e 18c6 9d3d
00000330: 80ad a43d b870 31be 2a95 65bd ebdd 933d
00000340: 6755 7bbc 5583 d73d 75a0 86bd c41f 57bd
00000350: 9bef afbd 0dee 84bd 5fe0 063e d82b 3c3e
00000360: bebd c93d 0eed bebb ca25 363d f153 e73d
00000370: 46a7 a5bd e5a2 9fbd 5dae bd3c 2083 173d
00000380: df6c 2d3e 5748 6e3e ea0e 883e b000 0f3e
00000390: e69d 063e 7557 7b3e c7a8 203e 0cd4 dd3d
000003a0: 7d86 5b3e 1350 8b3e 6acf 9e3d 69ff a83d
000003b0: 2022 63bb e6fd e93c 7b00 493e 96cd 3a3e
000003c0: 2719 2f3e 8994 aebd 11a9 a93d 5212 21bd
000003d0: dae7 cc3d 7031 c83d 7d17 d33d 65f1 e8bd
000003e0: 7e4f 12bd 703d e5be 7623 2bbd c290 7dbd
000003f0: 4a93 c03e e091 063f 12fe c13e 4103 803e
0.18468848 0.24860059 0.13392474 0.104476154 0.045025114 0.24775063 -0.069572754 0.1161553
0.14391808 -0.037020065 -0.12384355 -0.06261664 -0.079570994 -0.12095943 -0.022281019 -0.30006087
-0.02061669 -0.100896254 0.08308732 0.084019944 -0.012273085 -0.10622661 0.032216795 0.09261691
-0.030716062 -0.012902481 0.22986144 0.09227662 0.10867436 0.17935552 0.116944425 0.08881577
0.023691555 0.021307532 0.021734575 0.2639065 -0.04778933 -0.0318663 -0.018100847 -0.03824633
0.035327654 0.05939391 -0.008565953 0.03806723 0.041057035 0.12239291 0.14329672 0.078188814
0.124495186 0.018582914 0.17055488 0.0599753 0.075302675 0.12413294 -0.0048741447 -0.14714313
0.011751903 -0.054150254 -0.018262822 -0.045808233 0.059518293 0.13437955 -0.0041048005 0.028796002
-0.027079199 0.22799316 0.121121265 -0.039523195 -0.010707911 0.15100724 -0.26829836 0.1452948
-0.026743421 0.020522825 -0.17979617 -0.18828937 -0.1640571 0.048754044 -0.07723804 -0.15658838
-0.043806076 0.028649535 -0.032708272 -0.17696199 -0.07789299 -0.06612281 -0.017718015 0.029235354
-0.09806972 -0.122016214 0.4665767 0.43087715 0.35338196 0.31410003 0.45662108 0.36469245
0.11410452 0.3116064 0.30822197 0.16768304 0.08708636 0.13768455 0.16271982 0.06525774
0.2078549 0.04048121 0.08383013 0.005923372 -0.07292495 -0.102678016 -0.096185334 0.012002244
0.031845283 -0.018009407 -0.09189621 -0.16485023 0.119792685 0.14527947 0.07480025 -0.05151628
0.15042526 0.19223799 0.19414583 0.22076972 0.27620438 0.061803877 -0.16854352 -0.13112
-0.05851073 -0.03571538 -0.10928843 -0.22276166 -0.20534763 -0.17904261 -0.18889992 0.14814773
0.11115091 0.025543556 0.094662085 0.0047671646 0.11245053 -0.05887806 0.05198285 -0.29507008
0.068605445 0.1905155 0.19992502 0.081519686 0.12548389 0.14093865 0.13511609 0.09111593
0.064009 -0.13235027 0.06175911 0.028211351 -0.0012213712 -0.05130084 0.016621009 -0.07362868
0.08157539 -0.044176225 0.12741473 0.19621333 0.032230552 0.014887463 0.08327856 0.15980676
0.053531103 0.0202626 0.251098 -0.03409374 0.0145434495 0.0440817 -0.07714468 -0.06873106
-0.0070551266 0.08813477 -0.06420302 -0.17811042 0.06532499 -0.043853294 -0.02666313 0.06640614
0.10701838 -0.06057859 -0.11162676 0.04452983 -0.11504533 0.34844407 0.4214902 0.24440816
0.3737704 0.27715346 0.34842613 0.12779483 0.22412771 0.36639628 0.29338953 0.12606578
-0.12897594 -0.025949102 0.19477992 0.07703799 0.08040905 -0.17328155 -0.056050457 0.07220062
-0.015340186 0.105230965 -0.065735735 -0.05252053 -0.08590623 -0.06490717 0.13171528 0.183761
0.098506436 -0.005826599 0.044469632 0.112953074 -0.080885455 -0.077947415 0.023154432 0.036990285
0.16936062 0.23269783 0.2657388 0.13965106 0.13146171 0.24545081 0.15689383 0.1083146
0.21438022 0.2720953 0.07754405 0.082518406 -0.0034657791 0.028563451 0.1962909 0.18242487
0.17099439 -0.085244246 0.082842 -0.039324112 0.1000516 0.097750545 0.103072144 -0.11374167
-0.03572034 -0.44773436 -0.041781865 -0.06190563 0.37612373 0.5256634 0.37889153 0.25002483
