app/src/main/assets/model/weather_7days_forecast_feature.tflite (tflite, 177856 bytes, 26 tensors)

model_1/dense_1/BiasAdd/ReadVariableOp f4 [9]
0.0014420499 0.010532281 -0.014432518 0.015545689 0.02665187 -0.02466867 0.008532781 -0.015048684
0.009399245
00000000: 2a03 bd3a 978f 2c3c 5e76 6cbc 58b3 7e3c
00000010: 0655 da3c f315 cabc 14cd 0b3c c18e 76bc
00000020: 4aff 193c

model_1/dense_1/Tensordot/MatMul1 f4 [9, 64]
-0.2635816 0.1063993 0.1306587 -0.14851569 0.025302224 -0.1583557 -0.17753197 -0.17451385
-0.15436463 -0.1810026 -0.20630369 -0.19900155 0.019475032 0.10806558 -0.07355418 -0.06398817
0.124647714 0.24464582 0.19841488 -0.20682237 0.16815639 -0.12430838 -0.038503297 0.37840092
0.23974414 -0.1561681 -0.047173038 0.09765658 -0.24265575 0.027585698 0.16751021 -0.26704323
0.06756169 0.2273573 -0.088169776 -0.1208583 -0.13171157 0.03744749 0.20806243 0.06886075
0.11932322 0.032195337 -0.016866876 -0.10172571 -0.06772569 -0.049124558 0.19326462 0.20526707
-0.07279335 0.20416974 -0.17302157 -0.2003838 0.05475635 -0.18221465 -0.087345794 0.043220546
-0.1361582 -0.10265865 -0.012802459 0.033447735 -0.23498835 0.17121056 0.15125619 0.14750026
-0.283879 0.02855681 0.13768512 0.21191928 0.1432254 0.07698646 0.22731385 -0.17024691
-0.16665404 -0.21702577 -0.15464489 -0.07802791 -0.006112217 -0.08334689 0.17418408 0.09013215
0.013356643 0.005299022 0.15605338 -0.14613612 0.1320179 -0.2421208 -0.09872974 0.4203538
0.11478162 -0.10677613 0.0109342 -0.06336227 -0.14073072 0.026610432 -0.10319036 0.16005261
0.11721711 0.19241937 -0.04611713 -0.041336674 0.1049612 -0.34002015 -0.14101847 0.09034387
0.073394686 0.06805856 0.06755726 -0.029081205 0.11751539 0.12035339 -0.058157668 0.1152255
-0.43897355 -0.003357816 -0.25133803 -0.29530582 -0.06593608 0.012831639 0.18390284 -0.017690388
-0.19651689 -0.22557692 -0.06274691 -0.13262603 -0.11542919 0.029748106 -0.11165925 -0.1668891
0.3181881 -0.12728652 -0.28102574 0.25219724 -0.4074863 0.13049753 -0.08659898 -0.05809215
-0.27617043 0.31831202 0.03699044 -0.240004 -0.23850234 0.14600098 0.052051593 0.30857852
0.108368024 0.29326227 0.35642532 -0.31774884 0.33687556 0.03262355 0.014354211 0.29433447
0.087295234 0.20950264 -0.13851556 0.029157178 0.31450096 0.12989222 0.102418795 0.21367763
0.084415905 0.05042961 0.35245803 0.3633879 0.39767578 0.25679174 -0.2724387 0.0016801516
0.19048013 -0.0512626 0.14198686 -0.26558954 0.14407514 0.17610213 0.21841222 -0.15099736
-0.1506106 0.20091395 0.36838463 -0.018333523 -0.17074335 0.3141355 -0.1216525 0.06523259
0.028939025 -0.20848861 0.3621925 -0.04066762 -0.1590667 0.15254039 -0.1572245 -0.06594482
-0.14375284 0.028942347 -0.049521446 -0.044793494 0.16454525 0.006370908 0.20399183 -0.060126644
0.16936211 0.3153051 -0.14977327 0.20328057 0.19601628 -0.042118274 -0.06674542 0.20469692
-0.16066465 0.16599013 0.1167874 -0.15500937 -0.21450318 0.056046855 0.008839189 -0.34179968
0.0827094 0.06969235 -0.034750413 -0.16903682 0.01038552 0.11205293 -0.24047151 0.25945523
-0.012322546 -0.28918654 -0.12991324 -0.068045594 0.3359342 0.30705243 -0.09646325 -0.08711121
-0.2980078 0.30567595 0.31719765 -0.20565274 0.22323568 -0.1288479 -0.05782235 -0.15754624
0.30505577 -0.11065686 -0.08311533 0.2774779 0.08307132 0.22873177 -0.20453818 -0.09001816
-0.050569065 -0.09463295 -0.45436352 0.23511478 0.21544108 0.13535844 -0.14074804 -0.18940666
00000000: 2bf4 86be e0e7 d93d 65cb 053e 7f14 18be
00000010: 9c46 cf3c ff27 22be f1ca 35be c2b3 32be
00000020: c311 1ebe bf58 39be 4641 53be 10c7 4bbe
00000030: 1a8a 9f3c 7d51 dd3d 93a3 96bd 3b0c 83bd
00000040: 4d47 ff3d 6f84 7a3e 452d 4b3e 3ec9 53be
00000050: 3031 2c3e 6495 febd a2b5 1dbd c4bd c13e
00000060: 7d7f 753e 88ea 1fbe 8438 41bd 2c00 c83d
00000070: c07a 78be 67fb e13c cc87 2b3e e4b9 88be
00000080: c95d 8a3d 5ad0 683e 5b92 b4bd 8e84 f7bd
00000090: 66df 06be 8a62 193d 510e 553e dd06 8d3d
000000a0: bb5f f43d 42df 033d 672c 8abc 9255 d0bd
000000b0: c4b3 8abd d536 49bd 29e7 453e 8831 523e
000000c0: ae14 95bd df11 513e 912c 31be 6931 4dbe
000000d0: 3248 603d 7a96 3abe 5ae2 b2bd 0708 313d
000000e0: 0e6d 0bbe b33e d2bd 68c1 51bc 7e00 093d
000000f0: c9a0 70be d251 2f3e e7e2 1a3e 4f0a 173e
00000100: 9758 91be f9ef e93c 54fd 0c3e 5e01 593e
00000110: aea9 123e 14ab 9d3d f6c4 683e 3555 2ebe
00000120: 5ba7 2abe 013c 5ebe 3b5b 1ebe 19cd 9fbd
00000130: fe48 c8bb c6b1 aabd 505d 323e 3497 b83d
00000140: d2d5 5a3c 6ba3 ad3b 75cc 1f3e b5a4 15be
00000150: b32f 073e 84ee 77be d132 cabd 9d38 d73e
00000160: a012 eb3d 72ad dabd 5c25 333c 14c4 81bd
00000170: b71b 10be 1ffe d93c 7855 d3bd d5e4 233e
00000180: 860f f03d 9509 453e 51e5 3cbd a550 29bd
00000190: e6f5 d63d 1f17 aebe 2567 10be 3506 b93d
000001a0: f44f 963d 4962 8b3d 765b 8a3d b53b eebc
000001b0: e9ab f03d d77b f63d bc36 6ebd 59fb eb3d
000001c0: 24c1 e0be ce0e 5cbb 61af 80be 5332 97be
000001d0: 7f09 87bd cb3b 523c 0751 3c3e 6feb 90bc
000001e0: b93b 49be a3fd 66be 7481 80bd 1ecf 07be
000001f0: 2466 ecbd 4db2 f33c 9bad e4bd fae4 2abe
00000200: 8de9 a23e 6657 02be 9be2 8fbe ff1f 813e
00000210: 0ba2 d0be 25a1 053e ce5a b1bd 09f2 6dbd
00000220: 3666 8dbe cbf9 a23e 4a83 173d 9cc3 75be
00000230: f539 74be 4881 153e 0d34 553d 01fe 9d3e
00000240: 0ef0 dd3d 7926 963e 617d b63e faaf a2be
00000250: f47a ac3e 46a0 053d ed2d 6b3c 02b3 963e
00000260: d8c7 b23d dc87 563e 06d7 0dbe 09db ee3c
00000270: 4506 a13e 7702 053e f2c0 d13d 4fce 5a3e
00000280: 3fe2 ac3d 478f 4e3d 6175 b43e fb0d ba3e
00000290: 299c cb3e 357a 833e 167d 8bbe 8838 dc3a
000002a0: 390d 433e bbf8 51bd 0165 113e 5afb 87be
000002b0: 6f88 133e 1e54 343e 74a7 5f3e 0d9f 1abe
000002c0: aa39 1abe 63bc 4d3e e99c bc3e 2f30 96bc
000002d0: 58d7 2ebe 5ed6 a03e f224 f9bd aa98 853d
000002e0: 8911 ed3c 0a7e 55be 4c71 b93e 1793 26bd
000002f0: 62e2 22be 8c33 1c3e 76ff 20be 140e 87bd
00000300: f233 13be 8018 ed3c 00d7 4abd 6279 37bd
00000310: 8d7e 283e 0dc3 d03b 3ce3 503e 5b47 76bd
00000320: 436d 2d3e ac6f a13e 2a5e 19be c828 503e
00000330: 7eb8 483e 3684 2cbd d3b1 88bd 129c 513e
00000340: 4685 24be 51f9 293e 3b2e ef3d c7ba 1ebe
00000350: b9a6 5bbe 6391 653d 3fd2 103c 5e00 afbe
00000360: 8c63 a93d ddba 8e3d 7356 0ebd fd17 2dbe
00000370: 0728 2a3c 027c e53d 2a3e 76be 51d7 843e
00000380: 81e4 49bc 4210 94be fa07 05be 7d5b 8bbd
00000390: 91ff ab3e fa35 9d3e 868e c5bd 5d67 b2bd
000003a0: 7a94 98be 8f81 9c3e bb67 a23e a296 52be
000003b0: e597 643e b4f0 03be 21d7 6cbd cd53 21be
000003c0: 4530 9c3e 10a0 e2bd 5f38 aabd 9511 8e3e
000003d0: 4c21 aa3d a938 6a3e 7572 51be 715b b8bd
000003e0: 8221 4fbd ecce c1bd 56a2 e8be eec1 703e
000003f0: 969c 5c3e 679b 0a3e 4120 10be d2f3 41be

model_1/lstm_2/while/lstm_cell/split_1 f4 [64]
0.20946707 0.12357723 0.13898134 -0.013107489 0.15936539 0.019213213 0.019313483 0.058934283
0.060207695 0.051214308 0.06705068 0.028007977 0.07488944 0.056033738 0.039768722 -0.03989072
0.021787155 0.02192979 0.07980707 0.061541513 0.013501939 0.05409996 0.08118615 -0.037656907
0.03696369 -0.011266324 0.026607657 0.05579537 -0.046244092 0.07670125 -0.023602406 0.048554976
0.07312478 0.06518798 0.04647545 0.052718543 0.014098685 0.04084743 0.053017877 0.05740712
0.07712567 0.13300854 0.089129634 0.04512648 0.024106303 0.015789878 0.019268004 0.089812525
-0.018812452 -0.0053124186 0.03519403 0.036341906 0.095077716 0.07742298 0.00044673303 0.008815431
-0.0378165 0.120989315 0.078458115 0.087855294 0.02201579 -0.0004833552 0.053017385 -0.023298945
00000000: 897e 563e 0f16 fd3d 2051 0e3e cbc0 56bc
00000010: ae30 233e 0765 9d3c 4f37 9e3c 1365 713d
00000020: 589c 763d 18c6 513d de51 893d fc70 e53c
00000030: a25f 993d a283 653d 87e4 223d 7464 23bd
00000040: fa7a b23c 1aa6 b33c e471 a33d f412 7c3d
00000050: 3d37 5d3c eb97 5d3d ed44 a63d 213e 1abd
00000060: 3d67 173d 6396 38bc 4df8 d93c b089 643d
00000070: 726a 3dbd 8c15 9d3d d559 c1bc 95e1 463d
00000080: 72c2 953d 4781 853d 0b5d 3e3d 66ef 573d
00000090: 2cfe 663c a24f 273d 4629 593d ba23 6b3d
000000a0: 10f4 9d3d 6433 083e 9989 b63d 8bd6 383d
000000b0: 957a c53c c659 813c efd7 9d3c a1ef b73d
000000c0: 921c 9abc cc13 aebb 9d27 103d 40db 143d
000000d0: 1bb8 c23d f08f 9e3d 7e37 ea39 996e 103c
000000e0: 79e5 1abd 3fc9 f73d a6ae a03d 7aed b33d
000000f0: 755a b43c d66a fdb9 c228 593d 6edd bebc

model_1/lstm_2/while/lstm_cell/split_11 f4 [64]
-0.12927169 0.017070038 -0.061540026 -0.025266917 -0.098116435 0.05509545 0.059697077 0.040169667
0.0002669937 -0.061744723 -0.025917975 0.07880003 0.044933364 0.06840904 -0.07406404 0.004369766
-0.1577431 -0.07550247 0.020870717 0.01593821 -0.007951138 -0.12068467 0.002512634 -0.21622387
-0.03310658 0.058348693 0.005765272 0.055071775 -0.06457297 -0.036684778 0.0543411 0.10186334
0.06539977 0.07038524 0.12134298 -0.08733436 0.069548845 0.08812593 -0.07160093 -0.06513786
0.03874104 0.078649014 0.08132866 -0.08294967 0.044357203 0.00050026306 -0.019156987 -0.04783861
0.1432016 0.025676774 -0.019693717 -0.026620122 -0.2732604 -0.17755315 0.046689756 0.01438676
0.20997694 -0.039924 0.07556021 -0.045829166 0.06315194 -0.022550145 0.013159308 0.027805401
00000000: cc5f 04be 77d6 8b3c 6511 7cbd 91fc cebc
00000010: 45f1 c8bd c4ab 613d ec84 743d f388 243d
00000020: 4afb 8b39 09e8 7cbd ef51 d4bc e961 a13d
00000030: 0c0c 383d 0a1a 8c3d e3ae 97bd 4130 8f3b
00000040: 6887 21be 0aa1 9abd 11f9 aa3c d990 823c
00000050: 7d45 02bc 8629 f7bd 01ab 243b ca69 5dbe
00000060: c49a 07bd 0aff 6e3d 9bea bc3b f192 613d
00000070: d53e 84bd c742 16bd c694 5e3d ba9d d03d
00000080: 51f0 853d 2326 903d ab82 f83d 5bdc b2bd
00000090: a06f 8e3d 5e7b b43d 82a3 92bd 0067 85bd
000000a0: edae 1e3d bc12 a13d a48f a63d 84e1 a9bd
000000b0: e6af 353d 1624 033a 1def 9cbc 6bf2 43bd
000000c0: 71a3 123e 1958 d23c b854 a1bc 7112 dabc
000000d0: cae8 8bbe 7ed0 35be c23d 3f3d 72b6 6b3c
000000e0: 3204 573e 5987 23bd 50bf 9a3d 5db7 3bbd
000000f0: ce55 813d 15bb b8bc 239a 573c 27c8 e33c

model_1/lstm_2/while/lstm_cell/split_12 f4 [64]
1.0721334 1.339968 1.1185354 1.0810143 1.0075957 1.1030984 1.0519894 1.0593532
1.214293 1.0830764 1.1569511 0.9742674 1.1897235 1.1059719 1.138545 1.0328543
1.0372629 1.0469157 1.0338533 1.233486 1.1091132 1.0625218 1.1040852 1.0296175
1.1036035 1.0968668 1.1556759 1.0722492 1.0826674 1.1259062 1.0888358 1.126282
1.0380306 1.2073568 1.0511537 1.1663983 1.054941 1.1052328 1.021798 1.0227684
1.1080936 1.0519799 1.0559423 1.1047688 1.1327407 1.0247862 1.1160904 1.0078532
1.0372602 1.0569752 1.0206352 1.0812193 1.0894499 1.1367832 0.9377444 1.0463647
1.0690274 1.1106348 1.0798374 1.2330487 0.9847762 1.0751209 1.0881332 1.0398006
00000000: ab3b 893f 1284 ab3f 2b2c 8f3f ad5e 8a3f
00000010: e5f8 803f 5432 8d3f 97a7 863f e398 873f
00000020: f46d 9b3f 3fa2 8a3f f916 943f 9769 793f
00000030: dc48 983f 7d90 8d3f d8bb 913f 9234 843f
00000040: 08c5 843f 5501 863f 4e55 843f dfe2 9d3f
00000050: 6cf7 8d3f b700 883f aa52 8d3f 82ca 833f
00000060: e142 8d3f 2266 8c3f 30ed 933f 763f 893f
00000070: d894 8a3f b21d 903f f95e 8b3f 022a 903f
00000080: 30de 843f ab8a 9a3f 348c 863f 8a4c 953f
00000090: 4f08 873f 4578 8d3f 47ca 823f 13ea 823f
000000a0: 03d6 8d3f 47a7 863f 1e29 873f 1069 8d3f
000000b0: a6fd 903f 322c 833f 0ddc 8e3f 5501 813f
000000c0: f1c4 843f f74a 873f 2da4 823f 6565 8a3f
000000d0: 1873 8b3f 1d82 913f 0410 703f 47ef 853f
000000e0: e4d5 883f 4829 8e3f 1d38 8a3f 8ad4 9d3f
000000f0: 4b1a 7c3f 909d 893f f347 8b3f 3018 853f

model_1/lstm_2/while/lstm_cell/split_13 f4 [64]
0.25721955 0.047083013 0.13203897 -0.08553215 0.26727533 -0.0028591547 -0.024965178 0.06470871
0.0963651 0.1284612 -0.045047265 0.062169112 0.09928696 -0.081432 0.009310295 0.042891078
-0.03145669 0.064776964 0.21467066 0.057747953 0.068116724 0.13343827 0.039858423 0.21852618
-0.037724193 0.10063666 0.032007862 0.12962191 -0.04457068 0.09834791 -0.041100256 0.052975833
0.13698985 0.013128039 -0.114743695 0.12952997 0.038780123 0.016478943 0.02481082 0.0042916015
0.055009928 -0.05572924 0.006474872 0.030399749 0.08669898 0.07603209 -0.032785457 0.13267195
-0.028697595 -0.02382148 0.016152477 0.053494465 0.05273906 0.05465325 0.016707798 -0.029549768
-0.017240644 -0.032366388 0.060382042 0.12444969 0.044216454 -0.005409959 0.06170608 -0.05915942
00000000: 48b2 833e 1eda 403d 3935 073e 7b2b afbd
00000010: 50d8 883e a860 3bbb c683 ccbc 0086 843d
00000020: 115b c53d 558b 033e 7b83 38bd 0aa5 7e3d
00000030: f656 cb3d d2c5 a6bd 358a 183c 8eae 2f3d
00000040: bbd8 00bd c9a9 843d a0d2 5b3e 1e89 6c3d
00000050: c880 8b3d 0ba4 083e 9642 233d 54c5 5f3e
00000060: af84 1abd 981a ce3d ad1a 033d 9bbb 043e
00000070: bf8f 36bd a16a c93d be58 28bd 30fd 583d
00000080: 1147 0c3e fd16 573c befe eabd 81a3 043e
00000090: e8d7 1e3d d9fe 863c 1040 cb3c 90a0 8c3b
000000a0: 1752 613d 5844 64bd 2a2b d43b e508 f93c
000000b0: 3c8f b13d b6b6 9b3d 0b4a 06bd 28db 073e
000000c0: 3817 ebbc 4425 c3bc 3352 843c 031d 5b3d
000000d0: ea04 583d 16dc 5f3d cbde 883c 5b12 f2bc
000000e0: 403c 8dbc 9e92 04bd 2953 773d 7bdf fe3d
000000f0: 501c 353d 0646 b1bb 84bf 7c3d 2651 72bd

model_1/lstm_2/while/lstm_cell/MatMul_4 f4 [64, 64]
-0.11866337 -0.25847375 -0.10310898 0.05964751 0.0575491 -0.20233387 -0.055966046 0.1286087
-0.01863027 -0.032514248 0.16716304 -0.28781673 0.041354265 -0.029595094 0.04054581 -0.35711572
-0.0004577896 0.2924642 0.050990913 0.07634988 -0.10466489 -0.050072722 0.18357532 0.013925209
-0.13718437 -0.012354908 0.017690705 0.032017697 0.10256885 0.023107605 0.11390267 0.04941223
0.10768493 0.08580228 -0.07531692 -0.27867034 -0.05691849 -0.17841768 -0.2168763 0.12977177
0.14381704 -0.069929816 0.036195632 -0.15450191 0.117242545 -0.16454273 -0.045411233 -0.04543845
0.0014683353 -0.032828216 -0.063704126 -0.08475896 -0.074874476 -0.046511672 0.10495159 -0.13835455
-0.055870883 -0.13947657 0.0827884 -0.46021315 -0.034076173 -0.036125403 -0.018010767 0.09433743
0.13294964 -0.20702417 -0.03361407 -0.12133544 -0.09532954 -0.17601688 -0.046167217 -0.025994198
-0.112841114 0.042302143 -0.19780537 0.059027594 0.14489993 -0.0020806491 0.21817407 0.0403496
-0.02227804 0.056454085 -0.26663214 -0.082034275 0.051178068 -0.08768623 0.19575548 0.08016237
-0.090393424 0.125451 -0.15359002 0.1186297 0.0958287 0.036836322 -0.021926949 -0.020514714
-0.15171836 -0.2508587 0.04927767 0.13551229 0.06717464 0.09679846 -0.13114719 -0.07869271
0.102073036 0.16599138 0.12198698 0.019651731 0.14326361 0.13431057 -0.024791688 0.18927622
0.12424087 0.03113153 -0.004605884 -0.11862495 0.09557651 0.010978016 -0.08634244 -0.009339422
0.059414167 -0.3068704 -0.034612816 0.033280924 -0.03483641 -0.14313172 0.054772295 -0.060750715
0.24767786 -0.19306697 0.12280777 -0.02793618 0.06087741 -0.2107965 -0.099882826 -0.046479065
-0.01711005 -0.12859651 0.015287163 -0.17736214 0.047542732 -0.102370985 0.08172146 -0.22802016
0.057397418 0.009850521 -0.08379144 -0.026083844 -0.11815316 0.09569274 -0.13126408 0.044043023
-0.031566698 -0.032752223 -0.14901352 -0.29425126 -0.083055064 -0.068535075 -0.06615946 0.038674522
0.05827225 -0.21605815 -0.10533829 0.053011253 -0.10617357 0.093708724 -0.14854981 0.20060703
0.011010786 -0.068019465 0.03998306 0.025274638 0.0890461 -0.031896364 0.16094354 -0.04382738
-0.20704022 0.07089163 -0.16651131 -0.09172249 -0.030735794 -0.06000815 -0.09073777 -0.16565871
0.11684926 -0.022565376 0.17140692 -0.05089096 0.04008977 0.032264967 -0.017710803 0.17355451
-0.05851281 0.104664706 0.046487737 0.037179872 0.009781112 -0.12762927 -0.24931437 -0.107867375
0.008484065 -0.07440602 -0.1620849 0.15471528 -0.040905066 -0.080444455 0.100857526 -0.039803836
-0.025084488 0.008916368 -0.13817413 -0.07091756 0.035461653 -0.19623892 -0.0007642135 0.12218915
0.10285607 -0.17282403 -0.047133356 -0.07602611 0.07098082 -0.09477653 -0.014270397 -0.07562764
0.18508056 -0.1340347 -0.050284762 -0.014979227 0.059397873 -0.0109076705 0.0803948 0.03665227
0.22696975 0.17625266 0.0074226907 0.09842018 -0.043903306 -0.13470922 0.05385179 0.109699994
0.03512182 0.11972112 -0.182728 -0.22514029 0.0030964601 0.019828603 0.11710794 0.21672119
-0.020451142 0.055086505 -0.09047709 0.05404778 0.009638842 -0.13459429 -0.108982876 -0.17970827
00000000: c805 f3bd ac56 84be cd2a d3bd f350 743d
00000010: 9bb8 6b3d 9c30 4fbe a73c 65bd 00b2 033e
00000020: 829e 98bc a92d 05bd ca2c 2b3e b75c 93be
00000030: 1763 293d 6971 f2bc 5d13 263d dfd7 b6be
00000040: 7b03 f0b9 debd 953e d9db 503d 535d 9c3d
00000050: 8c5a d6bd 0e19 4dbd 2bfb 3b3e 8f26 643c
00000060: 0f7a 0cbe 3d6c 4abc 19ec 903c fd24 033d
00000070: 9e0f d23d 294c bd3c ce45 e93d 7a64 4a3d
00000080: eb89 dc3d 1bb9 af3d c23f 9abd e1ad 8ebe
00000090: 5d23 69bd 20b3 36be d214 5ebe e4e2 043e
000000a0: c644 133e 5d37 8fbd df41 143d c035 1ebe
000000b0: dc1c f03d e47d 28be 2101 3abd ab1d 3abd
000000c0: 2875 c03a e176 06bd 4f77 82bd 1b96 adbd
000000d0: ca57 99bd 0683 3ebd dcf0 d63d d1ac 0dbe
000000e0: ded8 64bd f2d2 0ebe f78c a93d 0fa1 ebbe
000000f0: 7593 0bbd 3bf8 13bd 518b 93bc fc33 c13d
00000100: f323 083e 25fe 53be e8ae 09bd b77e f8bd
00000110: 223c c3bd c53d 34be d619 3dbd c9f1 d4bc
00000120: 3e19 e7bd 0345 2d3d 7e8d 4abe ebc6 713d
00000130: a660 143e 805b 08bb 0669 5f3e 9f45 253d
00000140: 7080 b6bc 663c 673d 0284 88be 9601 a8bd
00000150: 18a0 513d d794 b3bd 2074 483e 2b2c a43d
00000160: 3020 b9bd 3a76 003e b446 1dbe 21f4 f23d
00000170: d641 c43d afe1 163d 25a0 b3bc 790e a8bc
00000180: 0f5c 1bbe 8d70 80be 62d7 493d bcc3 0a3e
00000190: dc92 893d 453e c63d 734b 06be a529 a1bd
000001a0: ab0b d13d a5f9 293e 4fd4 f93d abfc a03c
000001b0: b2b3 123e b688 093e f017 cbbc a0d1 413e
000001c0: ff71 fe3d 8d07 ff3c f5ec 96bb a3f1 f2bd
000001d0: 9ebd c33d 23dd 333c 4ed4 b0bd 6004 19bc
000001e0: 455c 733d 1e1e 9dbe 2bc6 0dbd 9451 083d
000001f0: a0b0 0ebd 1f91 12be ea58 603d bed5 78bd
00000200: 449f 7d3e 59b3 45be a482 fb3d 6ada e4bc
00000210: 975a 793d 0adb 57be 5e8f ccbd d560 3ebd
00000220: 602a 8cbc ceae 03be 0277 7a3c 6c9e 35be
00000230: 2bbc 423d e1a7 d1bd 955d a73d 1e7e 69be
00000240: 8e19 6b3d 1464 213c d99a abbd c9ad d5bc
00000250: 49fa f1bd 8efa c33d 176a 06be 7566 343d
00000260: 154c 01bd 3227 06bd 0097 18be 1aa8 96be
00000270: c618 aabd 1e5c 8cbd 9c7e 87bd 2d69 1e3d
00000280: e2ae 6e3d 593e 5dbe 9abb d7bd 5422 593d
00000290: 8771 d9bd 5cea bf3d 711d 18be ee6b 4d3e
000002a0: 9566 343c ca4d 8bbd 47c5 233d c20c cf3c
000002b0: cd5d b63d c3a5 02bd 62ce 243e 5784 33bd
000002c0: 5a02 54be a22f 913d f181 2abe 00d9 bbbd
000002d0: a2c9 fbbc 1bcb 75bd b9d4 b9bd 70a2 29be
000002e0: aa4e ef3d 06db b8bc 4c85 2f3e 0a73 50bd
000002f0: 2c35 243d 4528 043d 3f16 91bc 46b8 313e
00000300: 21ab 6fbd 735a d63d ed69 3e3d ec49 183d
00000310: f540 203c 3fb1 02be 444c 7fbe 92e9 dcbd
00000320: bf00 0b3c 2f62 98bd 96f9 25be af6d 1e3e
00000330: 128c 27bd 10c0 a4bd 648e ce3d 5909 23bd
00000340: fc7d cdbc f515 123c 857d 0dbe 3a3d 91bd
00000350: 3d40 113d dbf2 48be 8055 48ba 4e3e fa3d
00000360: 34a6 d23d c8f8 30be e80e 41bd 94b3 9bbd
00000370: 645e 913d 331a c2bd 62ce 69bc aae2 9abd
00000380: c285 3d3e 6440 09be 65f7 4dbd 6f6b 75bc
00000390: 2f4b 733d 16b6 32bc 07a6 a43d b120 163d
000003a0: c26a 683e 947b 343e 0b3a f33b 8590 c93d
000003b0: f4d3 33bd 37f1 09be b293 5c3d 64aa e03d
000003c0: e6db 0f3d 5930 f53d 0d1d 3bbe 2d8b 66be
000003d0: fbed 4a3b 986f a23c 4ad6 ef3d 29ec 5d3e
000003e0: 2789 a7bc 63a2 613d 0d4c b9bd 3461 5d3d
000003f0: 3cec 1d3c 16d3 09be 6a32 dfbd 7205 38be

model_1/lstm_2/while/lstm_cell/MatMul_5 f4 [64, 64]
0.058558255 -0.107954904 -0.30811375 -0.06562743 0.07923012 0.030838646 0.13746075 0.15144245
0.12154148 0.21585993 -0.005560547 0.025814665 0.100073874 0.13339534 -0.033984125 0.07977905
-0.19045682 0.06049267 0.17814307 0.12885377 0.09904988 0.057794966 0.17247395 -0.19967161
0.1110391 -0.07305835 0.24786158 0.08837919 -0.0077364217 -0.05310289 0.033160653 0.09836443
0.060121015 0.08148196 0.11668047 -0.11756429 0.1347237 0.10300848 -0.024122134 -0.10839515
-0.010468474 0.07187012 0.1353065 0.02520993 0.062600836 0.02312549 -0.016885225 -0.0017695822
0.11279695 -0.10459929 0.03212897 0.01233937 -0.12919606 -0.08402795 -0.12706527 0.036728956
0.22284558 -0.05517825 0.018146008 -0.3278601 0.057808 -0.13296895 0.13029458 0.07913848
-0.05143588 -0.129945 0.20174725 0.06270294 0.012957226 -0.12024938 -0.09421604 0.13234751
0.24531873 0.08187183 0.11627613 -0.04320911 0.2967855 -0.046111375 0.09492915 -0.2672023
0.047317207 -0.01217291 -0.031055007 0.2359347 -0.21535479 -0.20871568 0.12610194 -0.13847172
-0.13409083 0.14022294 -0.10754894 -0.10276029 -0.050490852 -0.070188776 0.01666893 -0.039649747
-0.09711767 -0.026042484 0.0012562145 -0.20097494 0.10145356 -0.18525285 -0.35841453 -0.083244756
0.21155304 -0.2775192 -0.024925314 -0.23968792 0.03240632 0.23686346 0.0016820389 0.012022549
0.0674315 0.06426089 -0.096372485 -0.17264338 -0.011578018 -0.32726336 0.040215295 -0.08405377
0.025205906 -0.26363912 -0.13942216 -0.058614925 0.059144884 -0.07976178 0.06737477 -0.027787484
0.05158805 -0.2308992 0.113502555 0.07036009 -0.070222326 0.018358445 -0.024382101 -0.009792038
-0.008786361 0.0075997626 0.070138834 0.025895953 0.010295921 -0.07680128 0.0040896353 -0.1354869
-0.022744447 -0.026525488 -0.15279892 0.12306085 -0.03094181 0.06266134 -0.08096717 -0.0009982586
0.06810254 0.059389375 -0.18639757 -0.13879481 -0.020151427 0.018137813 0.016508242 0.094339594
-0.038230617 0.056717232 -0.034440387 0.081133 0.012694843 0.07331516 -0.247099 0.0060998076
0.031093638 -0.018782232 0.08470682 0.052245915 0.19125271 -0.010839912 -0.07436091 0.06736146
0.050263066 -0.062331256 -0.09064087 -0.13935618 -0.12539431 -0.24676894 -0.20400117 0.024968162
-0.0056704166 -0.14510943 0.076720655 -0.059335556 0.15117481 0.066526435 0.13887632 -0.021064175
-0.16987449 -0.07043233 -0.057846844 0.0058757435 0.051072408 -0.14005604 0.059655394 0.051422294
-0.0962387 -0.15405516 -0.10730915 0.07895961 -0.0063557923 -0.19258228 0.02174834 -0.009463636
-0.00906926 -0.08819004 -0.12594613 -0.12525335 -0.070017815 -0.009753808 0.12649375 -0.11869336
0.1606486 -0.09072511 -0.02247125 -0.024296237 -0.039983615 -0.07216414 -0.024395721 -0.0028424691
0.235836 0.09031067 0.0899603 -0.031693175 0.036127746 -0.021321908 -0.0066970563 0.022594444
0.22671461 -0.06766138 -0.013735121 -0.11499389 -0.082914 -0.063012056 -0.044325944 0.0031584704
0.02114231 -0.05655274 -0.01068652 0.080933385 -0.10226463 -0.11855602 0.0061360328 -0.069104336
-0.03856831 -0.038072836 -0.051165722 -0.12159189 0.051148098 -0.037202716 0.031508565 -0.075813286
00000000: c8da 6f3d 7617 ddbd 16c1 9dbe ad67 86bd
00000010: 6743 a23d 54a1 fc3c 83c2 0c3e bb13 1b3e
00000020: bdea f83d 630a 5d3e 4035 b6bb 4779 d33c
00000030: 88f3 cc3d ca98 083e f032 0bbd 3363 a33d
00000040: 1d07 43be 29c7 773d 236b 363e 3ef2 033e
00000050: aada ca3d 6aba 6c3d 039d 303e b776 4cbe
00000060: 7868 e33d 9e9f 95bd 6dcf 7d3e 2600 b53d
00000070: cf81 fdbb 6a82 59bd 77d3 073d 4a73 c93d
00000080: 7441 763d 04e0 a63d 2cf6 ee3d 8cc5 f0bd
00000090: 02f5 093e 1cf6 d23d c89b c5bc 47fe ddbd
000000a0: f683 2bbc a430 933d ca8d 0a3e 0e85 ce3c
000000b0: de34 803d ab71 bd3c e252 8abc 53f1 e7ba
000000c0: 1602 e73d 2738 d6bd ab99 033d 122b 4a3c
000000d0: f94b 04be d916 acbd 661d 02be 1a71 163d
000000e0: a231 643e 9702 62bd f0a6 943c 47dd a7be
000000f0: 15c8 6c3d 0329 08be f16b 053e 5b13 a23d
00000100: 6eae 52bd 4d10 05be d596 4e3e 666a 803d
00000110: 8b4a 543c 4f45 f6bd 57f4 c0bd 1b86 073e
00000120: d534 7b3e 6bac a73d 2e22 ee3d 09fc 30bd
00000130: 45f4 973e 48df 3cbd 376a c23d bdce 88be
00000140: b0cf 413d e370 47bc 1267 febc de98 713e
00000150: f785 5cbe 90b9 55be de20 013e 88cb 0dbe
00000160: 1b4f 09be 9a96 0f3e 9e42 dcbd fd73 d2bd
00000170: 7fcf 4ebd 22bf 8fbd 488d 883c c667 22bd
00000180: a1e5 c6bd 0c57 d5bc 90a7 a43a 60cc 4dbe
00000190: e2c6 cf3d ecb2 3dbe 1c82 b7be 3a7c aabd
000001a0: 5ca1 583e ff16 8ebe 2c30 ccbc c070 75be
000001b0: 7dbc 043d 568c 723e dc77 dc3a 3afa 443c
000001c0: 8719 8a3d 379b 833d f05e c5bd 6dc9 30be
000001d0: bab1 3dbc 108f a7be cbb8 243d 6224 acbd
000001e0: 9e7c ce3c b5fb 86be afc4 0ebe 3416 70bd
000001f0: e841 723d 255a a3bd c9fb 893d 94a2 e3bc
00000200: fe4d 533d d770 6cbe 0774 e83d f318 903d
00000210: b9d0 8fbd 7364 963c f9bc c7bc c96e 20bc
00000220: abf4 0fbc 6e07 f93b f3a4 8f3d c023 d43c
00000230: 39b0 283c fd49 9dbd 5902 863b 14bd 0abe
00000240: 9052 babc fb4b d9bc 5277 1cbe 5407 fc3d
00000250: ae79 fdbc 9754 803d 1ed2 a5bd 00d8 82ba
00000260: 5879 8b3d 4642 733d 01df 3ebe 3a20 0ebe
00000270: 9b14 a5bc c095 943c 4b3c 873c 1e35 c13d
00000280: b597 1cbd 5450 683d 5d11 0dbd 0f29 a63d
00000290: 08fe 4f3c 4226 963d 8507 7dbe e5e0 c73b
000002a0: 16b8 fe3c 32dd 99bc c57a ad3d d0ff 553d
000002b0: c0d7 433e e399 31bc 884a 98bd cef4 893d
000002c0: a5e0 4d3d 0f4f 7fbd eca1 b9bd 63b3 0ebe
000002d0: 5e67 00be ffb0 7cbe afe5 50be 088a cc3c
000002e0: e7ce b9bb 9197 14be b81f 9d3d d709 73bd
000002f0: 92cd 1a3e 033f 883d 9835 0e3e c78e acbc
00000300: 94f3 2dbe d33e 90bd d0f0 6cbd 4f89 c03b
00000310: 4d31 513d da6a 0fbe 3759 743d 2fa0 523d
00000320: cc18 c5bd a3c0 1dbe e6c4 dbbd 93b5 a13d
00000330: 4044 d0bb 4a34 45be 9329 b23c 5e0d 1bbc
00000340: 3c97 14bc fb9c b4bd 06f8 00be 6a42 00be
00000350: 8065 8fbd 70ce 1fbc 9487 013e 8115 f3bd
00000360: 1181 243e 16ce b9bd a015 b8bc e708 c7bc
00000370: dcc5 23bd cbca 93bd 89d9 c7bc b848 3abb
00000380: fe7e 713e cdf4 b83d 1b3d b83d b4d0 01bd
00000390: b0fa 133d 48ab aebc fb72 dbbb fc17 b93c
000003a0: e027 683e 0d92 8abd 4609 61bc eb81 ebbd
000003b0: d1ce a9bd 770c 81bd 1f8f 35bd 57fe 4e3b
000003c0: a332 ad3c d9a3 67bd 8316 2fbc 67c0 a53d
000003d0: 1e70 d1bd 80cd f2bd c610 c93b 9386 8dbd
000003e0: cef9 1dbd 43f2 1bbd 2693 51bd 2b05 f9bd
000003f0: ab80 513d e061 18bd 200f 013d ff43 9bbd

model_1/lstm_2/while/lstm_cell/MatMul_6 f4 [64, 64]
0.12243823 0.0019408707 0.13268553 0.0643664 0.050162334 0.02378916 0.06274009 0.0050396738
-0.019832997 0.15124698 0.1005912 -0.07606598 -0.06966353 0.1467168 0.013764887 0.019068135
0.070313506 0.05379764 -0.047114454 0.012380835 0.20429164 0.08358266 -0.06317275 0.092746034
0.008802274 0.06771291 0.09103064 -0.10836374 -0.06209157 -0.050307635 0.021063434 -0.056640167
-0.14600046 0.016740093 -0.0666292 -0.024046749 0.03200891 -0.012056849 0.06436755 -0.078034826
-0.05626177 0.08815285 0.044428837 0.007351241 -0.027170004 0.07124997 0.051340304 -0.07518048
-0.029404275 -0.062250707 0.08694053 -0.1944643 0.114943564 0.061464824 -0.02504217 -0.10538036
-0.12355221 -0.10688448 -0.06771898 0.04998157 0.03840756 -0.0053874953 -0.038692027 -0.014808609
-0.09862049 0.14022063 -0.08764383 -0.07466925 0.10058693 0.05346008 -0.044692278 -0.014223399
0.072386384 -0.09704397 -0.10913103 0.03664608 0.03998067 -0.0064048353 -0.04157345 0.051323913
-0.022262232 0.02960784 -0.06712662 0.053728446 -0.08440126 -0.030970141 0.0038134009 -0.016940868
0.17380051 0.08181659 -0.050194595 0.032004 0.20428687 0.0029330186 -0.027234714 0.06840819
0.035470612 -0.02567193 0.006595053 -0.12416166 0.03897651 0.03388166 0.050475087 -0.12459515
-0.012946087 0.062428437 0.09330192 0.13276227 0.09167532 -0.058188166 -0.01455283 -0.08360749
0.12551981 0.23109426 0.054892562 0.017641023 -0.011490109 -0.058636446 0.086784296 -0.10095901
-0.019137928 0.02944681 -0.023917245 0.17764667 -0.08036775 -0.025468476 -0.14825924 -0.09030339
-0.017901087 -0.06305318 0.14378002 -0.037309654 0.15768628 0.040871043 -0.022128193 0.039196543
0.055055294 0.034452688 -0.11746507 0.07009121 -0.0415018 0.18515956 -0.10473599 0.017055605
0.0372898 -0.03724711 -0.079691574 0.17516239 -0.05006999 -0.0007175564 0.23366623 0.016624218
0.0093754735 0.05575747 0.12118233 -0.039653156 0.06305748 -0.03339152 0.14695098 -0.20699947
0.0061191604 -0.058819298 0.11394991 0.0014289876 0.06991396 0.114014514 -0.006604003 -0.06448267
0.045664944 -0.15098138 -0.0072841607 -0.09005548 -0.046971384 0.042201806 0.04637055 0.044820745
-0.024634467 0.088029504 -0.0065863146 -0.052277863 0.07494792 -1.8275125e-05 -0.050127454 0.06377045
-0.047727287 -0.17926009 -0.16366784 0.067617714 0.24454282 0.00065728626 0.12979247 -0.05137618
-0.052676193 -0.0155368345 0.14108995 0.04818674 -0.01899551 -0.08647245 -0.034317926 -0.069707006
0.045314077 -0.055442166 0.03322488 -0.12747547 -0.058526047 -0.12369719 0.07280866 -0.057199124
0.101650566 0.095279105 0.11178997 -0.17485896 -0.09290466 0.11013275 -0.03954032 0.005567634
0.01939913 -0.04357481 -0.1832945 -0.015293256 -0.12767935 0.05237886 0.04575876 -0.029136756
0.02325772 -0.060594056 -0.40331313 0.07410549 -0.14440195 -0.03717592 -0.05259631 0.1634734
0.08571881 -0.23491044 -0.27629542 -0.039511155 0.072762646 -0.14842288 0.1348927 -0.11444045
-0.052053384 -0.05127546 0.029612666 -0.06463233 0.1426342 0.0922658 0.0017557519 -0.036547836
-0.04356881 0.07729475 0.034161527 0.10565613 -0.09230338 0.02615705 -0.025314009 0.047450837
00000000: e5c0 fa3d d064 fe3a b7de 073e 88d2 833d
00000010: 0577 4d3d 7ce1 c23c e07d 803d d923 a53b
00000020: cf78 a2bc 7de0 1a3e c202 ce3d 7bc8 9bbd
00000030: c1ab 8ebd ee3c 163e 1f86 613c c734 9c3c
00000040: 8700 903d ea5a 5c3d 16fb 40bd fcd8 4a3c
00000050: d431 513e 632d ab3d b760 81bd a2f1 bd3d
00000060: 6a37 103c 11ad 8a3d 466e ba3d cfed ddbd
00000070: bb53 7ebd 610f 4ebd 398d ac3c 85ff 67bd
00000080: 2581 15be 8522 893c e474 88bd b0fd c4bc
00000090: c61b 033d 178a 45bc 22d3 833d b9d0 9fbd
000000a0: be72 66bd 7b89 b43d 03fb 353d aee2 f03b
000000b0: a193 debc 81eb 913d 364a 523d 39f8 99bd
000000c0: 3ce1 f0bc 99fa 7ebd e00d b23d a621 47be
000000d0: 8867 eb3d 8ac2 7b3d 3d25 cdbc a8d1 d7bd
000000e0: f108 fdbd 40e6 dabd 40b0 8abd 7ab9 4c3d
000000f0: 3f51 1d3d 9689 b0bb 887b 1ebd cf9f 72bc
00000100: 8af9 c9bd ff95 0f3e 9c7e b3bd 31ec 98bd
00000110: 8500 ce3d f5f8 5a3d 400f 37bd 4209 69bc
00000120: 503f 943d fdbe c6bd 1780 dfbd 331a 163d
00000130: c5c2 233d a7df d1bb ec48 2abd 0639 523d
00000140: 495f b6bc 248c f23c ae79 89bd 5c12 5c3d
00000150: 91da acbd 18b5 fdbc 40ea 793b 93c7 8abc
00000160: c3f8 313e 758f a73d d998 4dbd a016 033d
00000170: 9430 513e e337 403b 561b dfbc 9819 8c3d
00000180: a249 113d f04d d2bc 501b d83b 7848 febd
00000190: d5a5 1f3d 7fc7 0a3d f7be 4e3d be2b ffbd
000001a0: d31b 54bc f6b4 7f3d 1415 bf3d d5f2 073e
000001b0: 45c0 bb3d b756 6ebd fe6e 6ebc 673a abbd
000001c0: 4488 003e f9a3 6c3e 06d7 603d e883 903c
000001d0: 0341 3cbc c52c 70bd f7bb b13d 99c3 cebd
000001e0: 25c7 9cbc 703a f13c 19ee c3bc 02e9 353e
000001f0: d997 a4bd 44a3 d0bc 45d1 17be fcf0 b8bd
00000200: 4da5 92bc 0722 81bd 123b 133e 02d2 18bd
00000210: 8378 213e 6568 273d 2f46 b5bc 8e8c 203d
00000220: a981 613d 431e 0d3d 8791 f0bd fb8b 8f3d
00000230: cbfd 29bd 789a 3d3e d37f d6bd 32b8 8b3c
00000240: 30bd 183d 6d90 18bd 5635 a3bd c55d 333e
00000250: 3116 4dbd 651a 3cba 3346 6f3e 832f 883c
00000260: 969b 193c f261 643d 712e f83d 596b 22bd
00000270: 4824 813d 8cc5 08bd 517a 163e abf7 53be
00000280: 3d83 c83b 81ec 70bd 925e e93d de4c bb3a
00000290: 0d2f 8f3d 7180 e93d 6466 d8bb 7d0f 84bd
000002a0: 2a0b 3b3d dd9a 1abe f8af eebb 026f b8bd
000002b0: 1165 40bd cddb 2c3d 0cef 3d3d f595 373d
000002c0: 39ce c9bc d048 b43d 03d2 d7bb 5021 56bd
000002d0: 4c7e 993d 884d 99b7 7252 4dbd 159a 823d
000002e0: b07d 43bd f58f 37be 8b98 27be 287b 8a3d
000002f0: 6f69 7a3e bc4d 2c3a 51e8 043e d46f 52bd
00000300: fec2 57bd 358e 7ebc e279 103e 765f 453d
00000310: 799c 9bbc 7818 b1bd f490 0cbd 8cc2 8ebd
00000320: 419b 393d 5317 63bd d016 083d ee88 02be
00000330: 02b9 6fbd f454 fdbd b51c 953d a149 6abd
00000340: 2c2e d03d b121 c33d 24f2 e43d 3a0e 33be
00000350: cc44 bebd 478d e13d 08f5 21bd b370 b63b
00000360: edea 9e3c 807b 32bd 8eb1 3bbe 9190 7abc
00000370: 60be 02be 378b 563d 8a6d 3b3d 35b0 eebc
00000380: f986 be3c 7931 78bd 0f7f cebe 9fc4 973d
00000390: 1bde 13be c745 18bd 3a6f 57bd 9265 273e
000003a0: 588d af3d 5d8c 70be 9876 8dbe 73d6 21bd
000003b0: 9504 953d 2bfc 17be 5021 0a3e c15f eabd
000003c0: ee35 55bd 3706 52bd 4396 f23c f45d 84bd
000003d0: b30e 123e daf5 bc3d 4221 e63a 2fb3 15bd
000003e0: 3575 32bd b64c 9e3d f5ec 0b3d 3e62 d83d
000003f0: 8e09 bdbd 4f47 d63c 535f cfbc cf5b 423d

model_1/lstm_2/while/lstm_cell/MatMul_7 f4 [64, 64]
-0.070699304 -0.33556202 0.1414093 0.065547355 0.053041056 -0.021131769 0.017462924 -0.014617781
0.053983424 0.13050805 -0.004866679 -0.0048542824 -0.035041522 -0.057242744 -0.020164883 -0.1833168
-0.019920321 0.1387719 0.07579893 0.11775976 -0.1835314 -0.091273166 0.027131392 -0.08522102
-0.16245447 0.0963422 0.04093913 -0.11544007 0.004413986 0.1488738 0.1736386 -0.03833228
0.049989853 -0.006627188 0.04096442 -0.15349668 0.1378157 -0.18459696 -0.104425035 0.08357283
0.035216603 0.04434384 -0.17742126 0.014516588 0.19184327 0.01405495 0.020391958 0.012194063
0.037787113 -0.19032735 -0.11373535 0.0035459348 -0.05926975 0.07511137 -0.06351573 -0.053385485
-0.013229775 -0.25753936 0.031454608 -0.388267 0.09848805 0.10478907 0.2117687 0.033457235
0.04388564 -0.23858072 0.1693341 0.11723635 0.17760617 -0.08510128 -0.093640655 0.005820765
0.14854658 0.090714864 0.29822165 -0.0764712 -0.02218755 -0.0019073973 -0.021145785 -0.0835778
0.07898875 0.033502813 0.10499868 0.12170588 -0.060212232 -0.078940384 0.054543115 -0.07809438
-0.13157383 0.029982626 0.15489225 0.018771468 -0.008476782 -0.008694711 -0.00355501 -0.07022248
0.08077993 -0.045219347 -0.10316965 -0.030265624 -0.015351943 -0.15371133 -0.02143009 0.0044933446
0.11904277 0.024306001 -0.15963379 -0.039748814 -0.04443781 0.109637536 -0.034751747 0.056776475
-0.1112949 -0.06156532 -0.044079203 0.00051103916 -0.02391702 0.06385053 -0.0016311677 -0.18354236
-0.09347999 -0.28435376 -0.055544168 -0.093581595 0.12723848 0.13356008 0.1568536 -0.0021649587
0.0671148 -0.016960843 0.2558776 0.019169169 0.055520933 -0.14077249 0.016797863 0.19515102
0.2341001 -0.09653739 0.03287383 -0.13769163 0.06396411 -0.064824365 0.09286365 0.018825632
-0.010082109 -0.17964819 -0.25257722 0.20407835 0.045408595 -0.1595967 0.19329928 0.023289554
0.09439198 0.0122752525 -0.1329779 0.012624576 0.010663719 -0.05450224 -0.08119404 0.04251761
0.11880727 -0.004794785 0.0028526916 -0.25232786 -0.021265402 -0.01180968 0.013526269 0.0047106366
0.0505441 -0.2623251 0.25566357 0.15753356 0.026687164 0.04667948 -0.060601514 -0.15380314
-0.058376394 -0.011227243 -0.15825076 0.037184704 -0.09636339 -0.25817508 -0.037235945 0.14989294
0.09243912 -0.09992015 -0.031123046 0.0136167025 -0.049778298 -0.13470006 -0.020918136 0.031180207
0.03522223 -0.088905305 -0.03398922 -0.044571 0.08207424 0.09042489 0.0666027 -0.0859767
-0.0037050378 -0.064604424 0.01905858 0.1399615 0.07609602 0.017762827 0.1592964 0.112050034
0.040672358 -0.07676649 -0.09954448 -0.06237147 0.082131326 -0.12451831 -0.029467778 -0.09435838
0.08722103 0.06737665 0.014870945 0.08600094 -0.010954978 0.059779566 -0.034197047 -0.019399915
0.03611043 -0.106767826 0.10927621 -0.08587093 0.09565866 -0.2778614 0.15137546 0.117007725
-0.14344288 0.05220594 0.07026775 0.024493644 -0.061297193 0.09173682 -0.086528316 -0.045785584
0.102649935 0.1079237 0.0060027353 0.020325333 0.03964352 -0.0762971 0.005693725 0.01740878
0.026347844 -0.010373191 -0.087505855 -0.10273168 0.18273026 -0.17044835 0.025930919 -0.058955923
00000000: ccca 90bd c9ce abbe 99cd 103e b13d 863d
00000010: 9441 593d 881c adbc 680e 8f3c 6b7f 6fbc
00000020: b91d 5d3d e7a3 053e aa78 9fbb ac10 9fbb
00000030: b387 0fbd 5e77 6abd d330 a5bc 66b7 3bbe
00000040: f12f a3bc 391a 0e3e 783c 9b3d 072c f13d
00000050: a8ef 3bbe 6ded babd a742 de3c 5c88 aebd
00000060: 775a 26be 0f4f c53d caaf 273d d86b ecbd
00000070: 33a3 903b 6072 183e 51ce 313e 4f02 1dbd
00000080: 29c2 4c3d e228 d9bb 4fca 273d 3c2e 1dbe
00000090: 8f1f 0d3e fc06 3dbe cbdc d5bd 3b28 ab3d
000000a0: 493f 103d e3a1 353d ebad 35be fcd6 6d3c
000000b0: 9072 443e bc46 663c 090d a73c 9bc9 473c
000000c0: a9c6 1a3d 2ce5 42be 14ee e8bd ea62 683b
000000d0: d6c4 72bd fdd3 993d 8914 82bd bdaa 5abd
000000e0: b3c1 58bc 33dc 83be 8cd6 003d efca c6be
000000f0: 1ab4 c93d a79b d63d e5d9 583e 740a 093d
00000100: 6ec1 333d 814e 74be eb65 2d3e 9d19 f03d
00000110: 64de 353e 9449 aebd acc6 bfbd 1ebc be3b
00000120: 981c 183e b7c8 b93d 82b0 983e ef9c 9cbd
00000130: aac2 b5bc a201 faba ed39 adbc d62a abbd
00000140: dbc4 a13d 3f3a 093d 8c09 d73d ef40 f93d
00000150: 1aa1 76bd 7fab a1bd 9a68 5f3d f2ef 9fbd
00000160: 4abb 06be 209e f53c 139c 1e3e 9fc6 993c
00000170: 33e2 0abc 4374 0ebc 2cfb 68bb ced0 8fbd
00000180: f36f a53d ec37 39bd 9c4a d3bd 9def f7bc
00000190: b786 7bbc 8166 1dbe 288e afbc e83c 933b
000001a0: b2cc f33d 611d c73c 0a77 23be a7cf 22bd
000001b0: 6c04 36bd a589 e03d d957 0ebd 738e 683d
000001c0: 95ee e3bd eb2b 7cbd 658c 34bd 42f7 053a
000001d0: a0ed c3bc 11c4 823d e8cc d5ba 87f2 3bbe
000001e0: 7072 bfbd d196 91be 4882 63bd b5a7 bfbd
000001f0: ce4a 023e f9c3 083e 3b9e 203e fbe1 0dbb
00000200: 7c73 893d 77f1 8abc 6402 833e a908 9d3c
00000210: eb69 633d aa26 10be ac9b 893c abd5 473e
00000220: f0b7 6f3e 65b5 c5bd b6a6 063d 09ff 0cbe
00000230: 9eff 823d a3c2 84bd 4c2f be3d 3638 9a3c
00000240: 6e2f 25bc b2f5 37be cd51 81be eaf9 503e
00000250: 5dfe 393d 516d 23be 3ff0 453e bcc9 be3c
00000260: 9550 c13d 241e 493c 5c2b 08be 4fd7 4e3c
00000270: e1b6 2e3c be3d 5fbd 1049 a6bd f226 2e3d
00000280: 3a51 f33d 921d 9dbb 39f4 3a3b 1e31 81be
00000290: c834 aebc 637d 41bc 499d 5d3c af5b 9a3b
000002a0: 5507 4f3d 7a4f 86be 56e6 823e 7a50 213e
000002b0: 0a9f da3c fb32 3f3d 4b39 78bd 927e 1dbe
000002c0: 161c 6fbd 78f2 37bc 7d0c 22be fd4e 183d
000002d0: 2b5a c5bd 862f 84be b884 18bd 897d 193e
000002e0: b950 bd3d f0a2 ccbd c2f5 febc 9718 5f3c
000002f0: 54e4 4bbd d0ee 09be 835c abbc a26d ff3c
00000300: 2f45 103d fc13 b6bd 4838 0bbd 1590 36bd
00000310: 8a16 a83d af30 b93d ff66 883d 8d14 b0bd
00000320: 38d0 72bb 534f 84bd bd20 9c3c 1152 0f3e
00000330: 3bd8 9b3d 5983 913c 981e 233e 7d7a e53d
00000340: 0f98 263d c037 9dbd fadd cbbd 3a79 7fbd
00000350: 7834 a83d 7503 ffbd 6966 f1bc f73e c1bd
00000360: f0a0 b23d c5fc 893d 44a5 733c 4321 b03d
00000370: 827c 33bc 6bdb 743d 3412 0cbd 92ec 9ebc
00000380: 88e8 133d 17a9 dabd 35cc df3d 19dd afbd
00000390: b0e8 c33d d943 8ebe 2b02 1b3e bfa1 ef3d
000003a0: b1e2 12be e5d5 553d 8ae8 8f3d e5a6 c83c
000003b0: c412 7bbd 84e0 bb3d c235 b1bd aa89 3bbd
000003c0: 213a d23d 1a07 dd3d 98b2 c43b 5081 a63c
000003d0: 3e61 223d a741 9cbd 6d92 ba3b dc9c 8e3c
000003e0: 6fd7 d73c 51f4 29bc 4536 b3bd fd64 d2bd
000003f0: a41d 3b3e 038a 2ebe 146d d43c c47b 71bd

model_1/lstm_2/while/lstm_cell/MatMul f4 [64, 9]
0.12208442 -0.028489852 -0.06472072 -0.084515 0.077872396 0.00054992695 0.22118178 0.1472323
0.018328752 0.013886033 0.14432628 0.09838164 -0.024231726 0.12712386 -0.12261342 0.5443062
0.13531408 -0.20889436 0.011546385 -0.07961342 0.046308946 0.06931355 -0.19802766 -0.017091975
0.31570294 -0.06476442 -0.08818858 0.04834461 -0.09885396 0.06309571 -0.0546977 0.013575296
-0.13443236 0.011001467 -0.025328655 -0.1492204 0.12990111 0.17740606 -0.0051094675 -0.092768766
-0.013231526 0.13722408 -0.09435638 -0.0606466 0.05561999 -0.03177025 -0.043004 0.16376865
-0.118619375 0.14937113 0.059542723 0.08945784 0.21705975 -0.38994664 -0.058082286 0.16227101
-0.03465119 -0.059470184 -0.070239924 -0.096778706 -0.096024774 0.0973688 -0.024379268 0.13346064
0.1595728 0.1307534 0.13191818 0.11855136 0.04374055 -0.028597359 -0.09250166 -0.09924122
-0.11389004 -0.0058828546 -0.41914764 0.14544584 -0.013540464 0.046178453 -0.091097824 -0.071083374
0.026008986 -0.013040665 0.13125207 -0.020537606 -0.017633777 0.045247916 0.15340409 -0.19266452
-0.024948407 0.1688433 0.1647136 0.022109332 0.07846379 -0.2552671 0.06375551 0.0974693
0.025620196 0.22609879 -0.027493324 0.2586938 0.21095178 0.17901999 0.022842834 0.27851376
0.045982383 -0.19811308 0.011192926 0.26829132 0.19753857 0.12834144 -0.2594127 0.15412144
0.12973267 0.060050737 -0.3641398 -0.18855739 0.1762513 0.018283186 0.01539017 0.009693463
-0.06737293 -0.015090662 -0.349257 -0.055943802 -0.18825606 -0.16546509 -0.091759995 0.015380897
-0.09881489 0.16291699 0.19082338 -0.25550246 -0.22187483 -0.08209059 -0.028194273 0.035291944
-0.04491005 0.1292185 -0.0046528736 -0.0066329534 -0.042579502 0.16663031 -0.10118203 -0.06363017
-0.010769567 0.05826013 0.09645799 0.07226421 0.15673113 -0.065185525 0.36526945 -0.23002958
0.13040859 0.054979056 0.18594298 -0.27671826 0.0032376752 0.060872536 0.10096335 -0.012646472
-0.10965216 0.11936192 -0.08848788 -0.0041906987 -0.087934695 0.05428097 -0.11079287 -0.13460192
-0.21693759 -0.0036141442 0.088701144 0.05483137 -0.07547916 -0.31879878 0.05530303 0.038317688
-0.234382 -0.08338809 0.129647 -0.14746822 -0.3227601 -0.1418371 -0.21895243 0.16511598
-0.44501492 -0.124673225 -0.08896379 0.06420488 0.18387972 0.04179653 0.031437453 -0.21306317
0.21382993 -0.2165551 -0.017589973 0.01860008 0.073343135 0.04944271 0.1956713 0.091146976
0.13620564 0.049520634 -0.08756735 0.119175054 -0.45029348 0.17074163 -0.052988585 -0.12697788
0.09205106 -0.12997077 -0.012723622 0.05775314 0.1306946 -0.20254663 -0.07508622 -0.009263878
-0.15191641 -0.06493596 -0.22455797 0.043259855 -0.015011018 -0.15501562 0.33937928 0.3713794
0.24575798 -0.11456434 -0.025580077 0.0701765 0.10539944 -0.07137697 -0.07090365 -0.13543291
0.14708497 0.006572337 0.029981311 -0.020903101 -0.11502466 0.089652866 0.0881856 0.04201759
0.08157677 0.0003257701 0.1925916 0.19199027 0.18044 -0.11124903 -0.21726927 0.0013001468
0.2604937 0.06464139 0.14775318 -0.092502035 0.05830723 -0.06868534 -0.22694777 0.06940066
00000000: 6507 fa3d 8d63 e9bc 4c8c 84bd 3316 adbd
00000010: 907b 9f3d f928 103a 7a7d 623e 10c4 163e
00000020: 2e26 963c 3e82 633c 45ca 133e 507c c93d
00000030: 9d81 c6bc c22c 023e bf1c fbbd a757 0b3f
00000040: c68f 0a3e 67e8 55be 0c2d 3d3c 5c0c a3bd
00000050: 73ae 3d3d 43f4 8d3d c3c7 4abe 7804 8cbc
00000060: d1a3 a13e 35a3 84bd 379c b4bd ff04 463d
00000070: f273 cabd 5338 813d b20a 60bd eb6a 5e3c
00000080: a3a8 09be 7f3f 343c 0a7e cfbc 3ccd 18be
00000090: cc04 053e efa9 353e 526d a7bb 8dfd bdbd
000000a0: 0bc9 58bc 7884 0c3e eb3d c1bd 9268 78bd
000000b0: c9d1 633d 8621 02bd f624 30bd f8b2 273e
000000c0: b7ee f2bd bff4 183e 12e3 733d ac35 b73d
000000d0: e944 5e3e 16a7 c7be b1e7 6dbd 5f2a 263e
000000e0: 68ee 0dbd 0297 73bd f3d9 8fbd ea33 c6bd
000000f0: a3a8 c4bd 4b69 c73d 08b7 c7bc e8a9 083e
00000100: 0d67 233e 38e4 053e 8f15 073e 0ecb f23d
00000110: 4a29 333d 0245 eabc 8371 bdbd fb3e cbbd
00000120: 2e3f e9bd f6c4 c0bb 859a d6be c1ef 143e
00000130: d3d8 5dbc 9e25 3d3d 7f91 babd 2994 91bd
00000140: cc10 d53c 83a8 55bc f166 063e 7b3e a8bc
00000150: b674 90bc e155 393d f615 1d3e d949 45be
00000160: 9a60 ccbc 42e5 2c3e afaa 283e a11e b53c
00000170: a0b1 a03d 5fb2 82be 4092 823d fc9d c73d
00000180: 72e1 d13c 7186 673e ae39 e1bc 8473 843e
00000190: be03 583e 0451 373e e520 bb3c 5b99 8e3e
000001a0: 0658 3c3d 28de 4abe 8962 373c 7b5d 893e
000001b0: 8d47 4a3e f06b 033e bed1 84be 03d2 1d3e
000001c0: a4d8 043e c3f7 753d 8870 babe 3015 41be
000001d0: 397b 343e 9fc6 953c 0d27 7c3c 55d1 1e3c
000001e0: d2fa 89bd d33e 77bc d0d1 b2be 5425 65bd
000001f0: 32c6 40be ae6f 29be aaec bbbd 2800 7c3c
00000200: 765f cabd b6d3 263e 3467 433e 38d1 82be
00000210: 2833 63be 1c1f a8bd adf7 e6bc 498e 103d
00000220: 9af3 37bd db51 043e 2277 98bb 3f59 d9bb
00000230: d867 2ebd 23a1 2a3e 8638 cfbd 8950 82bd
00000240: d772 30bc 2da2 6e3d c48b c53d 42ff 933d
00000250: 207e 203e fd7f 85bd 9904 bb3e e08c 6bbe
00000260: d489 053e b831 613d d667 3e3e 04ae 8dbe
00000270: 2d2f 543b 7b55 793d dfc5 ce3d 2633 4fbc
00000280: 5091 e0bd 0674 f43d 2239 b5bd 2152 89bb
00000290: 1b17 b4bd b955 5e3d 5fe7 e2bd 16d5 09be
000002a0: e324 5ebe 47db 6cbb f2a8 b53d dc96 603d
000002b0: d194 9abd 9839 a3be 6e85 623d 02f3 1c3d
000002c0: d601 70be 60c7 aabd 2fc2 043e e901 17be
000002d0: d040 a5be bf3d 11be 1135 60be 2a14 293e
000002e0: ffd8 e3be ad54 ffbd a632 b6bd d97d 833d
000002f0: f74a 3c3e d732 2b3d 8fc4 003d 3b2d 5abe
00000300: 3cf6 5a3e 9fc0 5dbe d918 90bc 325f 983c
00000310: ed34 963d 7084 4a3d 0f5e 483e 44ab ba3d
00000320: 7e79 0b3e 26d6 4a3d 8356 b3bd 0d12 f43d
00000330: de8c e6be e5d6 2e3e 8f0a 59bd 7d06 02be
00000340: 4485 bc3d 0f17 05be bd76 50bc 8e8e 6c3d
00000350: ced4 053e 6268 4fbe cec6 99bd 85c7 17bc
00000360: fa8f 1bbe 25fd 84bd 86f2 65be 3f31 313d
00000370: c6f0 75bc 6abc 1ebe 1fc3 ad3e 7125 be3e
00000380: fba7 7b3e b5a0 eabd 4f8d d1bc b2b8 8f3d
00000390: a9db d73d 172e 92bd ef35 91bd edae 0abe
000003a0: 719d 163e c25c d73b 5e9b f53c fb3c abbc
000003b0: 0d92 ebbd ec9b b73d a79a b43d a31a 2c3d
000003c0: b911 a73d 1fcc aa39 bb36 453e 1999 443e
000003d0: 43c5 383e 88d6 e3bd d67b 5ebe b069 aa3a
000003e0: 6e5f 853e b562 843d 9c4c 173e b571 bdbd
000003f0: 90d3 6e3d e6aa 8cbd ff64 68be ef21 8e3d

model_1/lstm_2/while/lstm_cell/MatMul_1 f4 [64, 9]
0.08499396 0.1332231 -0.31513345 0.25319755 0.21870205 0.06001585 -0.29352492 -0.035438485
-0.05150833 -0.0056921327 0.07271868 -0.01902796 0.09794311 -0.027556458 0.10434733 0.15232581
-0.10711632 -0.00077276456 0.008780027 -0.18544362 0.20594437 -0.18539675 -0.16861452 -0.16320142
0.46525404 -0.1225119 -0.19432469 -0.076884046 0.028375741 0.027340697 0.009835213 0.0045003747
-0.087738484 -0.11681666 0.009702139 0.13490954 0.1854005 -0.0871273 0.36561617 0.059686325
0.11504189 -0.07573487 0.19064206 0.041521903 -0.011592299 -0.1566337 -0.0979126 -0.10045994
-0.03628096 0.002921995 -0.0033932063 -0.022315295 0.05085301 -0.015208727 0.09328331 -0.06867159
0.034306087 0.021400448 0.18163438 0.021143368 0.0679388 0.16288856 0.056926467 -0.09342823
-0.037755825 -0.11136277 -0.01313964 -0.117724314 0.16068815 -0.022590552 0.22044553 -0.09364903
0.050271027 -0.07685463 -0.032216337 0.10991944 -0.04979257 -0.03412555 -0.021850437 0.12802128
-0.2994113 0.03639972 0.10707995 -0.057663213 0.11459395 0.2159337 0.19409907 0.01698154
-0.02439491 0.11917996 -0.062496394 -0.080647394 0.21847792 0.09863202 0.11395999 -0.036131375
0.08256571 -0.09225552 -0.047927275 -0.01816296 0.15974791 0.055832617 -0.09837837 0.1462312
0.03319514 0.039491847 -0.0098561635 0.09990866 0.004235027 0.03775801 0.14175278 0.19012311
-0.12681162 -0.060600862 -0.08006025 -0.15567607 -0.44955572 0.043302793 -0.066698425 0.109142736
0.10768176 -0.10394761 0.11990811 -0.055852152 0.1352386 -0.082187906 -0.024365405 0.112284824
-0.14056243 -0.0019579013 0.09467716 -0.01944847 0.023611007 0.28256515 -0.042727757 -0.06137329
-0.11741674 -0.08415201 -0.014066754 0.021426434 0.025631653 0.17607088 -0.024154408 -0.13032258
-0.06026234 -0.21137518 -0.119266115 0.0723803 0.0006443703 -0.0015065346 -0.0029075588 -0.17489855
0.24760492 -0.09084461 -0.005415921 0.12380319 0.11545167 0.06048596 -0.016949207 0.15157102
0.11138054 -0.047118492 0.12242785 -0.009519278 -0.06482258 0.07829647 -0.039081834 0.067532174
0.15078983 0.22925769 0.021406494 -0.09133996 0.04432322 -0.07488641 0.16094008 -0.1989421
0.057048153 0.022289634 0.15841126 -0.031628344 -0.11245681 -0.07524689 -0.341602 0.17627273
-0.106804915 -0.13411342 0.026786145 0.05335932 0.15458891 0.11638559 0.13323627 -0.09777882
-0.0006548614 -0.024697071 0.086542636 0.11132827 -0.011190211 -0.025600307 0.15138756 0.14351922
0.13910732 -0.054087467 -0.122423835 0.059796423 -0.08435677 0.06933537 -0.077367574 0.011036532
-0.07476193 0.082884185 -0.066003375 -0.004451846 -0.012498803 0.092345625 0.11488337 0.09486052
-0.25570562 -0.05093129 -0.12770593 0.032759808 -0.08409562 0.025751587 0.38987008 0.03575246
0.06184761 -0.17043243 -0.14201659 0.24154678 0.00035351753 -0.1342319 -0.1698534 -0.061663155
0.048924044 0.010199314 -0.21554469 -0.10986034 0.2797411 0.005435371 -0.033534206 -0.09284591
-0.101607 -0.23234753 0.21917063 0.0036927331 -0.18782097 -0.09641897 0.068696566 -0.0442422
0.071208574 0.07234538 -0.101008065 -0.031673666 -0.074624225 -0.07277764 -0.20097375 -0.073988296
00000000: 5011 ae3d a36b 083e 2c59 a1be 1ca3 813e
00000010: 6ef3 5f3e 2ed3 753d e648 96be f227 11bd
00000020: 66fa 52bd 1285 babb 88ed 943d 86e0 9bbc
00000030: 6696 c83d 15be e1bc 0eb4 d53d 4cfb 1b3e
00000040: cd5f dbbd 5a93 4aba 1ada 0f3c efe4 3dbe
00000050: 15e3 523e a5d8 3dbe 49a9 2cbe 461e 27be
00000060: c735 ee3e 85e7 fabd 0dfd 46be 6275 9dbd
00000070: 3e74 e83c 99f9 df3c e023 213c e177 933b
00000080: 3cb0 b3bd 933d efbd b8f5 1e3c ba25 0a3e
00000090: a1d9 3d3e cc6f b2bd 0b32 bb3e a679 743d
000000a0: 159b eb3d e21a 9bbd ac37 433e df12 2a3d
000000b0: a0ed 3dbc 9664 20be 6786 c8bd f1bd cdbd
000000c0: 589b 14bd f17e 3f3b 8e60 5ebb 91ce b6bc
000000d0: 3f4b 503d 062e 79bc 520b bf3d b1a3 8cbd
000000e0: 8a84 0c3d fe4f af3c 5dfe 393e db34 ad3c
000000f0: 7f23 8b3d 42cc 263e ba2b 693d 4d57 bfbd
00000100: daa5 1abd 2a12 e4bd a547 57bc 7219 f1bd
00000110: 6f8b 243e d20f b9bc 79bc 613e 10cb bfbd
00000120: fee8 4d3d f665 9dbd 47f5 03bd 711d e13d
00000130: 4bf3 4bbd 3cc7 0bbd b0ff b2bc 0318 033e
00000140: 704c 99be df17 153d bc4c db3d 4330 6cbd
00000150: 3cb0 ea3d b91d 5d3e e8c1 463e df1c 8b3c
00000160: d6d7 c7bc 9f14 f43d 38fc 7fbd 762a a5bd
00000170: adb8 5f3e 96ff c93d db63 e93d 7efe 13bd
00000180: 3618 a93d 76f0 bcbd 644f 44bd 7dca 94bc
00000190: f594 233e beb0 643d 997a c9bd a2bd 153e
000001a0: a1f7 073d 34c2 213d bf7b 21bc e99c cc3d
000001b0: fbc5 8a3b 25a8 1a3d a427 113e a2af 423e
000001c0: e8da 01be 9c38 78bd a1f6 a3bd 8c69 1fbe
000001d0: 2b2c e6be 455e 313d 2f99 88bd 3a86 df3d
000001e0: 4188 dc3d 7ce2 d4bd 6292 f53d 3ac5 64bd
000001f0: fd7b 0a3e 2252 a8bd f599 c7bc 96f5 e53d
00000200: 99ef 0fbe 2250 00bb 19e6 c13d 6652 9fbc
00000210: df6b c13c 61ac 903e 4d03 2fbd 8f62 7bbd
00000220: 3078 f0bd e457 acbd 3e78 66bc 7d86 af3c
00000230: 79f9 d13c ed4b 343e 77df c5bc 4873 05be
00000240: a5d5 76bd bc72 58be cb41 f4bd 1f3c 943d
00000250: f5ea 283a ea76 c5ba be8c 3ebb 9b18 33be
00000260: 258c 7d3e bd0c babd 0a78 b1bb 878c fd3d
00000270: ed71 ec3d 20c0 773d 10d9 8abc 6f35 1b3e
00000280: 7b1b e43d 52ff 40bd 74bb fa3d bff6 1bbc
00000290: b3c1 84bd e659 a03d 4614 20bd 4f4e 8a3d
000002a0: a668 1a3e 87c2 6a3e ac5c af3c 7210 bbbd
000002b0: 448c 353d 0c5e 99bd 7acd 243e 7ab7 4bbe
000002c0: 53ab 693d c098 b63c 9036 223e b98c 01bd
000002d0: c24f e6bd 0b1b 9abd 75e6 aebe d780 343e
000002e0: 89bc dabd 0755 09be 9e6e db3c 4d8f 5a3d
000002f0: 8e4c 1e3e 915b ee3d 176f 083e 4340 c8bd
00000300: 01ab 2bba 8351 cabc 443d b13d 1300 e43d
00000310: 2657 37bc bcb7 d1bc 5705 1b3e b4f6 123e
00000320: 2672 0e3e d28a 5dbd 59b9 fabd 18ed 743d
00000330: 3ec3 acbd b4ff 8d3d e472 9ebd 92d2 343c
00000340: c81c 99bd 2fbf a93d c72c 87bd cae0 91bb
00000350: c8c7 4cbc b41f bd3d f947 eb3d 3b46 c23d
00000360: d9eb 82be 549d 50bd 58c5 02be 262f 063d
00000370: 533a acbd fef4 d23c 0d9d c73e 2c71 123d
00000380: eb53 7d3d d785 2ebe cc6c 11be 0a58 773e
00000390: 5258 b939 1674 09be 0dee 2dbe 8192 7cbd
000003a0: 9464 483d 061b 273c bfb7 5cbe 75fe e0bd
000003b0: 3a3a 8f3e 321b b23b 2a5b 09bd ff25 bebd
000003c0: 5517 d0bd 83ec 6dbe 446e 603e c801 723b
000003d0: 2454 40be 4f77 c5bd c9b0 8c3d 4f37 35bd
000003e0: cdd5 913d d129 943d 51dd cebd 3fbc 01bd
000003f0: 96d4 98bd 710c 95bd 10cc 4dbe 2d87 97bd
